691/Group project/suspicious_grpo/record_grpo_150eps/grpo_atari_actor.pth (torch, 677134 bytes, 14 tensors)

features.0.weight f4 [8, 3, 8, 8]
00000000: 74fe 103b c9bd e3bd 94c1 023e 8a03 993e
00000010: af2e c23d b38e 563e 9804 bc3d 8a28 963e
00000020: e439 c6bd 3032 703c dee9 6d3e aae2 18bd
00000030: ca23 cbbc 976d b03d 8d87 543d 160a bbbd
00000040: 7f3e 2a3d a7f5 4bbe 5665 d1bd 5ea1 2abd
00000050: 491e 87bd 2032 8bbd 5313 173d 99d2 12be
00000060: 70cb 33be 396e cebd ece6 643e efa7 d8bd
00000070: 8771 893d 00b4 81bd 14fa 71be f294 2f3e
00000080: f806 d23d 3b03 a93d 10eb 43be 2a76 753e
00000090: 5a7a 1dbc 84e3 803c 525a 42be f45e 13bd
000000a0: 8637 2fbe 2af7 293c baac 333d 8be8 a83d
000000b0: f8ed 003e 7834 1fbe 8f6c 573d fa6a 50be
000000c0: bb64 83bc c219 58bd e498 be3d 944c 033e
000000d0: 9b8e ed3d b905 1bbe db7d 083d ab73 d43d
000000e0: fb1e 4a3e baa1 403d eb88 6bbe 67ea 84bd
000000f0: ed90 bbbd e0e8 79bd 597c 453e f132 18bd
00000100: d84d d73d 9aca 6dbe c8c5 78bd 64ac 5b3d
00000110: e479 253e 457d 8bbd 707e 7cbd 81af 3abe
00000120: 826f 8fbe 02ea 533e 7656 4a3e 2e02 17be
00000130: ca5b 14be 3b1f ec3c 715c 0bbd 2b18 243e
00000140: 40ea 0fbe e05c e8bd 029c a0bd 73c9 15be
00000150: 2fe0 53bd ceb1 7c3e 59e9 28bd abd2 4cbd
00000160: e9a0 7bbe dbe6 723d 1993 d73d 8084 61bd
00000170: 6d64 b53e abf9 41bc 3cb8 14be a3d5 433c
00000180: 3d65 6abd 0dc9 75bc b398 c33c 8b72 9b3e
00000190: 2602 ad3b 3cb9 48be bf33 38be 0f3c 913b
000001a0: 27cf 90be dded b0bd 2e82 843d 9e2b 0e3e
000001b0: e1fa bebc 7938 a73d f94b b5bd fc0e 76bd
000001c0: f463 90bd 3cb7 eb3c 1a22 163e b598 8dbd
000001d0: 356e 113c 0dd3 f13b 8e4e ecbd 85df 17be
000001e0: 269b 61bd 0aba b13c 80a1 05be 81b1 94bd
000001f0: 5565 70bd 51d8 80bd ff67 553e 4bdc d3bc
00000200: 8c90 df3a 3186 cdbe 7dee 16be da96 b23c
00000210: 1f53 90bb 8c63 e03c 15ec 4abd 9377 16bc
00000220: d5a7 a2bd 0768 803d f9c9 a63d ff5b 9fbd
00000230: 8851 643c 4a8d f73c 960b 0f3e 21ee 5c3e
00000240: 20dd 62be 5c71 78bd b006 90bd 03ac e8bd
00000250: 6de1 45bd ae14 c4bc e397 f83d 2c61 41be
00000260: 8c18 073d 83e3 ab3d ebbc 423e 2ae8 abbd
00000270: 1d0b b93a 1065 b13d 744e 29be 7eee c63e
00000280: ac5d 113e bc51 e63c 4828 a13e 760c fc3d
00000290: 46aa 183e 2d66 d43d 10e0 0d3d f2f3 ae3d
000002a0: db99 06bd cb82 f43d e630 18be f546 ddbd
000002b0: aac3 1c3e 6526 62bc c7e9 22bd ef25 d8bd
000002c0: a0c3 88bd bb35 31bd 6507 a0bd 3c20 01bd
000002d0: 8899 e23d 395b 993d dfad bebd 5cf9 ba3c
000002e0: bb4b c73d 7f2d cfbd 31e8 3ebe aebc 4f3e
000002f0: 8c61 c43d 874a 18bd 2532 353e eb5d 25be
00000300: 4df3 d4bc 1baf 68be b4a1 46bd 2f2f 83bd
00000310: 83ae 1e3e faf2 4abe f5ae bebd a326 763d
00000320: 5b65 9d3d 71f8 333d eaa8 643d 26e1 9bbd
00000330: 888e cdb9 98d1 703d e7ab db3e a4b4 243e
00000340: b283 fa3d d7a9 99bd ba78 d73d 61d5 4a3e
00000350: 0c47 7bbc 03a4 55bc 336f 123e b660 8abd
00000360: 30c2 4d3e 3edb 5bbe 8925 af3e 19a4 713c
00000370: 3a07 aebd a86d be3d e748 113e 9c36 7e3e
00000380: e856 f8bd 17bf d33d 8f99 953e 0541 4d3e
00000390: 74ae 39bd f2b3 25bd 2bb1 783d b5ad 583d
000003a0: e452 053e d8a3 883d 4f83 84bd 4cc1 ccba
000003b0: 1322 31bd c54f 41bc e974 c13d d5f0 9f3d
000003c0: 5893 ed3c 918d 25be 02e5 673d 5e1c 573c
000003d0: b135 95bd ff8b f63d a007 1c3e 8f4d 8ebd
000003e0: c189 5ebd b963 60be f871 5fbe 03a0 df3c
000003f0: eb4e 093e e2a9 973d a715 70bd b575 75be
0.0022124322 -0.11120183 0.12769157 0.29885513 0.094815604 0.20952873 0.09180564 0.29327804
-0.096790105 0.014660403 0.23233745 -0.03732554 -0.024797339 0.086146526 0.051887084 -0.09132783
0.041563507 -0.19917928 -0.102244064 -0.041657798 -0.06597573 -0.0679667 0.036883663 -0.14338149
-0.17558074 -0.10079617 0.22353715 -0.10578906 0.06711107 -0.063331604 -0.23630553 0.17146662
0.102552354 0.08252569 -0.19132638 0.23970857 -0.00961169 0.015733488 -0.18979767 -0.035979226
-0.17111024 0.01037387 0.043865897 0.08247479 0.12590778 -0.15547359 0.052593764 -0.20353308
-0.016039243 -0.05275894 0.09306505 0.12822181 0.115994655 -0.15138902 0.03332315 0.103736244
0.1973838 0.047029234 -0.23001449 -0.06490021 -0.09158502 -0.061013103 0.19285716 -0.037157957
0.105128944 -0.23221818 -0.060735494 0.0536312 0.16159779 -0.06811003 -0.061644018 -0.18231012
-0.2801476 0.20694736 0.19759545 -0.14746925 -0.1448814 0.028823486 -0.034023706 0.16024844
-0.14054203 -0.113458395 -0.07842256 -0.14627628 -0.05172747 0.24677202 -0.041238163 -0.050005596
-0.24573101 0.059302192 0.105261035 -0.055058002 0.3542818 -0.011839311 -0.14523405 0.01195279
-0.057225455 -0.0150015475 0.023876524 0.30360827 0.005279797 -0.19601911 -0.1798849 0.0044322084
-0.28283045 -0.08639119 0.06470142 0.13883826 -0.023312988 0.08165068 -0.08852381 -0.060072884
-0.070503145 0.028773896 0.14661446 -0.06913892 0.008876373 0.0073798955 -0.115384206 -0.1483136
-0.0550796 0.021695156 -0.13049889 -0.07260419 -0.058690388 -0.06291259 0.20840453 -0.02586188
0.0017056628 -0.40141442 -0.14739414 0.021800447 -0.00440444 0.027391218 -0.04954155 -0.009183782
-0.07942168 0.06269842 0.08143992 -0.07781219 0.013935454 0.030218739 0.13969263 0.21575214
-0.22154665 -0.060654983 -0.070325255 -0.11360934 -0.048310686 -0.023935642 0.12138345 -0.18884724
0.032982394 0.08393004 0.19017379 -0.08393891 0.0014117692 0.08661854 -0.16533834 0.3885383
0.14195889 0.028115146 0.31476045 0.12307064 0.14908704 0.10371051 0.03463751 0.085426226
-0.03286157 0.11939009 -0.14862403 -0.108045496 0.15309015 -0.013803099 -0.03977373 -0.1055411
-0.066779375 -0.043264132 -0.078139104 -0.03152488 0.1106444 0.074881025 -0.09310507 0.022823982
0.09731241 -0.101160996 -0.18643261 0.2028682 0.09588918 -0.03718045 0.1769491 -0.16149108
-0.025994921 -0.22723047 -0.048494056 -0.06405484 0.15496258 -0.1981925 -0.09310714 0.06009544
0.07685348 0.043938104 0.05582515 -0.07611303 -0.0003920684 0.058793634 0.4290459 0.16084534
0.1223215 -0.075030975 0.10521074 0.1980796 -0.015336763 -0.013039592 0.14300232 -0.067567274
0.20093608 -0.21470353 0.34208325 0.014748597 -0.08497472 0.09298259 0.14187966 0.2482552
-0.12125951 0.10339182 0.29218718 0.20044334 -0.045332387 -0.040454812 0.060715836 0.052900035
0.13019902 0.06671876 -0.064703576 -0.0015621572 -0.043245386 -0.011798804 0.09446127 0.07809607
0.029000923 -0.16167285 0.056614883 0.013129322 -0.072856314 0.12038421 0.15237284 -0.06948387
-0.05433059 -0.21913041 -0.2182082 0.02729798 0.13409011 0.074054495 -0.0586144 -0.23970683

features.0.bias f4 [8]
00000000: 49ec b23b 923e d63b 4b53 a33b a817 fbbb
00000010: 07e3 d53b f308 3a3c cace f03c d566 9b3b
0.0054602963 0.0065382207 0.0049842945 -0.007662732 0.006527308 0.011354673 0.02939548 0.004742483

features.2.weight f4 [16, 8, 4, 4]
00000000: f1a7 66bd ee13 a13d e480 8ebd 507d c6bd
00000010: 2497 c83e 63f7 26be 7661 713e fdd7 89bd
00000020: a1e4 2bbe 89ce b63d 825c a4bd 2eb1 283d
00000030: a810 173e 7267 d4bc 91e6 593e a5cf b63d
00000040: 28f5 c33d 71ff dc3d fc4f 6e3e 792b ae3d
00000050: 46fe 6cbb 2334 7cbd 76ae 0ebe d447 de3d
00000060: ae99 f5bc e6c1 c6bd ee11 d5bd 82b5 46be
00000070: 6a41 95be 738e afbe c1c0 843d b768 853e
00000080: 2fd8 bf3d 410b 4c3d 5466 013e 7909 8d3e
00000090: 454c 933c ceb8 f9bd a400 6d3e 45c6 a53d
000000a0: b59b 253e d7fd 3bbe 68d4 51be 4a99 e13d
000000b0: 6472 69bd ee22 8e3e 7461 5b3e 20ed 503c
000000c0: abf1 ab3c 267e ab3e 348d b03e b157 083d
000000d0: 03ea 9abc 7c0d f33c eca3 ab3e aee2 433d
000000e0: c4a0 213d a547 913e 53cc 37bd ad5d 083d
000000f0: 16a9 d0bd e6db 7dbd 9c65 b6bd ee01 34be
00000100: bbe8 8dbd e299 12be 8662 5a3d e254 b4bd
00000110: 71e9 443e 0008 d1be 7281 0d3e c698 42bd
00000120: 88d6 b43d 58cd 6cbe e527 a3bc afab 84bd
00000130: a901 e7bd 5fa8 ec3c 11c0 6a3d 46df e83d
00000140: 2d97 cbbc b3da f73b cc14 ff3d 9d09 033e
00000150: d8c2 ef3d 702b 693c ba9f 7cbb aa14 833e
00000160: 3c0c 273e 38d8 4bbc 4743 0dbc a549 cdbd
00000170: 13c5 363e 8e7c 0f3d ebe0 853e 2f2d c3bd
00000180: 5799 ebbd 672e 3bbb d8e5 603d 9d32 89bd
00000190: 7e79 f53d 8fbf 043d b3b8 483e a566 c6bd
000001a0: 708d 26bd 580a d1bd 0e64 acbd 7a8f 93bd
000001b0: f6e7 b1bc f001 2abd 6b85 a53d 834e 1d3d
000001c0: 5ab7 22bd 5543 7abd ac6c dd3d 1b55 c2bd
000001d0: 9e6f f7bc 7e72 873e e598 fdbd c667 243e
000001e0: 6d19 a4bc 83d1 7ebe 10aa 643c ba47 a3bc
000001f0: c8ec ee3d d758 043e 9505 3dbe 5726 023e
00000200: f375 c43d 15c1 c73d f9ee ca3d 3f60 043e
00000210: 058d a1be 793f 203e 49fd 263c e845 8c3e
00000220: f593 ad3d da68 22be 0e1e f6bc f773 073e
00000230: d697 afbd 7491 82be 2b31 06bc af69 5abd
00000240: d830 eabc 5fde a13c 38d8 4fbe 8ff3 c13d
00000250: 0e95 2a3e 1e36 1b3e 0359 ffbc 59fd 823e
00000260: 9a4e a6bd be08 12be 1467 b0bc e233 31bd
00000270: 2525 dcbd 9475 06be 47b8 3fbe a582 a8bd
00000280: b439 4ebd 2291 46be 53bb 18bd 4e4e 963e
00000290: 4ed7 823e 917a 063e fb58 5fbd 4c46 f73b
000002a0: 73fc c6bc 5e6d 223c cf6e bfbd e2fb 7c3e
000002b0: 3a4a eb3d f268 39be dd2a 263d eb6c 313d
000002c0: 2561 01bd ea70 c9bd ed44 243d 4dca 9f3e
000002d0: bf69 90be 1900 01be 69f2 4cbe 30c8 05be
000002e0: e039 9cbd 3d8d e53d c743 92bd 5225 a53d
000002f0: 4603 1abe e764 5ebd 6342 4a3d ff4a a83d
00000300: cce6 35be fc3f 27bd 1de9 bb3d b81a 433d
00000310: 5508 a13d 329a bdbe 4b5a 4dbe e3af 9dbd
00000320: cf03 b43d 4f3e 2fbe f3c6 6c3c 8aa3 69bd
00000330: da63 0dbe 314c 4fbd 25b3 893d 1439 dcbd
00000340: 5dcb 07bd 16ee a93c afec 163e 30ad 303e
00000350: 021c d23d e178 bc3c bff1 273d c6c6 3a3e
00000360: 2688 8b3d 110d 453c 2732 d23b 8ce2 52be
00000370: 34b6 4e3d b90c 8f3e 8473 ba3c cee9 a43c
00000380: e6a8 bd3e 32c1 5bbd 01df 4f3c 7326 2dbe
00000390: a30a d0bd feca 353e 3400 123d 06ac c8ba
000003a0: 35a0 5c3e 4177 53be 4a82 31be bf4c cdbe
000003b0: 863b aa3c 0f5f bb3e ced0 b43c a169 7fbc
000003c0: 68aa 83be f87a f7bd 6ce5 8d3d 0c3d 903e
000003d0: 64d6 793e 5aa8 093d 6275 cebd 86ef 3c3d
000003e0: 776a e5bd cd87 51be 82a1 383d c69d 953d
000003f0: 812a 2a3d 4932 9bbd 2a3e f03d 5265 c53b
-0.056312505 0.078651294 -0.06958178 -0.0969187 0.3917781 -0.16305308 0.23572335 -0.067306496
-0.16786434 0.08926112 -0.08025457 0.041184597 0.14752448 -0.025928233 0.2127936 0.08926324
0.09568244 0.10790909 0.23272699 0.085043855 -0.00361623 -0.06157316 -0.13933739 0.10853544
-0.029980507 -0.09704952 -0.104038104 -0.19405177 -0.2915147 -0.34288368 0.064820774 0.26056454
0.093674056 0.04981542 0.12636691 0.2754629 0.017980704 -0.12193452 0.23144776 0.080944575
0.16172679 -0.18358551 -0.20491183 0.11015566 -0.056993857 0.27761024 0.21423894 0.0127518475
0.02098926 0.3349468 0.3448273 0.033286754 -0.018910414 0.029669516 0.335235 0.0478236
0.03945996 0.28374973 -0.044872593 0.03329246 -0.101885006 -0.06197729 -0.08906099 -0.17578861
-0.069291554 -0.14316514 0.053316616 -0.088052526 0.19229676 -0.40826416 0.1381891 -0.047508977
0.08829981 -0.23125207 -0.019916484 -0.064780585 -0.112796135 0.02888888 0.057312075 0.11370711
-0.02485236 0.007563913 0.124551386 0.12796636 0.11707085 0.014231548 -0.0038547353 0.25601703
0.16313261 -0.012441687 -0.008621997 -0.10023812 0.17848615 0.035030894 0.2614816 -0.095301025
-0.11503857 -0.0028561593 0.054906696 -0.06699107 0.119860634 0.032409247 0.19601707 -0.09687547
-0.04066223 -0.10207051 -0.084175214 -0.072051 -0.021717053 -0.041505754 0.08082088 0.038404953
-0.03972564 -0.06109937 0.10811743 -0.09488889 -0.03020459 0.26454538 -0.12382678 0.16055211
-0.020031655 -0.2488461 0.013956562 -0.019931663 0.11666256 0.12924515 -0.1845916 0.12709938
0.095928095 0.09753624 0.09908862 0.1292734 -0.31552902 0.15649213 0.010192224 0.27397084
0.08475486 -0.1586031 -0.030043628 0.13227831 -0.08573882 -0.25501597 -0.0081904335 -0.053323444
-0.028587744 0.019759355 -0.20297325 0.09470283 0.16658422 0.15157363 -0.031170374 0.25583914
-0.08120461 -0.14261147 -0.021533526 -0.04326237 -0.10749272 -0.1313079 -0.1872264 -0.082280435
-0.050348 -0.19391301 -0.03728802 0.29356617 0.2555489 0.13132693 -0.054528218 0.007546222
-0.024290299 0.0099137705 -0.09347307 0.2470546 0.11488767 -0.1810644 0.04056822 0.043316763
-0.031586785 -0.0983599 0.040104795 0.3120903 -0.28205678 -0.12597694 -0.20014347 -0.13064647
-0.07628226 0.1120858 -0.07141834 0.08063759 -0.15040311 -0.054295447 0.049379718 0.08217429
-0.17763823 -0.040832505 0.09175322 0.047632903 0.07862917 -0.37031704 -0.20053975 -0.07699563
0.08789789 -0.17113613 0.01445173 -0.05704073 -0.13807622 -0.05060977 0.06723622 -0.10753074
-0.033152927 0.020743411 0.14738725 0.17253566 0.10259248 0.023006858 0.04100203 0.18239889
0.06813078 0.012027041 0.00641467 -0.20594233 0.05046673 0.27939394 0.02276016 0.020131018
0.37042922 -0.053651042 0.012687446 -0.16909198 -0.10158279 0.17753217 0.035644725 -0.0015310056
0.21545489 -0.2065096 -0.17334858 -0.40097615 0.020780336 0.3659596 0.022072222 -0.015589149
-0.25715947 -0.12084001 0.069285244 0.28171575 0.2439819 0.03360782 -0.10080983 0.046126865
-0.11201947 -0.2046196 0.0450759 0.073054835 0.04154444 -0.075779505 0.11730607 0.006024041

features.2.bias f4 [16]
00000000: f2da c4bc 4fe7 82ba 0431 4c3c 16ab 2cbd
00000010: b722 fe3c 535b 2e39 22b9 e5bb d84a 39b9
00000020: 2797 eab9 9730 1dbc 472d b13c 8eb3 413b
00000030: b7fc 0bbd 9138 b23c bfbb 623b cbb8 9b3c
-0.024030183 -0.0009987148 0.012462858 -0.042155348 0.031022413 0.00016627954 -0.007010595 -0.00017670856
-0.00044744575 -0.009594104 0.021628035 0.0029556486 -0.034176555 0.021755489 0.0034596769 0.019009015

features.4.weight f4 [32, 16, 3, 3]
00000000: b811 67bd 9fa9 003e 2721 fc3b 2247 11be
00000010: 0662 4bbe bb21 883d 3efa eebe 4369 03be
00000020: ed2f 063e 4587 c5bd 5c7a b83d ac76 313e
00000030: 6731 643d 0647 9ebd 51e4 693e 56ea 4d3d
00000040: 96bd 11bc 8d36 82bd 8119 cdbd 1ac3 2a3d
00000050: 1bae b13d d4c2 42be 8033 89be ccb7 66be
00000060: 6556 0dbe 7dd7 033e 1bc9 223e 590b 0dbe
00000070: 0524 5fbe 9a67 42bd acb2 54be 23b8 c2bc
00000080: ff03 953d c23d 8ebe e48e 08be 9974 a53c
00000090: 7db3 2dbe 1144 aebd 6577 a0bd 85a6 253e
000000a0: b2c9 53bc d4ed 233e fafa c2bc b469 1d3d
000000b0: 45c1 78ba f6ed 3dbe 4c55 ec3d e2d2 d7bd
000000c0: aaec 973d 1c78 1c3d b5c6 9d3e ea28 053e
000000d0: 6290 0d3e 2f8a ffbb 317a 043e 52e3 7f3d
000000e0: bd85 0bbe f779 80be 4e95 e23d 43a7 553d
000000f0: 6a65 083e a36c b7bb 8a30 b43d 62d6 f2bd
00000100: d509 1fbe c653 3e3d 56d8 103e 9840 00be
00000110: 070d 6d3e febc 2ebe b1d2 8f3e b0d6 9d3d
00000120: ef68 e93d ed7d 65be b70b 993c 4dbc a7bd
00000130: 7b4e 2fbd 35f3 1cbb 0ec1 22be ba4a 923e
00000140: 835c 5b3e e5c0 14be 1205 db3d 95a8 b53c
00000150: 5676 f4bd 73a7 673d ea71 703d e3ec b53d
00000160: e2aa 53be 9d7a 03be 924c 713c 4af9 90be
00000170: 570a 173c 6de6 18be 882e 8a3e 5ce3 b63d
00000180: b22a 54bd 3855 8c3d 0ba4 ac3d 1580 86bd
00000190: ac72 3dbe 99c1 e03c 7a0b 253e 3e9a e0bd
000001a0: eeb7 a63c f2d2 923d e42c 433e c172 8bbd
000001b0: a600 42be d4e5 50be f927 273e 78de 45be
000001c0: 8d34 42be 4ae9 a33d 1423 613d 82b4 8ebd
000001d0: ffed c3bc d6fb ca3d 289f 8eb9 70b7 1f3e
000001e0: c538 32be a1e6 d2bd f1f7 80bc e534 7bbd
000001f0: b450 b13c ee83 153d 1397 10be 357d feba
00000200: d770 a83e 3b7e 7cbc b7f6 92bd c293 813e
00000210: 7dcd 26be 8b21 1dbe dba8 1d3e a14b 873d
00000220: 0b8a 3dbe 3af3 8c3d 25f8 a3be 8e8d e1bd
00000230: 2614 683e 3cb4 2dbe 39b6 65bd d7aa b0bb
00000240: 2b2f dabd 1d9b 99bd 998f 363d 38a4 1a3d
00000250: 8faa afbd b58a 3f3e 109b 1ebd d0ca ab3d
00000260: 446d 123e 7478 39be 68ae 783e 2a59 4a3d
00000270: 2578 903b af3c 463d 8e81 793e b008 753e
00000280: aeb6 22be ea6c a63d e58b b1bd 2347 15be
00000290: 537d 85be 14bf adbd 0373 b2bc c9c5 b5bd
000002a0: 88f9 45be 9481 713e 0d5f 2c3d de51 0bbe
000002b0: 9b98 aabb a0df 553d 578c 693d f76d 15be
000002c0: 6717 5abe bd70 9c3e 1ad9 aabc f1b4 35bd
000002d0: 4963 56be 4166 eebd e291 0abd 14dc 68be
000002e0: fa15 a2bd 6fe9 373e 7ed5 53bc 7677 873e
000002f0: 633e 453d c934 7f3d 294d 82bd 0e41 bbbd
00000300: 514c 02be c62e 6d3c 5892 e1bd 35f5 0b3d
00000310: f37b 06be a38e 0d3d 9274 233e ffb8 1dbd
00000320: a306 20be eabc 103e 8d21 7cbe 1551 423e
00000330: c529 8cbe 7e78 463e 26a4 6dbc f5d4 13bc
00000340: 817b 97bd 293e 8cbe bab7 e13d 5643 703d
00000350: 7581 21bd eca9 d7bc db7b 1cbe cf24 803d
00000360: 7d49 2bbb 5bbf f23c c594 653d cfde f6bd
00000370: 1fab 873d dcac 19be ee2f 4b3d 7220 6c3e
00000380: 2066 283e 1636 6d3e be65 0abc b42f 243e
00000390: bd49 373d 68ab 1b3d 91ad 423e c721 2f3e
000003a0: 2410 f9bd ef86 f4bc 147f b2bd b4cf a03d
000003b0: bb9c 923d 3d1b 083e 61df 953d 1e81 a0be
000003c0: c53e debd 58ff 12bd f2d1 d4bd 5ff9 7fbd
000003d0: 1d0d 5dbc b0e9 85be adf5 c3bd e3eb ffbd
000003e0: ef75 2e3e 43c5 cebd abf1 d03d 0710 85be
000003f0: 1d99 e6bd 4e97 e13d ba67 b33d d826 3dbe
-0.056413382 0.12564705 0.0076943818 -0.14187291 -0.19861612 0.066470586 -0.46675295 -0.12833123
0.1310422 -0.09644941 0.09007713 0.17330426 0.055711176 -0.077283904 0.22841002 0.05027231
-0.0088952985 -0.06358061 -0.1001463 0.04168997 0.08675786 -0.19019634 -0.26797104 -0.2253105
-0.13802488 0.12875171 0.15897028 -0.1377386 -0.21791084 -0.047462083 -0.20771283 -0.023769444
0.07276153 -0.27781492 -0.13335758 0.0201972 -0.16963 -0.085090764 -0.07835273 0.16176803
-0.012926506 0.16008693 -0.023801316 0.038430884 -0.00094892486 -0.18547806 0.115397066 -0.105382696
0.07418187 0.038200483 0.30815664 0.13003889 0.13824609 -0.007798455 0.12937237 0.06247265
-0.13625236 -0.25093052 0.11063634 0.052161466 0.13319936 -0.0055976673 0.087983206 -0.118572965
-0.15531094 0.04646661 0.14145026 -0.1252464 0.23149501 -0.17064282 0.28090432 0.07706964
0.113969676 -0.22411318 0.018682344 -0.081902124 -0.042799454 -0.0023948674 -0.15893957 0.28572637
0.21422009 -0.14526708 0.106943265 0.022175113 -0.11936633 0.056556176 0.058702387 0.08883073
-0.20670655 -0.12839742 0.014727728 -0.28315192 0.009218774 -0.1493165 0.26988626 0.08930084
-0.05179853 0.06852192 0.08429726 -0.065673985 -0.18500775 0.027436065 0.16117659 -0.10966919
0.020351376 0.07169141 0.19060093 -0.06808997 -0.1894556 -0.20400172 0.16323842 -0.19323146
-0.18965359 0.08003481 0.054965094 -0.06968023 -0.023917196 0.09911315 -0.0002720293 0.1559732
-0.17404468 -0.10297895 -0.015743228 -0.06132974 0.021644928 0.03650277 -0.1412013 -0.0019415977
0.3289859 -0.015410955 -0.07175963 0.25308043 -0.16289325 -0.15344827 0.15396444 0.06606222
-0.1850969 0.06882329 -0.32025257 -0.110133275 0.22663936 -0.16963285 -0.056081984 -0.0053914594
-0.10653528 -0.07500289 0.04457054 0.037754267 -0.08577453 0.18705256 -0.038722098 0.08388293
0.14299494 -0.18112355 0.2428528 0.04940144 0.0044088536 0.048397716 0.24365827 0.23929095
-0.1589 0.081262425 -0.08669261 -0.14577918 -0.26072177 -0.08483711 -0.021783357 -0.08875615
-0.1933347 0.23584586 0.042082835 -0.13605449 -0.0052061803 0.05221522 0.057018604 -0.1459273
-0.2129799 0.30554762 -0.020855475 -0.044362012 -0.20936312 -0.11640597 -0.03383053 -0.22740203
-0.07914348 0.17960142 -0.0129293185 0.2645833 0.0481552 0.0623062 -0.063623734 -0.091432676
-0.12724425 0.014476484 -0.11014241 0.034169395 -0.1313322 0.034559857 0.15962437 -0.038506504
-0.15627532 0.14134565 -0.24622174 0.18976243 -0.27375618 0.19381902 -0.014504468 -0.009022941
-0.073966034 -0.27391174 0.11021371 0.058657967 -0.0394301 -0.026326142 -0.15281622 0.06257021
-0.0026136332 0.029632261 0.05605008 -0.12054216 0.06624436 -0.15007347 0.049606256 0.23059252
0.16445208 0.23165163 -0.008447109 0.16033822 0.044748057 0.038005263 0.19011523 0.17102729
-0.12161282 -0.029849498 -0.087156445 0.07852116 0.071588 0.1329164 0.07317997 -0.3134851
-0.10851816 -0.035888046 -0.103916064 -0.06249368 -0.013491896 -0.26154852 -0.09568343 -0.12496164
0.17037176 -0.100962184 0.102023445 -0.2598879 -0.11259673 0.11015187 0.08760019 -0.18471849

features.4.bias f4 [32]
00000000: 5ebd 56bb 84d4 cbbc db06 333c dbeb e93c
00000010: 2a82 7ebc bd36 ad3a c2d4 10bd 414b 183c
00000020: 7ff4 40bc 58fc 423c 2e49 bcbc 74fa b93b
00000030: 646b fb3c 4229 283d 90cc 643b 07da 043d
00000040: ca7b 38bd 4c46 5ebc 54e8 9dbd 8663 843b
00000050: 92a5 68bb 8ba4 bdbc 895b 25bc 76f8 a93b
00000060: 7471 ef3c 6916 e2bd a542 703c 7e18 33bd
00000070: 19cc 3f3b 8466 9bbc 641f a839 d9c2 703c
-0.003276668 -0.024881609 0.010926927 0.028554847 -0.015533963 0.0013215166 -0.03535915 0.009295286
-0.011777042 0.011900984 -0.022984114 0.0056756083 0.030690856 0.04105497 0.0034911968 0.03243449
-0.04503993 -0.013566565 -0.07710329 0.0040401844 -0.0035499078 -0.02314975 -0.010092624 0.0051870896
0.029228903 -0.11039431 0.014664327 -0.04372453 0.0029265939 -0.018969782 0.00032066845 0.014694893

features.6.weight f4 [64, 32, 3, 3]
00000000: 0600 7e3e b25b 483d 3ab8 ffbd 7c7f 013e
00000010: 5d2d 8abd d003 f6bd 66d4 8d3c 46bb ef3d
00000020: 55f9 c2bd 2b21 16bd bb9d 953c f6b6 64bd
00000030: 912b 1f3e 3748 3dbe 07a8 663e 432a b3bd
00000040: 5ac4 6a3e f61f abbd 8b68 5abd 4e4b e6bd
00000050: 6bcd bb3d da48 55bd 9129 f73d 174a 1c3d
00000060: 1dda 093d 3de2 043c 0a01 1d3e e7b9 343b
00000070: 8b46 1f3d 11e8 0fbe 38f9 13be 80ed 943c
00000080: 4cec 853d 291d 343d 2a5d bc3c 27e8 6d3c
00000090: 3ff6 953d e7f7 87bc 860e 6f3d 66fd 1abe
000000a0: b4f3 c3bd fd41 6e3c 9954 27be 2494 cc3c
000000b0: d418 d43d a121 0dbe 8de0 3e3e 4b6e 8d3d
000000c0: 23be 46bd dbd0 a03b 7b41 6c39 42ed e4bd
000000d0: 7af0 e3bd dcca fdbd 063e 0fbe aeca 0cbe
000000e0: 80a1 983d ba19 e5bc 3515 06bd 1338 003d
000000f0: 163a 8ebc 5998 7dbd aa73 1abe f9b8 46bd
00000100: 673d 1d3e 9283 cbbc 27c2 a6bd 4440 a43c
00000110: 3148 f03d 85bc 4cbd 11db 9e3d a692 14bd
00000120: 9877 fb3d 11a7 2cbc bb6f 8f3d f868 023c
00000130: 78e3 16be cd3f b0bd 290b babd 3390 3a3d
00000140: ca33 033e 7563 08bd d89d f4bd 1a31 89bd
00000150: 6cb4 433e a319 1bbd dea6 c53d c7eb 32bd
00000160: e9d0 b73b 1af3 d8bd c65a 60bc 19d8 cc3d
00000170: 70f0 3abe 2598 27be cf40 aabd 9c23 ddbd
00000180: 3221 be3c 4e69 d2bc 17f3 2dbd dd91 8abd
00000190: ce02 cc3b d7d9 073d aceb dc3d 12b1 8e3d
000001a0: ff02 8bbd 0eda 6cbe 406b 993d e423 afbd
000001b0: 84d8 54bc df8e 143d b525 033e 9f78 80bd
000001c0: 19eb ac3d b072 03bd d56c 903c 0ebc 24be
000001d0: 78e3 c3bc b856 1b3e 624e 123d fe6a 24be
000001e0: 0b68 95bd 7c87 5cbb e709 8d3d 2851 943c
000001f0: 50d6 36bd e1ce e93d a507 ac3c 5bf4 443e
00000200: 4141 7b3d 82d8 5c3d 411e 853d cf60 813d
00000210: 72e6 84bd 4b3a 913d c9b7 4b3c 38a2 42bd
00000220: 167f 4b3d de4f 06be 298b b73d da75 e23d
00000230: 0bed b4bd 5f8e b13c 1e63 0fbe e0d7 8a3d
00000240: 1db2 a63c fea2 1cbd 7158 94bb e3ef 6dbc
00000250: 6ea5 f1bd 3666 043e f475 a33e 203a 09be
00000260: 5b70 6dbc 8ea8 92be a939 04be 7ab6 35ba
00000270: cd89 da3d 197d 10be a2c0 2e3e e93d 043e
00000280: d562 65bd 60a1 bebd 48cd 04be 4ebf 1fbd
00000290: 03a3 0ebe 7bf4 c13d 1589 e33d 24e7 6f3d
000002a0: cc08 763d 85e4 dcbd d698 23be aaff 22be
000002b0: 4c4e 18bd 87f3 27bd c2f8 d43c 1df3 c4bd
000002c0: a61d 43be d6b9 32be 88ad 013c 9945 dfbd
000002d0: 41fd 643d d5d1 ab3d 38a8 14be d6ee 243e
000002e0: 67c0 31bd 7d9c ce3d 2cbf 6b3d ce3d c63d
000002f0: 5d99 c1bd f969 56bd 7659 ad3d 855c 103e
00000300: 46f4 3f3d 6b9e c43c 6213 68bd ab6c d13d
00000310: b81f b33d a75a 223e c6c5 9cbd 6f62 1fbe
00000320: c2a8 51be ba54 06be 3fbb 60be bb10 e0bd
00000330: 9435 a23d 3db7 0c3e f436 02be 89cc 6b3e
00000340: ee9e 18be ef3d 29be f981 ec3c eae2 cbbd
00000350: b5f0 d63b d3c0 bd3c bcd1 dabd b509 cb3d
00000360: 7625 073e 0ad6 2f3d dd11 c0bd 10ad 863d
00000370: 48bb cc3c b22a 483d c5a0 f3bd d86b 473d
00000380: 9ab9 a33d 92cd efbd 35e5 a03d 36a1 e73c
00000390: cf1d a73c 5195 a1bd ad27 dc3c f3f9 353e
000003a0: 65a4 5d3d b5f3 86bd 0bba 543c 1dc1 2a3e
000003b0: aa95 f2bd 7d19 b7bd dfbf 48be abca 05bc
000003c0: df3c a73a 545c e3bc f112 17bb fc0f c03d
000003d0: 9f04 4a3d 80fc 163d fc87 f73d c0fb 16bd
000003e0: 4213 8bbb 0eeb e8bd 2ac6 c0bd 74c3 8d3d
000003f0: 854e 0f3d 7991 bdbd 8c19 cebc ebcf dc3c
0.24804696 0.048915572 -0.1248631 0.12646288 -0.067469336 -0.12012446 0.017313194 0.117056414
-0.095202126 -0.036652725 0.018263688 -0.055838548 0.15543963 -0.18484579 0.22525035 -0.08748295
0.22926465 -0.083557054 -0.053322356 -0.11244832 0.0917004 -0.05207143 0.12068475 0.038156595
0.033655275 0.00811058 0.15332428 0.0027576627 0.038885634 -0.1405337 -0.14450538 0.018179655
0.06539211 0.04397312 0.022993643 0.014520681 0.07322358 -0.016597701 0.05836346 -0.15135726
-0.09567967 0.0145421 -0.16340865 0.024972983 0.10356298 -0.1378236 0.18640347 0.06905802
-0.048521172 0.00490771 0.00022531107 -0.11178066 -0.11129852 -0.12392208 -0.13988504 -0.13749191
0.07452679 -0.027966369 -0.03273507 0.031303477 -0.017361682 -0.06191287 -0.15083185 -0.048516247
0.15355454 -0.024843011 -0.081425 0.020050175 0.117325194 -0.049984474 0.07756627 -0.036272667
0.1227867 -0.010537879 0.07003733 0.007959597 -0.1473521 -0.08605919 -0.0908416 0.045547675
0.12812725 -0.033297975 -0.11944169 -0.066988185 0.19111794 -0.037866246 0.09650968 -0.043681886
0.005609621 -0.10593243 -0.013693517 0.10002155 -0.18255782 -0.16366632 -0.083131425 -0.107978076
0.023209188 -0.025684979 -0.042468157 -0.067661025 0.0062259203 0.033166733 0.10787138 0.06967367
-0.06787681 -0.23130056 0.074911594 -0.085517675 -0.0129910745 0.036269065 0.12807353 -0.06273007
0.08443279 -0.032091796 0.01763002 -0.16087362 -0.023912176 0.151698 0.035719283 -0.1605644
-0.07295235 -0.003365009 0.06886654 0.018105105 -0.044637978 0.11416412 0.020999739 0.19233839
0.061341528 0.053917415 0.06499911 0.06317293 -0.064892665 0.070911966 0.0124339545 -0.047517985
0.049681745 -0.13116404 0.089620896 0.11057635 -0.08834275 0.021674333 -0.14002654 0.06779456
0.020348603 -0.03824138 -0.0045271446 -0.0145225255 -0.11799131 0.12929615 0.3192593 -0.13401079
-0.01449212 -0.28644222 -0.1291262 -0.0006931793 0.10670815 -0.14110221 0.17065671 0.12914242
-0.056002457 -0.093081236 -0.12968934 -0.0390008 -0.13929372 0.09470459 0.11110131 0.058570042
0.060066983 -0.10785774 -0.15976271 -0.1591784 -0.037184045 -0.04100373 0.025997523 -0.09616683
-0.19054279 -0.17453703 0.007914908 -0.109019466 0.055905584 0.08389632 -0.14517295 0.16106734
-0.04339638 0.100884415 0.057555363 0.09679757 -0.0945308 -0.052347157 0.08464329 0.14097793
0.046863817 0.02400132 -0.05665911 0.10225805 0.08746284 0.15854894 -0.0765491 -0.15564893
-0.20474532 -0.13118258 -0.21946429 -0.10940691 0.079203755 0.13741775 -0.12716275 0.23027243
-0.14904377 -0.16527532 0.02887057 -0.0995539 0.0065594562 0.023163235 -0.10684535 0.09913961
0.13197884 0.042928733 -0.09378407 0.06575978 0.024991646 0.048868842 -0.11895899 0.048686832
0.07994385 -0.11709131 0.07856218 0.028275114 0.020399956 -0.07889808 0.026874388 0.1777113
0.054111857 -0.06589452 0.012983809 0.1667523 -0.118449524 -0.089404084 -0.19604443 -0.008165996
0.001275923 -0.027753986 -0.0023052061 0.09378049 0.049320813 0.036861897 0.12086484 -0.03686118
-0.004244239 -0.11372958 -0.09412797 0.06922045 0.03498699 -0.09256262 -0.025158666 0.026954612

features.6.bias f4 [64]
00000000: 0bc0 61bb e245 f0bc 55f8 14bd 7abc 193d
00000010: 22df f8bb 3670 273c 040e 2fbd 2655 b2bc
00000020: b7b7 97bc b4a2 14bd da23 7f3a 006f 3abd
00000030: df00 4b3b 9dfc ddbb aad7 213c dd3d d9bb
00000040: 4188 aa3b f62c ac3b f0f4 263d 343e 92bc
00000050: 1fb5 30bb 24d6 31bd 2911 d5bc 2003 6d3c
00000060: f184 32bd 8d63 03bc e334 1ebc 952d 91bc
00000070: 3e5b 82bc 394c f93c dcd3 0fbc 307c 22bd
00000080: 18e4 053d 6f04 0b3b b14d 4ebd 08cf febc
00000090: 9f24 243a 919b 0e3d 7836 a1bb ffbc b6b9
000000a0: 9b81 68bd 88e2 98bc 826a 27bd 361b febb
000000b0: 3daf eabc e9cd d2bc c14a 5bba 5106 26bd
000000c0: 3094 b3bc e904 1b3c 7639 41bd bea6 a83c
000000d0: e2e9 20bd 941d 11bc 20fc 3ebd d06e 3ebd
000000e0: bd32 41bd bee0 00bd 2f14 7abc 6d72 87bc
000000f0: fe8d 0dbd 3bf7 a0bb b667 afbc f1b9 aebc
-0.0034446742 -0.029330198 -0.03636964 0.03753326 -0.007594959 0.010219624 -0.042737976 -0.021769118
-0.01852022 -0.03628798 0.00097328203 -0.045516014 0.003097586 -0.0067744986 0.0098780785 -0.006629689
0.005204231 0.005254383 0.040760934 -0.017851926 -0.0026963425 -0.04341711 -0.02600916 0.014466077
-0.043583814 -0.00801934 -0.009656164 -0.01772193 -0.015912648 0.030431854 -0.008778539 -0.039669216
0.03268823 0.002121236 -0.05036706 -0.03110458 0.00062615605 0.03481633 -0.0049198233 -0.00034854558
-0.056764226 -0.018662706 -0.04087306 -0.0077547086 -0.028648013 -0.025732951 -0.0008365326 -0.040533368
-0.021921247 0.00946162 -0.04717394 0.020587321 -0.039285548 -0.00885715 -0.046627164 -0.046492398
-0.04716753 -0.03146433 -0.015263601 -0.016534055 -0.034559242 -0.0049122847 -0.021411758 -0.021328898

features.8.weight f4 [128, 64, 3, 3]
00000000: 0b2a fb3c 438c 0d3e 91ac b43d d024 ecbd
00000010: 81d7 193e 338d ffba 914f 9bbd f114 49be
00000020: 8d19 63bd 3368 84bc 96e9 69bd e2ad 2dbe
00000030: c774 30bd 9e82 f5bc 6f4f 05be 2e54 6cbe
00000040: 5522 69bd 7c43 553c 57be 003c 5aca d6bd
00000050: 6ac8 e63c f6be c83c 5e8f bdbc eb3a 4cbd
00000060: 01bf 013e 04f7 7dbc fdca 373d d004 253e
00000070: ed83 5a3d fcce 64bd 1180 003e ceb0 67bd
00000080: bae3 883c d7ec d13d 52c8 10be b909 3a3d
00000090: b389 8d3d 9c71 0b3c f9d2 173d 712d 8ebd
000000a0: 7370 8d3d 0fc3 36bd 7caa a73d 7fec 273d
000000b0: e456 773c 49e4 a83b 497e 3fba 6ac8 c0bd
000000c0: a199 41bd b731 0dbd f50b 56bd 537e 2cbe
000000d0: a793 61bd e85c 563c 6811 9abd 862b 49be
000000e0: 2b15 cd3c 98aa 03bd 45be 033c ec28 45bd
000000f0: ae45 be3b fd63 a9bc b046 8c3d 17c0 f6bd
00000100: 957e 163e 02c9 1bbe aab1 96bb 5b1f 76bc
00000110: d1dd e83d 5ea0 86bc 4455 dabd e7cb 0f3e
00000120: dc85 bdbd 97ca b2bd 9ff6 a8bd fe92 dc3c
00000130: 57bd 07bd 6e7b 27be 9704 543c 233e aebd
00000140: 05e9 b1bd 13e1 7fbc 3cbb e2bd 4a42 35bd
00000150: 2e1c 20be 404f 50bc 15d4 6abc 8070 303e
00000160: 10e9 83bd 24d9 933d 332a d2bc 9d68 9f3d
00000170: 3b70 7b3b 4c28 963d 3672 383d b342 e33d
00000180: 7a56 aa3d 061a 313c 7868 edbc e0b6 373c
00000190: 9bcd 57bc e325 333c 27db 4dbd efd6 e3bc
000001a0: b617 133d 00a1 a13d c31b 943d a9e9 f3bc
000001b0: 315e a73d 733b 873c 786c 613d eefb 9e3d
000001c0: e8a5 36bd 082b debc a783 cf3d e0f3 e8bd
000001d0: b43f babd 37b4 cb3c 4859 1a3e 2ee3 b6bd
000001e0: 6b25 503b 09c2 5fbd 61b9 923c 6310 473d
000001f0: fef3 a6bc b2b9 f4bc e317 cdbd 31ec 8ebd
00000200: 0e45 f7bd fbaf 683c eb8c 6fbd 74c9 87bd
00000210: 70a8 033e 1067 703d c887 4e3d 1188 c3bc
00000220: e34a d63d 8708 893d 0b6e cf3d 2402 0ebd
00000230: 50cd 2ebe a73c 88bd f4a7 ef3c 720e 473e
00000240: e4f0 cdbd 65a8 463c cf1f 0f3e 321d 133d
00000250: 0e02 a9ba 5a1a 593c 760f b3bd 5343 333b
00000260: e5c3 a9bb 60a2 08bd c193 913d 9276 f63b
00000270: 456a 0fbd 24aa 713d 0ad8 4abd dab4 e4bc
00000280: 8805 c5bc 2bc0 2a3b 7057 31bc 4f1a a1bd
00000290: 6eb1 303d e8b8 92bc 36c2 943d 9b15 c2bd
000002a0: 104e cc3c fc84 8ebd 4658 a0bd 9eeb 59b9
000002b0: 94f7 82bd 4e31 3f3d 4b78 25be b0c5 f4bd
000002c0: f23d 8a3d 376a 30bd f8cc 20be e780 ff3c
000002d0: 638f 9c3d 9fa6 3b3d 523c 053e c8d6 a4bd
000002e0: 750e 86bc 962f e73b 5005 403d 37db fabb
000002f0: f4e2 09be 0087 933c 05c0 a0bb 7bf2 bebd
00000300: 9507 68bd 18f9 8dbd 0e05 82bd d652 03be
00000310: e45b e4ba b7bb 803d cb41 69bc e006 f9bd
00000320: f20f 69bd b080 1bbd 13a7 b3bd f591 60bd
00000330: 476c 7d3d 5f60 183e 2546 de3d 5620 2f3c
00000340: 3dd4 f1bc 40ba 49be 4cd6 103d be54 80bd
00000350: aa8d e9bd 3201 03bd 4fc7 75bd b530 a3bd
00000360: c3e4 8bbc 28a2 61bc 470c b03d 0a80 f1bc
00000370: f3b7 f53c 49bf 0a3c f3a6 1bbe eb03 623c
00000380: 1830 c5bd b8f8 353d e26e 6abb df60 2cbc
00000390: a774 2cbd e9ca 9abd ff89 4d3d 9f8e 9e3e
000003a0: 6136 1dbe 2380 92bd 98d0 86bd fa08 4ebe
000003b0: a8cf 2cbe 1cb1 1fbd 05ec 15be da98 8ebd
000003c0: 09d5 c03d bc5e 803d 60f6 b73d f376 263c
000003d0: 4a5c 033d de39 93bd 8817 adbd e54b c5bc
000003e0: 7236 a1bc 7ebb 2fbd f9ec 2d3e 2b0f 3b3e
000003f0: da45 c03c 7e14 0b3e f545 69bd 2fd0 c4bc
0.030659696 0.13823037 0.08821977 -0.11530459 0.15023614 -0.0019497037 -0.075835355 -0.19636895
-0.05544429 -0.016162967 -0.05710753 -0.16960862 -0.043080118 -0.02996951 -0.13018583 -0.23078987
-0.056917507 0.013016578 0.007857881 -0.10487814 0.028171737 0.02450512 -0.023139652 -0.049860876
0.12670518 -0.015500788 0.04487132 0.16115117 0.05334847 -0.05586146 0.12548853 -0.0565651
0.016710151 0.10250252 -0.14138916 0.04541943 0.0691103 0.008510973 0.037066434 -0.06942261
0.069062136 -0.044619616 0.08186814 0.040997025 0.0150964 0.005154167 -0.000730489 -0.09413226
-0.047265653 -0.03447124 -0.052257497 -0.16845064 -0.055072453 0.013083674 -0.07522851 -0.19645509
0.025034508 -0.032145113 0.008040969 -0.04813473 0.0058066463 -0.020677561 0.0684942 -0.12048357
0.14696725 -0.15213397 -0.004598816 -0.015022124 0.11370433 -0.01643389 -0.106607944 0.14042626
-0.09254047 -0.08730047 -0.08250164 0.02692556 -0.033139553 -0.16355678 0.012940547 -0.085079454
-0.08687023 -0.015617627 -0.110708684 -0.04425267 -0.1563575 -0.012714207 -0.014332791 0.17230415
-0.064409375 0.07219151 -0.025654888 0.07783625 0.0038366455 0.07331905 0.045030795 0.11096706
0.08317275 0.010809427 -0.028980479 0.011213034 -0.013171579 0.010934326 -0.050257828 -0.02781245
0.035911284 0.078920364 0.07231858 -0.029774504 0.081722625 0.01650784 0.055035084 0.077628955
-0.044591814 -0.027120128 0.101325326 -0.113746405 -0.09094182 0.024866207 0.1507312 -0.0893005
0.0031760584 -0.054628406 0.017910661 0.048599612 -0.020380016 -0.029873703 -0.10014322 -0.06978644
-0.12073718 0.014202113 -0.058484 -0.06630221 0.12857223 0.058692038 0.05042246 -0.023868592
0.10463502 0.066910796 0.10128411 -0.03467001 -0.17070508 -0.066521935 0.029254891 0.19439104
-0.10055712 0.012125109 0.13976978 0.035916515 -0.0012894289 0.013250912 -0.08743183 0.002735336
-0.005180823 -0.033357978 0.0710826 0.007521459 -0.035013456 0.05900015 -0.049522437 -0.027918268
-0.024050489 0.0026054482 -0.010824069 -0.07866346 0.04313796 -0.017910436 0.07263605 -0.09476777
0.024939567 -0.069589585 -0.07829337 -0.00020782507 -0.06394878 0.04667788 -0.1615917 -0.119517684
0.067500964 -0.043070044 -0.1570319 0.031189395 0.07644536 0.0458132 0.13011292 -0.08048779
-0.016364316 0.007055233 0.046880066 -0.007655527 -0.13465482 0.018008709 -0.004905703 -0.09323593
-0.056647856 -0.069322765 -0.0634862 -0.12824568 -0.0017422405 0.06285804 -0.014236878 -0.121595144
-0.056899972 -0.037964523 -0.08772101 -0.054826695 0.06187084 0.14880513 0.10853223 0.010688862
-0.029520148 -0.19699955 0.03536062 -0.06266163 -0.114039734 -0.03198356 -0.06000453 -0.079682745
-0.017076856 -0.013771571 0.08596092 -0.02948 0.02999494 0.0084684575 -0.15200405 0.013794879
-0.09628314 0.04442665 -0.0035771658 -0.010521143 -0.042103436 -0.07558233 0.05018043 0.30968186
-0.15352775 -0.071533464 -0.06582755 -0.20120612 -0.1687609 -0.038987264 -0.14640816 -0.06962748
0.09415633 0.06268069 0.08982539 0.010160196 0.032070436 -0.07188772 -0.08451754 -0.02408404
-0.019679282 -0.042903416 0.16984929 0.18267505 0.023470808 0.13582036 -0.05695148 -0.02402505

features.8.bias f4 [128]
00000000: 2e56 a5bc 500c 14bc 8a22 f0bc 0361 fa3b
00000010: 58ed bf3c d607 e3bc 2cca d5bb 558f 4dbd
00000020: e602 0abc 6805 c63c 287d 61bd 2501 18bb
00000030: 7452 dfbb d0ff c6bb 5a56 733c 0add 04bd
00000040: 4d27 09bc af40 a2bc 1827 bebc 3784 edbc
00000050: eb8b 51bc ad6f ed3b 8948 d6bc 781c 0cbd
00000060: a9e8 89bc 2b9a 03bd 1e7a 44bd 7361 02bc
00000070: fa91 74bc 0dae 11bd ee50 ccbc ba52 f23b
00000080: f818 debc 8e1d 0ebc 7da1 39bc 2eb4 02bc
00000090: 41ea 993c bf2a f73a 2a8d e7bc ee90 57bc
000000a0: 172a 0bbd e6e5 62bc 7338 79bc 854b e2b9
000000b0: 1f83 8dbc 75cc e6bc 3ce1 dabc abc7 04bd
000000c0: 8df4 dabc 6602 8039 77f5 cebb 5171 733b
000000d0: c8ef e93b f659 7abb c3cb 46bb b9d9 4cbd
000000e0: 424a 87bc 3069 033c 1a48 07bc 3878 0fbd
000000f0: b828 a5bc 6026 89bc a461 d939 8acd e7bc
00000100: 37e6 9ebc 8ad6 b1bc 3a73 b1bc 0321 cdbc
00000110: 381f dbbb 23e0 c23b 1d47 a3bc 2d9c fb3b
00000120: 5139 d4bc 8f91 f5bb 1753 e8bc eabe 883b
00000130: 2c1b 19bb dcff 11bd 3a5b 11bb d763 9b3a
00000140: 684c ccbc d2c1 debc 208f 94bc 30b7 4cbc
00000150: 19f6 213c 104c debc 3f0a 4b39 26e4 0b3c
00000160: 99db 08bd 1ddc ad3b bf20 6ab9 970a 1dbc
00000170: 39e9 1fbc 3e66 eabc ac5e 8abc dc76 89bc
00000180: c64d 94bc dc16 a2bc bb13 ccbc b241 81bc
00000190: f70c 99bb 8011 4fbd 802f fb3a 2890 bfbc
000001a0: 6cd8 27bd 8184 debb ebef 97b9 07bc 02bd
000001b0: dd44 0dbc 75a1 41bd 33f7 b0bb 43c6 f13a
000001c0: 937b 97ba c6ed c1bc be33 a1bb d918 08bd
000001d0: 6b33 b0bc c04d a13c 8048 f6bb f763 b6bc
000001e0: 0648 fb3b 9760 4c3b 0e03 62bc 624a dbbc
000001f0: be8d 223c 70fe dabc 1b38 743b ccc9 62bc
-0.020182695 -0.009036139 -0.029313345 0.007640959 0.023428604 -0.027713697 -0.006524345 -0.05018552
-0.008423543 0.0241725 -0.055051 -0.0023194042 -0.006815249 -0.0060729757 0.014852131 -0.03243736
-0.008371186 -0.019806234 -0.023212 -0.028993709 -0.012789707 0.007245979 -0.026157634 -0.034206837
-0.016834574 -0.032129448 -0.047968023 -0.007957804 -0.014927382 -0.03556638 -0.024940934 0.0073951157
-0.027111515 -0.008674039 -0.011330006 -0.0079775285 0.018788459 0.0018857344 -0.028265554 -0.0131571125
-0.033975687 -0.013848757 -0.015211212 -0.00043162346 -0.017274437 -0.028173665 -0.026718728 -0.03241698
-0.026727939 0.0002441585 -0.006315883 0.00371464 0.00713918 -0.0038200594 -0.0030333854 -0.050012324
-0.016514901 0.008020684 -0.008256936 -0.03502676 -0.020161018 -0.016741931 0.00041462213 -0.02829625
-0.019396884 -0.021708746 -0.02166139 -0.025040155 -0.006687071 0.0059471293 -0.01993137 0.0076785297
-0.025906237 -0.0074941586 -0.028359933 0.0041731494 -0.0023362143 -0.035644397 -0.002217962 0.0011855316
-0.024938777 -0.02719203 -0.018134654 -0.012494847 0.009885334 -0.027135879 0.00019363406 0.008538282
-0.03341255 0.0053057806 -0.00022328178 -0.009585044 -0.009760194 -0.028613206 -0.016890846 -0.01678031
-0.018103492 -0.01978629 -0.024911752 -0.015778396 -0.004670735 -0.0505538 0.0019163936 -0.023384169
-0.04097788 -0.006790698 -0.00028979717 -0.031917598 -0.008622375 -0.047273118 -0.005400562 0.0018445927
-0.0011557214 -0.02367295 -0.004919498 -0.03322682 -0.021508893 0.019690394 -0.007515967 -0.022264464
0.007668498 0.0031185502 -0.013794674 -0.026768867 0.009921489 -0.026732653 0.0037264887 -0.013842057

head.0.weight f4 [256, 256]
00000000: 5f57 e23d d498 34bc bd7c 33bd 9a6a 13be
00000010: a0be d43d 864f d1bd 3b87 1d3d 9ed3 503d
00000020: dde6 8ebd 64b2 8a3d 54b8 a13c bde0 4abd
00000030: e853 90bd 552c 3e3e 194f 24be fa3c 6c3d
00000040: ab1b 33b7 2510 20be 395e 17bd 5bd7 a53d
00000050: d8af bdbd 0364 9ebd 9a5e 0f3e cdd4 af3d
00000060: efd3 c3bd 6437 b4bd 87af 24be 60b5 1d3d
00000070: 5081 eabc 1b43 8abd 74c3 8cbc 3288 87bd
00000080: be92 d23b 28fa 21bd d273 563e 8855 37bd
00000090: 0069 793c 0afd 743d ea9b d13c f785 293e
000000a0: 4dba 8fbd 832d a4bd 4b8b 7b3e 5da6 753e
000000b0: 8edf e93d 1bb3 a23d f3f0 ddbd fc8a adbd
000000c0: 51f1 d93d 5185 403e 208f bc3d fdc8 503c
000000d0: caa0 b83d 8844 5ebd 678d 09be 4b55 683e
000000e0: 0f74 98bd c0c7 c6bd 18a6 fe3d 7a3a e63d
000000f0: 8602 7a3e 0685 753e 71dd 473e cab4 673d
00000100: ac4b 263d ad67 2f3d 101e 0fbe 6767 88bd
00000110: 60e8 2d3e d70a a43d 7a87 783e 34d2 b4bc
00000120: 4c95 9fbd 135c 1ebd d512 033d 9b09 33bd
00000130: 4a9e 0dbd 435c 3abe ae88 533d 20d2 c63d
00000140: bc60 eebd 3bb4 04be 3415 29be 8336 4d3c
00000150: 6066 94bd b7e3 073e eb23 dc3a ebbd 143d
00000160: b6f4 8d3c 70c0 523d 9074 113d 5b79 1cbd
00000170: 05be 8abd 3707 4c3e 4b27 2ebd bbf9 6fbe
00000180: c406 053d ee05 463e cef4 253d b76c 83be
00000190: 8d49 e9bd 4460 533d f7e5 223e 248b f63d
000001a0: 6f8b ad3d efe1 10be 7426 10bd 9f76 27bd
000001b0: b45a 583d 3871 83bc 88b3 913d e5a8 fdbc
000001c0: a264 40bd c618 633d 8d85 aa3d 16b3 13be
000001d0: 03c7 17bd c097 a3bb 8ad7 cc3d c067 49bd
000001e0: 7d09 b93d 3063 78bb 7dc0 ea3b 156d 453e
000001f0: a6d1 d2bd 45b7 293c 62d8 00bd 8c99 31bd
00000200: 9926 0cbe ff8c fa3d 4745 2a3d aa57 15bd
00000210: 6cbe 173e 36a6 b6bd 4d98 35bd 3fd5 423d
00000220: fdab 103d 2181 26bd e303 24bd 7139 d33d
00000230: 00ce 0f3e 6514 51bd e994 b3bd ed49 12bd
00000240: 155e 553e b856 e1bc e0f4 233d 32ea f0bd
00000250: 1773 97bd fbb1 29be 497f afbc aa8b 023c
00000260: 43e1 42be 2df3 75bd acce 5b3d c94b 183b
00000270: 33f1 a4bd d3f2 70bd 7c18 7dbd db89 513e
00000280: 7d33 98bd bb21 8dbd 63ba f1bc aa95 d0bd
00000290: ee19 a93d 4ef5 b2be b8c9 e1bd 0236 34bd
000002a0: 1b20 44bd 7584 5dbe 6494 a6bd 95dd 04bd
000002b0: 7c9a 90bd f72f 18be 4d26 a7be eaf7 0cbd
000002c0: 6261 813d 4639 583e 0b49 00be 53a5 803d
000002d0: 4b00 913d da17 c1bb d802 b5bd f209 a33d
000002e0: c0c3 833d c937 f9bb 0fae 213e d8f7 693d
000002f0: 3516 9d3c 7260 453d 58f8 c83d e9bf 843d
00000300: ab05 59be e513 5cbe 940b bdbd 4d52 89bd
00000310: d55c c8bd b53c 963c bd84 2d3d d5ff 38be
00000320: 67e7 bdbd d667 7c3c 46c0 19bc c57d a6bc
00000330: 49dd c9bd bf46 233d 1418 113e 1f62 d9bc
00000340: a145 89bd bf64 8abc 816a cbbd d7b4 b4bc
00000350: 8ca6 da3d 094f 043e a331 aa3d 91bd b23d
00000360: ac45 22be 2f0a b2bd d155 b13c 6e56 60bd
00000370: 18a3 84bd 43db 45be 1d0c febb 6702 f33c
00000380: 5291 74bd 50d5 63bd 8f3b 123b 7b9a 5b3d
00000390: 545e 043d 3527 a73d b5f7 cb3d 2bdd aebd
000003a0: ffa6 3cbe 301f 2dbe 981d 6f3c 380d ca3d
000003b0: ae93 893d 6159 a53c 9cff a6bd 8841 88be
000003c0: 306d ba3c d3ee 4c3e 62e3 51bd ca1d b63c
000003d0: 220d 423c 5b75 70bc c18c 70bc 2f13 8cbd
000003e0: c699 9cbe 3a2f b63d 29ad 96bd 60db 9ebd
000003f0: b0b3 46bd 5e1a e43d e9cc 973c b0e8 abbd
0.11051821 -0.011022765 -0.04382013 -0.14396134 0.10387921 -0.10220246 0.038459044 0.050983064
-0.069776274 0.067723066 0.019741215 -0.049530733 -0.07047254 0.18571599 -0.16045798 0.05767534
-1.0675673e-05 -0.15631159 -0.036955092 0.080977164 -0.09262055 -0.077339195 0.14000931 0.085855104
-0.095619075 -0.087996274 -0.16082583 0.03850305 -0.028626114 -0.067510806 -0.017183043 -0.06617774
0.0064261844 -0.03954521 0.2094262 -0.044759303 0.015222788 0.05981163 0.02558704 0.1655501
-0.07017956 -0.08016493 0.24564855 0.23989244 0.11419593 0.07944318 -0.10836973 -0.08473775
0.106417306 0.18800856 0.092069864 0.012743232 0.09015043 -0.054264575 -0.13432847 0.22688787
-0.074440114 -0.09706068 0.124340236 0.11241622 0.24415025 0.23976526 0.19518067 0.0565689
0.04059951 0.042823482 -0.13976312 -0.066603474 0.16983175 0.0800988 0.2427043 -0.022072889
-0.07792148 -0.038662028 0.03200038 -0.043710332 -0.034574784 -0.18199258 0.05164402 0.09708047
-0.11639544 -0.12959377 -0.16511995 0.012525204 -0.07246089 0.1327046 0.0016795372 0.036313932
0.017328601 0.051453054 0.035511553 -0.03820167 -0.067745246 0.19924627 -0.04251794 -0.23435108
0.032477155 0.193382 0.040516667 -0.2566888 -0.11390982 0.051605478 0.15908037 0.12038258
0.084738605 -0.14148687 -0.03519292 -0.04088461 0.052820876 -0.016045198 0.07114321 -0.030964324
-0.04697097 0.055443548 0.08326254 -0.14423785 -0.037055027 -0.0049924552 0.10002048 -0.04917121
0.09035013 -0.0037900917 0.0071640597 0.19279893 -0.102938935 0.010358636 -0.03145636 -0.043359324
-0.13686599 0.12233924 0.041569974 -0.036460556 0.14818734 -0.08918421 -0.0443347 0.04756665
0.03532027 -0.04065049 -0.04004277 0.103136905 0.14043427 -0.05104484 -0.08768637 -0.035715032
0.2083667 -0.027507171 0.040028453 -0.11763419 -0.073949985 -0.165718 -0.021422999 0.007967869
-0.19031243 -0.060046364 0.053663895 0.002323853 -0.080538176 -0.058825325 -0.06179093 0.20462744
-0.074316956 -0.06891199 -0.029507821 -0.10184796 0.08256899 -0.34952778 -0.11024803 -0.04399682
-0.04788218 -0.2163256 -0.08133772 -0.03243788 -0.070607156 -0.14862047 -0.3264641 -0.034416117
0.063174024 0.21115598 -0.12527864 0.06281533 0.07080134 -0.005892736 -0.08838433 0.07960881
0.06433821 -0.007605527 0.15789054 0.057121128 0.019175628 0.04818768 0.09812993 0.064819165
-0.21193568 -0.21491964 -0.09230724 -0.06705151 -0.09783331 0.018339494 0.042362917 -0.18066342
-0.09272652 0.015405616 -0.0093842205 -0.020323643 -0.0985666 0.03986239 0.14169341 -0.026536046
-0.06702734 -0.016893743 -0.099324234 -0.022058887 0.106762975 0.12920775 0.08310249 0.08727563
-0.1584689 -0.086933486 0.021647366 -0.054769926 -0.0647642 -0.19321923 -0.007752909 0.029664231
-0.0597089 -0.055623353 0.0022313332 0.05361412 0.03231652 0.08161775 0.09959356 -0.08538278
-0.18423079 -0.16906428 0.014594458 0.098658025 0.06717621 0.02018422 -0.08154222 -0.26612496
0.022757143 0.20012979 -0.05124224 0.022231001 0.011843951 -0.014676417 -0.014681996 -0.068395965
-0.3058607 0.088957265 -0.073572464 -0.07756686 -0.048511207 0.11137842 0.018530326 -0.08393991
