691/Group project/ppo_galaxian.pth (torch, 680586 bytes, 15 tensors)

conv.0.weight f4 [8, 4, 8, 8]
0	0xbd23fa92	-0.040033884
1	0x3e2ad08d	0.16681118
2	0x3e45a40f	0.19300865
3	0xbdd8cbac	-0.10585722
4	0x3df2ec07	0.11861425
5	0xbda50b0a	-0.08058746
6	0xbdad9d45	-0.084772624
7	0xbd855241	-0.06509829
8	0xbcf6567c	-0.030070536
9	0x3df9a113	0.121889256
10	0xbd93544b	-0.07193812
11	0xbe84f9dc	-0.25971878
12	0xbe0a6f08	-0.13518918
13	0xbc4b0fc7	-0.012393898
14	0xbd8e2d0f	-0.06942188
15	0xbd79abd2	-0.060954876
16	0xbd1295c2	-0.03578735
17	0xbd94daa3	-0.07268264
18	0xbd9443a9	-0.07239468
19	0x3e08d73d	0.13363357
20	0x3dfc1386	0.12308411
21	0x3ccb291c	0.024799876
22	0x3d8fc941	0.07020808
23	0xbb84aae3	-0.0040486916
24	0x3c72395d	0.014784184
25	0xbd2bb8c4	-0.041924253
26	0xbd88aa67	-0.06673127
27	0xbc75c369	-0.015000203
28	0x3e2882ba	0.16456118
29	0xbcc2a767	-0.023761464
30	0xbc21330b	-0.00983883
31	0x3da198f0	0.07890499
32	0x3ddb68ca	0.10713346
33	0x3e1874d7	0.14888321
34	0xbcb137cf	-0.021633057
35	0x3da94307	0.082647376
36	0x3bfedac0	0.007777542
37	0x3d3813c8	0.04494074
38	0x3e0c3d74	0.13695318
39	0x3dd5040c	0.104011625
40	0xbd20629f	-0.039156552
41	0xbded11ca	-0.115756586
42	0x3d3f9832	0.046776004
43	0x3d17553d	0.036946524
44	0x3d6c595f	0.05770242
45	0x3e1ccfe6	0.15313682
46	0xbd8ae30a	-0.067815855
47	0x3e27df73	0.16393833
48	0xbd256a46	-0.040384553
49	0x3d52eb00	0.051493645
50	0x3e260a03	0.16214757
51	0xbdc487e0	-0.095962286
52	0x3d763bce	0.060115628
53	0x3bfa52dc	0.007639272
54	0x3d09d244	0.03364779
55	0x3c942e3c	0.018088453
56	0x3d68e7fa	0.056861855
57	0xbde1b8ca	-0.11021574
58	0x3d2ee4fa	0.042698838
59	0x3da06422	0.07831599
60	0x3dc62931	0.096758254
61	0xbbc727b9	-0.0060777334
62	0x3cfcf457	0.030878229
63	0x3d804135	0.06262437
64	0xbe2a9c69	-0.16661228
65	0x3d3c893b	0.04602931
66	0x3cbc2af4	0.0229697
67	0xbc1760cc	-0.009239387
68	0xbe0aa3d7	-0.13539062
69	0xbd6c97a1	-0.057761792
70	0x3b2603dc	0.002533189
71	0xbdaab934	-0.08336106
72	0x3e545fd1	0.20739676
73	0x3d133f27	0.0359489
74	0xbbd87cba	-0.0066066654
75	0x3e2d7ce7	0.16942178
76	0x3b50f7de	0.0031886022
77	0x3d7a125f	0.061052676
78	0xb9b483a7	-0.00034430364
79	0x3d059665	0.03261413
80	0x3c7fa94f	0.015604331
81	0x3de5300f	0.11190807
82	0xbe0bac62	-0.13639978
83	0x3d2c6a2d	0.042093445
84	0xbdb48633	-0.08814659
85	0xbd21af52	-0.03947384
86	0x3e41ed7c	0.1893825
87	0xbbf0aa78	-0.00734454
88	0x3d702afe	0.05863475
89	0xbc9d1fcd	-0.019180203
90	0x3d6e420b	0.058168452
91	0x3d4f6336	0.050631724
92	0x3daf69f2	0.08565129
93	0x3dbe5087	0.09292703
94	0x3e489fa9	0.19592156
95	0x3d1ef750	0.038810074
96	0x3c28efc6	0.010311073
97	0xbc3ef5f5	-0.01165532
98	0x3e47511f	0.19464539
99	0xbdd25382	-0.10269834
100	0xbd6a0fc3	-0.057143938
101	0xbd88904f	-0.0666815
102	0xbc46c7a7	-0.012132562
103	0x3e45967c	0.19295686
104	0xbe35fcb8	-0.17772186
105	0xbd88a0ba	-0.06671281
106	0x3d739f23	0.059477936
107	0x3cfa35b7	0.030543191
108	0xbdd98897	-0.106217556
109	0x3d075f1f	0.0330497
110	0x3d85cd83	0.06533339
111	0x3c90c2fa	0.017671097
112	0xbe0a0782	-0.13479427
113	0xbd7146e5	-0.0589055
114	0x3d249a95	0.040186483
115	0xbc81b818	-0.015834853
116	0x3d7b98a9	0.061424885
117	0xbd22bd15	-0.039731104
118	0x3e02f7db	0.12789862
119	0x3e2427b1	0.16030766
120	0xbdac3e32	-0.084103
121	0xbe243f03	-0.16039662
122	0xbd6f77de	-0.058463924
123	0xbbdbef25	-0.006711858
124	0x3e202c6f	0.1564195
125	0x3dd6352e	0.10459362
126	0x3e1e7945	0.15475948
127	0x3d8e49f9	0.06947703
128	0xbded2118	-0.11578578
129	0xbdc58363	-0.09644201
130	0x3e023bfe	0.12718198
131	0x3c7eb20e	0.015545381
132	0xbdbb77fe	-0.09153746
133	0xbd48f30f	-0.049059924
134	0xbe0c69f4	-0.13712293
135	0x3d8b1127	0.06790381
136	0x3dde4da3	0.10854652
137	0x3d9b4e7a	0.075833276
138	0x3d92b508	0.07163435
139	0x3db647a0	0.0890038
140	0xbd59634c	-0.053073213
141	0x3dfa00d9	0.12207193
142	0x3c743142	0.014904322
143	0x3dc373d7	0.09543579
144	0xbc01e9cc	-0.007929277
145	0x3e3f833a	0.18702403
146	0xbcd21c46	-0.025648247
147	0x3c4fba8a	0.012678752
148	0xbd327bb1	-0.043574993
149	0x3c7a860e	0.01529075
150	0x3d88e39f	0.0668404
151	0xbc266595	-0.010156055
152	0x3dfa3dd0	0.12218821
153	0x3d47fa78	0.04882285
154	0x3e12459d	0.14284368
155	0x3d2f417d	0.042787064
156	0xbc81d888	-0.01585032
157	0xbd2ef981	-0.042718414
158	0xbd9f34e4	-0.0777376
159	0x3d6b1872	0.05739636
160	0x3d4df04e	0.050278
161	0x3d6fb858	0.058525413
162	0x3d885bf3	0.06658163
163	0xbcfe4917	-0.031040711
164	0x3e2c2633	0.16811447
165	0x3c2b9fcb	0.010475109
166	0x3df142ac	0.11780295
167	0x3d77b58d	0.060475875
168	0x3dff8b84	0.12477782
169	0x3baf69de	0.0053531965
170	0x3cfc9aba	0.030835498
171	0xbaae50a6	-0.0013299182
172	0xbd8ad50a	-0.06778915
173	0x3deed65d	0.1166198
174	0xbcea6b43	-0.0286156
175	0xbb47dba9	-0.0030495918
176	0xbd3e9572	-0.04652924
177	0x3d5819cb	0.052758973
178	0xbba0e6ab	-0.0049103103
179	0xbdb6ba9e	-0.08922313
180	0xbb866d2f	-0.004102371
181	0x3d7bb1c8	0.061448842
182	0x3e4cca01	0.19998933
183	0x3e248b36	0.1606873
184	0x3ce4c104	0.027924068
185	0xbdf3efbe	-0.119109616
186	0x3d3f6b5d	0.04673325
187	0xbcc5de87	-0.02415396
188	0x3d8e5fd8	0.069518745
189	0x3e87f1a9	0.2655156
190	0xbd60a97c	-0.054849133
191	0x3ce71f59	0.02821319
192	0xbceb20ea	-0.028702218
193	0x3e0c3fac	0.13696164
194	0xbd6763d6	-0.056491695
195	0xbdc5635f	-0.09638094
196	0xbd8b613d	-0.06805656
197	0xbdaf138f	-0.085486524
198	0x3d3a1f3c	0.045439944
199	0xbe034230	-0.12818217
200	0xbdc227cd	-0.09480248
201	0xbdb79b79	-0.08965201
202	0xbb298c1e	-0.002587087
203	0x3ca4b34d	0.020105029
204	0x3d038044	0.032104746
205	0xbdabccb6	-0.08388655
206	0xbd9d21bd	-0.07672451
207	0xbd167fa9	-0.03674284
208	0xbd984d5b	-0.074366294
209	0xbc98dc54	-0.018659748
210	0x3d83c198	0.064334095
211	0xbe1708fd	-0.14749523
212	0x3d9ce654	0.07661119
213	0x3e0837f5	0.13302596
214	0x3e0cdd77	0.13756357
215	0x3dc45fd5	0.09588591
216	0x3d95cc65	0.07314376
217	0xbd841eb2	-0.06451167
218	0xbc273a55	-0.0102067785
219	0x3dd465c0	0.1037097
220	0x3dba3001	0.09091187
221	0xbca576e7	-0.020198299
222	0x3d8f6659	0.07001943
223	0x3d2ca6bb	0.042151194
224	0xbd712c6c	-0.058880255
225	0x3d0b72ff	0.034045216
226	0x3d80097c	0.06251809
227	0x3c09a052	0.00840004
228	0xbdf9d07f	-0.121979706
229	0x3de57613	0.112041615
230	0x3dd1693d	0.10225151
231	0x3e470a41	0.19437505
232	0xbd89b9c2	-0.067248836
233	0x3d096cc1	0.03355098
234	0xbd9abc6d	-0.075554706
235	0x3dbd608a	0.09246929
236	0xbda0c660	-0.07850337
237	0x3d477033	0.048690986
238	0xbde47237	-0.11154597
239	0x3e0348f1	0.12820794
240	0xbde75116	-0.11294763
241	0x3ddc69a2	0.10762335
242	0xbd099bd3	-0.03359587
243	0x3e085ee6	0.13317451
244	0xba8c033b	-0.0010682115
245	0x3e260b07	0.16215144
246	0x3d99b882	0.07505895
247	0xbd738af0	-0.059458673
248	0xbbf92022	-0.0076027075
249	0xbd453697	-0.048147764
250	0x3d4ff7fd	0.05077361
251	0xbd587f33	-0.05285568
252	0xbc74cab8	-0.01494091
253	0x3d65393b	0.055962782
254	0x3d9b1df8	0.075740755
255	0x3d9fcadb	0.078023635

conv.0.bias f4 [8]
0	0x3bc35908	0.005961541
1	0xbab2dd66	-0.0013646304
2	0xbb552067	-0.0032520534
3	0x39bd5dd2	0.0003611879
4	0x39bc607f	0.0003593005
5	0xbaa04449	-0.0012227382
6	0xbacb3c7a	-0.0015505694
7	0x3c000499	0.007813596

conv.2.weight f4 [16, 8, 4, 4]
0	0xbdba9f57	-0.09112423
1	0xbdbead41	-0.09310389
2	0x3e07a3a9	0.13246025
3	0xbe42a41c	-0.19007915
4	0xbc91f670	-0.017817706
5	0xbe552868	-0.20816195
6	0x3cf426ea	0.029803712
7	0x3d446f7b	0.04795788
8	0x3dfa635f	0.12225985
9	0x3d3368e1	0.043801192
10	0x3ce6d7b9	0.028179036
11	0xbd57a201	-0.052644733
12	0x3c8fc455	0.017549673
13	0xbe667f58	-0.22509515
14	0x3e2a1e62	0.16613153
15	0xbdc7e8a3	-0.09761169
16	0xbe531c73	-0.20616321
17	0xbddca92c	-0.107744545
18	0x3d41111a	0.04713545
19	0xbcee9336	-0.02912293
20	0xbe1c0816	-0.1523746
21	0xbe4ebc21	-0.20188953
22	0x3e1884ca	0.14894405
23	0x3d5a1f7e	0.05325269
24	0xbd025bc7	-0.031825807
25	0xbcf345ae	-0.029696312
26	0x3e89df8f	0.26928374
27	0xbd728f94	-0.059218958
28	0x3dab78fd	0.08372686
29	0xbe10f4e7	-0.14155923
30	0xbdc1f3c4	-0.09470323
31	0xbdefe2e4	-0.11713198
32	0xbe766325	-0.24061258
33	0xbd980fe4	-0.07424906
34	0x3d28f9d6	0.041253887
35	0x3c782682	0.0151459
36	0xbe173ad1	-0.1476853
37	0x3cbbeafd	0.0229392
38	0xbc1e2af9	-0.0096538
39	0xbe75a503	-0.23988728
40	0x3d494531	0.04913825
41	0xbe0d13a2	-0.1377702
42	0x3c0443a4	0.008072767
43	0xbe2b99a9	-0.16757835
44	0x3d3df36b	0.04637472
45	0x3b9fb523	0.004873888
46	0x3e33b1d6	0.17548308
47	0xbd01d937	-0.031701293
48	0xbda10a3b	-0.078632794
49	0xbdcc3281	-0.0997057
50	0xbe8365ec	-0.25663698
51	0xbe60173b	-0.21883862
52	0xbbc23d96	-0.005927752
53	0xbe094aff	-0.13407515
54	0x3d261057	0.040542927
55	0x3c99bcd1	0.018766792
56	0xbdb53df8	-0.0884971
57	0xbdc43fd5	-0.095824875
58	0xbd9dd684	-0.07706931
59	0xbcc99aeb	-0.024610003
60	0x3db1ac80	0.0867548
61	0x3e0c3496	0.13691935
62	0x3db65861	0.08903576
63	0x3ddefadc	0.108876914
64	0x3d3a516e	0.045487814
65	0xbe51b3b4	-0.20478708
66	0xbd80a60e	-0.062816724
67	0x3bb9730a	0.0056594657
68	0x3e2e0caf	0.16997026
69	0xbd8e49e2	-0.06947686
70	0x3d347b67	0.044063
71	0x3d80df1a	0.06292553
72	0xbde12983	-0.10994246
73	0x3df3e852	0.11909546
74	0xbcddddf9	-0.027083384
75	0xbe676b94	-0.22599632
76	0xbe097ef3	-0.13427334
77	0xbd5ed2f0	-0.054400384
78	0x3e9ea2d6	0.3098361
79	0xbe7067c3	-0.23477082
80	0x3e28cc29	0.16484131
81	0x3d752d34	0.059857562
82	0x3dba6166	0.091006085
83	0x3dbf4170	0.09338653
84	0x3c1bcd0e	0.009509338
85	0x3e8a5bb5	0.27023092
86	0x3e7d7cbf	0.24754618
87	0x3e5c6a4c	0.21524924
88	0x3de010d3	0.10940709
89	0x3ca870c3	0.020561581
90	0x3e818a8f	0.25301024
91	0x3e03f368	0.12885821
92	0x3cbf0d41	0.02332175
93	0x3d465b6e	0.048427038
94	0xbd70015b	-0.058595043
95	0xbe1448d8	-0.14480913
96	0x3e281976	0.16415963
97	0xbd0912eb	-0.033465307
98	0x3d1907c6	0.03736093
99	0xbdfea199	-0.12433166
100	0x3e2b0ec9	0.16704859
101	0xbd590a84	-0.052988544
102	0x3ddef9de	0.10887502
103	0xbda4f0a4	-0.08053711
104	0x3c93d176	0.018044215
105	0xbd38319c	-0.044969186
106	0x3d21e213	0.03952224
107	0xbdabcf7f	-0.08389186
108	0x3e0cdfea	0.13757291
109	0x3cbbc676	0.022921782
110	0xbe016a60	-0.12638235
111	0x3e0e58fd	0.13901134
112	0xbd8379b5	-0.06419698
113	0xbe1c3747	-0.15255462
114	0xbe2b433d	-0.16724868
115	0xbdfddc14	-0.12395492
116	0xbd810796	-0.06300275
117	0x3bc3a168	0.005970169
118	0x3db5dd0e	0.088800535
119	0xbd40f591	-0.04710919
120	0x3e440789	0.191435
121	0x3e81c235	0.2534348
122	0xbdaec06c	-0.08532795
123	0xbc78ddc9	-0.015189596
124	0x3dd83981	0.10557843
125	0x3c8b09d7	0.016972465
126	0xbdb2d931	-0.08732832
127	0xbd5576f5	-0.0521154
128	0xbdc1932a	-0.094518974
129	0xbb8233cb	-0.0039734594
130	0xbd40e444	-0.04709269
131	0xbcc8a436	-0.024492364
132	0x3e2413c3	0.16023163
133	0x3dbb060f	0.09132015
134	0xbe5cc082	-0.21557811
135	0xbde343f6	-0.11096947
136	0xbe03ebe3	-0.12882952
137	0x3e262f60	0.1622901
138	0x3e428a38	0.18998039
139	0x3cb9dc00	0.022687912
140	0xbca0d7ad	-0.019634092
141	0x3db472ad	0.08810935
142	0xbd3c8513	-0.046025347
143	0x3db144ae	0.08655678
144	0xbdc05c02	-0.09392549
145	0xbd924921	-0.071428545
146	0x3e4c0ff4	0.1992796
147	0x3e9020ca	0.28150016
148	0xbe03fc6d	-0.12889262
149	0xbc38f83f	-0.011289655
150	0x3e00a6a7	0.12563573
151	0x3d769ca2	0.06020797
152	0x3d0fc4e8	0.035099894
153	0x3cf3cd74	0.029761054
154	0x3da0a512	0.07843985
155	0x3dc46d4a	0.09591158
156	0x3dd0c0aa	0.10192998
157	0x3e600435	0.21876605
158	0xbd46f8aa	-0.04857699
159	0xbe204cca	-0.15654293
160	0x3d32cf0b	0.043654483
161	0xbb7cdeb1	-0.0038584883
162	0x3e0845d0	0.13307881
163	0x3bc0a156	0.0058786077
164	0x3e4a7caf	0.19774126
165	0xbdb9ff3a	-0.09081884
166	0xbe14fa35	-0.14548571
167	0x3badc1ab	0.005302628
168	0x3db4d628	0.088299096
169	0xbceff1e6	-0.02929015
170	0xbd35894e	-0.044320397
171	0xbdfaf3dd	-0.122535445
172	0x3d250b30	0.040293872
173	0x3e41de6e	0.18932506
174	0xbe0e8216	-0.13916811
175	0xbe54f8f1	-0.20798089
176	0xbbb36831	-0.005475067
177	0xbdaecdbf	-0.08535337
178	0xbdd8c93d	-0.10585258
179	0xbd99f686	-0.07517724
180	0x3dbb8d4f	0.09157812
181	0x3d920122	0.07129122
182	0x3ea77681	0.327076
183	0xbd04580f	-0.03231054
184	0xbc3f9be2	-0.01169488
185	0xba231a57	-0.00062218815
186	0xbb30116a	-0.0026865848
187	0x3e0acbb8	0.13554275
188	0xbe88e87a	-0.26739866
189	0xbc10bb68	-0.008833744
190	0x3d20ff21	0.03930581
191	0x3e8d0761	0.27544692
192	0x3d8f1d8b	0.06988057
193	0xbd3b8cd4	-0.0457886
194	0x3dbe809a	0.093018726
195	0x3ded5afc	0.115896195
196	0x3e43fc84	0.19139296
197	0x3e475870	0.1946733
198	0xbd5a2b8d	-0.05326419
199	0xbc553841	-0.0130139
200	0x3e31e745	0.17373379
201	0xbd4f5244	-0.050615564
202	0x3e034593	0.12819509
203	0x3e735dde	0.23766276
204	0x3e5a7f20	0.21337557
205	0xbd24c8d2	-0.04023058
206	0x3df36ec4	0.11886361
207	0x3e9e2149	0.3088477
208	0xbc33a295	-0.010964056
209	0xbda42fcc	-0.08016929
210	0xbd737324	-0.05943598
211	0x3cc303fe	0.023805615
212	0x3e3cc33e	0.18433854
213	0x3b67aa3a	0.0035349266
214	0xbe1fb03f	-0.15594576
215	0xbddbe139	-0.10736317
216	0xbe2eca5f	-0.17069386
217	0xbe191a43	-0.14951424
218	0x3dd78f8a	0.10525425
219	0x3d1e3429	0.038623963
220	0xbd9101f0	-0.07080448
221	0x3ce5744e	0.02800956
222	0x3d985cc3	0.07439568
223	0xbe9495ba	-0.29020482
224	0x3e071835	0.13192828
225	0xbdd078da	-0.101793006
226	0x3dffdf67	0.124937825
227	0x3cb6c98d	0.022312904
228	0x3ccf2e0b	0.02529051
229	0x3e97ccae	0.29648346
230	0x3e049bc2	0.12950042
231	0xbd4afd77	-0.04955813
232	0xbda70105	-0.08154491
233	0xbd673b1b	-0.05645285
234	0xbd19f5f8	-0.03758809
235	0x3da95b60	0.082693815
236	0x3d788b47	0.0606797
237	0xbd54fb91	-0.051997725
238	0xbd7813a7	-0.060565617
239	0x3da45bcd	0.08025322
240	0xbe3bd917	-0.18344532
241	0xbe4cf3a1	-0.20014812
242	0xbd6756ab	-0.056479137
243	0x3e10f5ae	0.1415622
244	0xbcdb47f3	-0.026767706
245	0x3e353991	0.17697741
246	0xbe4bba7e	-0.1989536
247	0xbe1cfb02	-0.15330127
248	0x3bc0e46f	0.0058866064
249	0xbb18e20f	-0.00233281
250	0xbd591038	-0.052993983
251	0xbdb2343b	-0.087013684
252	0x3d16738d	0.03673129
253	0xbd52861f	-0.05139744
254	0xbe103691	-0.14083315
255	0xbe27cf66	-0.1638771

conv.2.bias f4 [16]
0	0x3b989564	0.0046564806
1	0x3ba5d7e4	0.0050611366
2	0x3c36afdb	0.011150326
3	0xbb9fa77d	-0.004872261
4	0xbbad6fbc	-0.005292861
5	0xbbc441f3	-0.005989307
6	0xbc35feae	-0.011108084
7	0x3b4c3e18	0.003116494
8	0xbb6cf13f	-0.0036154536
9	0xba95eee7	-0.0011438996
10	0xb98ffbb0	-0.00027462607
11	0xbc16f642	-0.009213986
12	0x39adc3d6	0.0003314304
13	0xbb6074b8	-0.0034249257
14	0xbbc34436	-0.005959059
15	0xba7eb831	-0.0009716778

conv.4.weight f4 [32, 16, 3, 3]
0	0xbd518644	-0.051153436
1	0xbe3a6632	-0.18203047
2	0xbc342dfe	-0.0109972935
3	0x3d3fff70	0.046874464
4	0x3e4ee5fc	0.2020492
5	0x3db7a136	0.089662954
6	0x3e74c88b	0.23904626
7	0x3c2bad1e	0.010478286
8	0x3dac4a19	0.084125705
9	0xbe05bfad	-0.130614
10	0xbddbf5e6	-0.10740261
11	0xbd1fa144	-0.038972154
12	0x3d856490	0.065133214
13	0x3d936df4	0.07198706
14	0xbddeae9a	-0.10873146
15	0xbe114000	-0.1418457
16	0x3cc52483	0.024065262
17	0x3cbf9b2a	0.023389418
18	0x3e1346b2	0.14382437
19	0xbb85e278	-0.004085835
20	0x3e0fea39	0.14054193
21	0x3ba6664e	0.0050781136
22	0xbe0eb545	-0.13936336
23	0x3cb7a04c	0.022415303
24	0xbe81e24b	-0.2536796
25	0x3dfc15c1	0.12308837
26	0xbcec92cd	-0.028878594
27	0xbc871d96	-0.0164936
28	0x3e79eb82	0.24406245
29	0x3d92ec48	0.07173973
30	0xbe3f341a	-0.18672219
31	0x3d7cd55c	0.061726913
32	0xbb34277d	-0.0027489357
33	0xbe0a2f41	-0.13494588
34	0x3d95acfb	0.07308384
35	0xbda7ddee	-0.081966266
36	0xbe1d3564	-0.15352398
37	0x3b429b19	0.0029694496
38	0x3e2e950d	0.17049046
39	0xbe0a3306	-0.13496026
40	0xbe5e80b0	-0.21728778
41	0xbca2a137	-0.019852264
42	0x3e25dca8	0.16197455
43	0xbcc969d8	-0.024586603
44	0xbdcce67d	-0.100049
45	0xbe0ce9a2	-0.13760999
46	0xbdd60185	-0.104495086
47	0xbe33c4d9	-0.1755556
48	0xbddb0c1f	-0.10695671
49	0xbdc09197	-0.09402769
50	0xbd27290a	-0.040810622
51	0xbb837135	-0.004011298
52	0xbe046d4c	-0.12932318
53	0x3e0315b0	0.12801242
54	0xbe44b56e	-0.19209835
55	0x3d845dbb	0.0646319
56	0x3c83ebbe	0.016103622
57	0x3d071b2c	0.032984897
58	0x3d9c6811	0.076370366
59	0x3eaa782e	0.33294815
60	0x3d0cdfb3	0.034393024
61	0x3d1c5777	0.03816935
62	0xbb5ceeb8	-0.0033711623
63	0xbdf9c5b0	-0.12195909
64	0x3e361d8e	0.17784712
65	0xbb94c0b1	-0.004539572
66	0x3ca5c1ca	0.020234007
67	0x3e1f6cd9	0.15568866
68	0xbd7e115c	-0.062028274
69	0x3cf4518f	0.029824046
70	0xbd53eb35	-0.051737983
71	0x3c7fdd20	0.015616685
72	0xbd5b4f53	-0.053542446
73	0x3d6e4aaf	0.058176693
74	0x3d80dd53	0.06292214
75	0xbdd9ce86	-0.10635094
76	0x3e1edb28	0.15513289
77	0xbe8112f0	-0.2520976
78	0x3c7f0b2f	0.015566631
79	0x3d6d8a62	0.0579933
80	0xbd214033	-0.039367866
81	0xbd70950d	-0.058735896
82	0xbdee994e	-0.11650334
83	0xbc17d3e3	-0.009266826
84	0xbb897c84	-0.0041957516
85	0x3dbf6d6f	0.09347045
86	0x3ea05739	0.31316546
87	0x3d7123e1	0.058872107
88	0xbe222868	-0.15835726
89	0x3df64e4e	0.12026654
90	0xbe509bfe	-0.20372006
91	0x3e36980b	0.17831437
92	0x3d92927f	0.07156848
93	0x3e16b405	0.1471711
94	0xbc60df28	-0.01372508
95	0x3e17799f	0.14792489
96	0x3e75ce21	0.24004413
97	0xbe32fe39	-0.17479791
98	0x3db6368a	0.08897121
99	0x3d134dfe	0.03596305
100	0x3c6e5623	0.014546904
101	0xbd4c7244	-0.04991366
102	0xbe2e5f8d	-0.17028637
103	0xbdc3b659	-0.095562644
104	0xbda1d1a0	-0.07901311
105	0xbe7ad918	-0.24496877
106	0x3e02fb82	0.12791255
107	0x3d01ef24	0.031722203
108	0x3dec4d9e	0.11538242
109	0x3e026c71	0.1273668
110	0x3d64d7c3	0.05586983
111	0xbe210ada	-0.15726796
112	0x3db02372	0.08600511
113	0xbe1642f1	-0.14673974
114	0x3e58aae8	0.21158946
115	0x3cba0b10	0.022710353
116	0xbde30c4c	-0.1108633
117	0x3e3f479b	0.18679659
118	0xbc779f4e	-0.015113665
119	0xbcfa2369	-0.030534463
120	0xbcffd463	-0.031229204
121	0x3c07a8ac	0.008279961
122	0xbe020bc0	-0.12699795
123	0xbc93934f	-0.018014578
124	0x3cb6a2ce	0.022294428
125	0x3d90cc1d	0.070701815
126	0x3da5c8fd	0.08094976
127	0xbdc9da31	-0.0985607
128	0xbce045f4	-0.027377106
129	0xbe015dc9	-0.12633432
130	0xbb6afd73	-0.0035856634
131	0x3db9027e	0.090336785
132	0x3e26e71f	0.16299103
133	0xbdc7a793	-0.09748759
134	0x3d5bcc60	0.053661704
135	0x3db4f70e	0.088361844
136	0xbe1dab05	-0.1539727
137	0xbc07dec8	-0.008292861
138	0x3e754628	0.23952544
139	0xbd852f4f	-0.06503164
140	0xbccb5e10	-0.024825126
141	0x3d0376f7	0.032095876
142	0x3d502f8b	0.05082659
143	0xba91e39a	-0.0011130453
144	0xbe911cb9	-0.28342226
145	0x3e295e6b	0.16539924
146	0xbcda57c3	-0.026653176
147	0xbda7dca2	-0.08196379
148	0xbcd81466	-0.026376914
149	0x3e22d9a9	0.15903343
150	0xbd80604f	-0.062683694
151	0xbb9a0845	-0.004700693
152	0xbd911c8e	-0.070855245
153	0x3e888c59	0.26669577
154	0x3cb5cc3b	0.022192111
155	0x3d8fa5e1	0.07014061
156	0x3d91652f	0.07099377
157	0xbd36deb7	-0.04464599
158	0x3e8829c1	0.26594356
159	0xbcfb4553	-0.030672705
160	0xbd909570	-0.07059753
161	0x3dec05a7	0.115245156
162	0x3dc6f8b8	0.09715408
163	0xbea22ae8	-0.3167336
164	0xbe03181a	-0.12802163
165	0xbd2eb88c	-0.042656466
166	0xbbc1ca9f	-0.005914047
167	0xbce336df	-0.027736126
168	0x3cdc61de	0.026902135
169	0x3b3f896c	0.0029226197
170	0xbcfa6c77	-0.030569298
171	0x3e43b101	0.1911049
172	0xbd84c180	-0.0648222
173	0xbd7651c8	-0.060136586
174	0x3e44247f	0.19154547
175	0x3ca48860	0.02008456
176	0x3daabf91	0.0833732
177	0x3c60c64c	0.013719153
178	0xbdff86f4	-0.12476912
179	0xbc9c0ad1	-0.019048126
180	0xbda5fa0f	-0.081043355
181	0xbe26e75a	-0.16299191
182	0x3e0edd7f	0.13951682
183	0xbd1ecd98	-0.03877029
184	0xbe3ceea6	-0.18450412
185	0xbd949888	-0.072556555
186	0xbe66aacc	-0.22526091
187	0x3d172984	0.036904827
188	0xbda48df8	-0.08034891
189	0xbb442843	-0.0029931224
190	0xbc754057	-0.014968953
191	0x3d08df5f	0.03341615
192	0xbdc63015	-0.0967714
193	0x3cce43b3	0.025178766
194	0xbca7f7f3	-0.020503974
195	0x3d4b118a	0.049577273
196	0xbe04e32d	-0.12977286
197	0xbd9d1a1d	-0.07670996
198	0x3c98f9b7	0.01867376
199	0xbae77974	-0.0017660097
200	0xbbc858fb	-0.006114123
201	0xbd70142b	-0.058612984
202	0xbd958b98	-0.07302016
203	0x3d51138a	0.051044025
204	0x3d7bb7d5	0.061454613
205	0x3bb136fe	0.005408167
206	0xbd809826	-0.0627902
207	0x3b28ca9b	0.0025755528
208	0x3dbf5c19	0.09343738
209	0x3e73b6d2	0.23800209
210	0x3dc25f12	0.094907895
211	0x3dc4d63f	0.09611177
212	0x3d26dd89	0.040738616
213	0x3d8cefab	0.068816505
214	0xbe59946b	-0.21248023
215	0x3d043abd	0.03228258
216	0xbc8a2133	-0.016861534
217	0x3e4b3f2c	0.19848317
218	0xbe8a6d85	-0.27036682
219	0xbd66a47b	-0.056309205
220	0x3d524910	0.05133921
221	0x3e14266c	0.14467782
222	0xbde1b638	-0.110210836
223	0xbe09d504	-0.13460165
224	0xbe04ec62	-0.12980798
225	0x3ccda9ae	0.025105324
226	0x3e476498	0.19471967
227	0x3c96d4af	0.018411962
228	0x3c803d08	0.015654102
229	0x3d7bf791	0.061515395
230	0xbc402645	-0.011727874
231	0xbcd96e01	-0.026541712
232	0x3c3500b2	0.011047529
233	0xbca50dae	-0.020148125
234	0x3ea4d190	0.32191133
235	0xbd307e6b	-0.04308931
236	0x3e19c2a8	0.15015662
237	0xbd8f9789	-0.07011325
238	0xbe0b2a0c	-0.13590258
239	0x3d6f8b08	0.0584822
240	0x3e080a0e	0.13285086
241	0xbe0bd200	-0.13654327
242	0x3dd44d4f	0.10366308
243	0xbe43af75	-0.191099
244	0xbda7b0b4	-0.08188
245	0xbd325dd1	-0.0435465
246	0xbd98c305	-0.07459072
247	0xbc979eee	-0.0185084
248	0x3da1f690	0.07908356
249	0x3ded15aa	0.11576398
250	0x3ddd1546	0.10795073
251	0x3d435611	0.0476895
252	0x3dff57cf	0.1246792
253	0xbca9e4e3	-0.020739025
254	0xbcbdf255	-0.023186842
255	0xbe8ab22f	-0.27089068

conv.4.bias f4 [32]
0	0x3bb0c6fc	0.0053948145
1	0xbb2a464e	-0.0025981846
2	0x3c1af1d1	0.009457068
3	0x3c3c0991	0.01147689
4	0x3a521d6e	0.00080152496
5	0x3cb2b1f9	0.02181338
6	0xbad1088d	-0.0015947983
7	0x3c88b77b	0.016689053
8	0xbbcba298	-0.006214451
9	0x3caebe41	0.021330955
10	0x3b49804e	0.0030746642
11	0x3b52d336	0.0032169349
12	0xbc1569e4	-0.009119485
13	0xbc9728a7	-0.018452002
14	0x3b8e3d3b	0.0043407953
15	0xbc082b89	-0.008311161
16	0xbb503eaf	-0.0031775644
17	0xba8016de	-0.000977244
18	0x3c67d7ad	0.014150542
19	0xbb908b00	-0.0044111013
20	0x3acb70ef	0.0015521328
21	0xbbac3c07	-0.0052561793
22	0x3a96f185	0.001151607
23	0x3cd81db7	0.026381357
24	0xb96f3a7c	-0.00022814603
25	0xbbdd8bd9	-0.006761056
26	0x3c0a5cee	0.008445008
27	0xbb676999	-0.0035310744
28	0xbc850b8f	-0.016240863
29	0x3ba79073	0.0051136552
30	0x3c20543e	0.00978571
31	0x3af479a2	0.0018651972

conv.6.weight f4 [64, 32, 3, 3]
0	0x3d0aa648	0.033849984
1	0x3dbdd1d0	0.09268534
2	0xbd35693a	-0.044289805
3	0x3cdf9cb6	0.027296405
4	0x3e1136ae	0.14181015
5	0x3dbeaa5a	0.09309836
6	0xbcff1702	-0.0311389
7	0x3d3f931f	0.046771165
8	0xbd74ff33	-0.05981369
9	0xbdcc77d8	-0.09983796
10	0x3d90bfa2	0.07067801
11	0x3dda9736	0.106733724
12	0x3d90414b	0.07043704
13	0x3a2e496d	0.00066485145
14	0x3e58cc6c	0.21171731
15	0x3d55e311	0.0522185
16	0xbddffc34	-0.10936776
17	0x3dd081b7	0.10180991
18	0xbd8dfd45	-0.06933073
19	0xbd2ee9a3	-0.042703282
20	0xbdb1fa90	-0.08690369
21	0xbdbd421b	-0.09241124
22	0x3e5e2899	0.21695174
23	0xbd51c40a	-0.051212348
24	0xbe811989	-0.25214794
25	0x3dab9172	0.08377351
26	0xbc863ec3	-0.016387349
27	0x3ccceae7	0.025014354
28	0x3de4093b	0.11134573
29	0x3d377aad	0.044794727
30	0xbd27d891	-0.04097802
31	0xbcc87c9b	-0.024473479
32	0x3df0b72f	0.117536895
33	0x3d0c4b06	0.034251235
34	0x3dfd6545	0.12372831
35	0xbdcda830	-0.10041845
36	0x3dda08f2	0.106462374
37	0xbc213732	-0.00983982
38	0xbd3d2414	-0.046176985
39	0x3c020a1d	0.0079369815
40	0xbd05b840	-0.032646418
41	0x3dc26acd	0.09493027
42	0xbc8673b2	-0.01641259
43	0x3d51c238	0.051210612
44	0x3db31c3b	0.08745619
45	0xbe0e6cac	-0.13908643
46	0x3ca0bde0	0.01962179
47	0xbcfe51fb	-0.03104495
48	0x3ce51f3c	0.027968995
49	0x3cefffcd	0.02929678
50	0xbb1121fe	-0.0022145505
51	0xbdad3b54	-0.084585816
52	0x3a827c88	0.0009955326
53	0x3df434a5	0.11924104
54	0x3d637db4	0.0555398
55	0x3e061d13	0.13097028
56	0x3d79585a	0.060875274
57	0xbbe416db	-0.0069607324
58	0x3dd8a494	0.10578266
59	0x3dbae435	0.09125558
60	0x3cec690b	0.028858682
61	0x3d854780	0.06507778
62	0x3d1d4fba	0.03840611
63	0x3db833f4	0.08994284
64	0x3d7d31c6	0.061815046
65	0xbbde7ecd	-0.006790018
66	0xbbc1c392	-0.0059132064
67	0xbd4631e1	-0.048387412
68	0xbaa1e54f	-0.0012351664
69	0x3b6310b1	0.00346474
70	0x3d81b3e9	0.06333143
71	0x3c0690b2	0.008213209
72	0x3dc09fe6	0.09405498
73	0xbdd2a522	-0.10285403
74	0x3d901e19	0.07036991
75	0x3ce5c429	0.028047638
76	0x3e2a359c	0.16622013
77	0xbdf7e6d7	-0.12104576
78	0x3c7589ef	0.014986499
79	0x3d835349	0.0641237
80	0x3e27d0ab	0.16388194
81	0xbcaa246b	-0.020769319
82	0xbcda2502	-0.026628975
83	0x3ca73940	0.020413041
84	0x3d3842d6	0.044985615
85	0x3d474c56	0.048656784
86	0x3d0b8ca7	0.034069683
87	0xbdb3c88f	-0.08778488
88	0x3dab5ec4	0.083676845
89	0xbe275a68	-0.16343081
90	0x3c2e5282	0.010639789
91	0xbe461a51	-0.19345976
92	0x3e1b928d	0.15192623
93	0xbdcbd1cd	-0.09952126
94	0xbe083cd7	-0.13304459
95	0xbdbe8746	-0.09303145
96	0xbd13d04f	-0.03608733
97	0x39866ff0	0.00025641872
98	0x3dc94f9d	0.09829638
99	0x3e0b5ab9	0.13608827
100	0xbd55a6ce	-0.05216103
101	0x3d098552	0.03357441
102	0xbe2b5abf	-0.16733836
103	0x3d16d784	0.036826625
104	0xbc1bd8d3	-0.009512144
105	0xbcb4e64a	-0.022082467
106	0xbc8e2825	-0.017353127
107	0xbd67939c	-0.056537256
108	0xbdd7b25c	-0.10532066
109	0xbcb25843	-0.021770602
110	0xbdfad2f5	-0.12247268
111	0x3d845dba	0.064631894
112	0x3d0dffa0	0.03466761
113	0xbe3dfce3	-0.185535
114	0xbdf1e27e	-0.11810778
115	0xbdb3cfd8	-0.087798774
116	0xbda83f18	-0.08215159
117	0xbe1549d4	-0.14578944
118	0x3defc4b3	0.11707439
119	0xbc8a0cd2	-0.016851816
120	0x3dc737c5	0.09727434
121	0xbd2edd1a	-0.042691328
122	0xbdaf2aef	-0.08553111
123	0x3d7a1af5	0.061060864
124	0x3d957680	0.07297993
125	0x3e2751a1	0.16339733
126	0x3d6af3d4	0.05736144
127	0xbdd34492	-0.10315813
128	0x3cbe08df	0.02319759
129	0x3cec18ac	0.028820358
130	0x3d781a31	0.060571853
131	0xbdfecf0c	-0.12441835
132	0x3ca7ec8b	0.020498535
133	0x3d8b82ee	0.06812082
134	0x3d9a8a3c	0.07545897
135	0x3c8d8631	0.017275902
136	0x3d8cf627	0.06882887
137	0x3b0bf7fb	0.0021357525
138	0x3dd7259f	0.105052225
139	0xbcf65b2e	-0.030072775
140	0x3c61cb29	0.013781347
141	0xbd7d4309	-0.061831508
142	0x3d5246fe	0.051337235
143	0x3d67c9ff	0.056589123
144	0xbdafdb11	-0.085867055
145	0xbb8b597a	-0.00425261
146	0x3b94a249	0.0045359475
147	0xbd320160	-0.043458343
148	0x3e20dc8e	0.15709135
149	0xbdacbdb9	-0.08434624
150	0x3df9b58e	0.12192832
151	0xbca367e3	-0.019946998
152	0xbd2a715e	-0.04161202
153	0xbb797c8f	-0.0038068627
154	0xbd388dfa	-0.045057274
155	0x3d819126	0.06326513
156	0xbc05cd78	-0.008166663
157	0x3e24d9ed	0.16098757
158	0x3b6e2f9f	0.0036344302
159	0x3e513bd6	0.20432982
160	0x3c795edf	0.015220373
161	0xbd583276	-0.0527825
162	0xbe298eb3	-0.16558342
163	0x3d2ea5be	0.042638533
164	0xbca7565d	-0.020426923
165	0xbd03b6a9	-0.03215662
166	0xbbe965f7	-0.007122751
167	0x3c9431fa	0.018090237
168	0x3df21100	0.11819649
169	0x3b9ae159	0.0047265706
170	0xbe41ee23	-0.18938498
171	0x3cab3738	0.020900354
172	0x3d5f6c39	0.05454657
173	0x3e1a6bbf	0.15080164
174	0xbd8e68ba	-0.06953569
175	0x3dd5a01b	0.10430928
176	0xbd66f705	-0.05638792
177	0x3d643e75	0.055723626
178	0xbd230a1f	-0.039804574
179	0xbd3e95b0	-0.046529472
180	0x3c903f58	0.01760833
181	0xbe1512ab	-0.14557903
182	0x3dccb63c	0.09995696
183	0x3d8da728	0.06916648
184	0xbdfe257b	-0.124094926
185	0xbd61f5a0	-0.055165887
186	0xbd56dfb4	-0.052459434
187	0x3d97cf32	0.07412566
188	0xbd84110c	-0.06448564
189	0xbd44d272	-0.04805226
190	0x3deda709	0.11604125
191	0x3d3dc2d0	0.046328366
192	0x3dc06eb6	0.093961164
193	0x3d982d47	0.07430511
194	0x3d9e51fc	0.07730481
195	0xbd14d950	-0.036340058
196	0xbe10a514	-0.14125472
197	0x3cb51a80	0.022107363
198	0x3c48a171	0.012245522
199	0x3d7e16da	0.06203351
200	0xbe6ea6df	-0.23305844
201	0x3d9b2734	0.07575837
202	0xbdd7036f	-0.10498702
203	0xbd04802b	-0.032348793
204	0x3d4e120d	0.050310183
205	0x3d3c8f30	0.04603499
206	0xbd06ea37	-0.03293821
207	0xbd0ecda5	-0.034864087
208	0x3d99df4b	0.07513293
209	0xbc868dc4	-0.016425021
210	0x3e2691be	0.16266534
211	0x3d667207	0.05626109
212	0x3c93bb6c	0.018033706
213	0x3e49529e	0.19660422
214	0xbcaeb6bb	-0.021327367
215	0xbe164b43	-0.14677148
216	0x3dad6e7c	0.08468339
217	0xbcc475f5	-0.023982028
218	0x3d886770	0.06660354
219	0x3e02eb9e	0.12785193
220	0x3d4725cf	0.04862004
221	0xbd58ede8	-0.05296126
222	0xbd1f022e	-0.038820438
223	0xbd27ff1d	-0.04101478
224	0x3c863f12	0.016387496
225	0xbd831e10	-0.06402218
226	0x3c96e5f0	0.01842019
227	0xbb62fc0e	-0.00346351
228	0x3e351d71	0.17687012
229	0xbae58e0e	-0.0017513649
230	0x3b958300	0.0045627356
231	0xbd6870f2	-0.056748338
232	0xbd19c108	-0.037537605
233	0x3dc75753	0.09733453
234	0xbc8c15a3	-0.017100161
235	0xbe14a423	-0.14515738
236	0xbd5bee04	-0.053693786
237	0x3d9f4c09	0.077781744
238	0xbd164d7f	-0.036695
239	0xbdbe9efe	-0.09307669
240	0x3d2a7fb1	0.041625682
241	0xbc4d6853	-0.01253708
242	0xbd114678	-0.035467595
243	0xbcf45e16	-0.02983002
244	0x3db5aa04	0.088703185
245	0xbd57edd6	-0.052717052
246	0x3c87981c	0.016552024
247	0xbdce318b	-0.10068043
248	0xbd988596	-0.074473545
249	0xbe0ab569	-0.13545765
250	0xbbf0da96	-0.007350276
251	0x3d14e812	0.036354132
252	0x3d422b10	0.04740435
253	0xbc8ea4f8	-0.017412648
254	0xbdf6c36e	-0.12048994
255	0x3ab8db1c	0.0014103386

conv.6.bias f4 [64]
0	0xbbd88ba0	-0.0066084415
1	0xbb9d95a0	-0.0048090965
2	0x3bb69583	0.0055720224
3	0x3bbd716a	0.0057813423
4	0x360f4478	2.1348515e-06
5	0xbb5dc9c8	-0.0033842195
6	0xba902b76	-0.001099928
7	0x3bdf6695	0.0068176487
8	0x3cd03242	0.02541459
9	0xbba0f38b	-0.004911845
10	0xbb301974	-0.002687064
11	0x3b8a3dfc	0.004218815
12	0xbb981c39	-0.0046420363
13	0x3c1af986	0.009458905
14	0xbc3e06ec	-0.01159833
15	0x3ab183c5	0.0013543299
16	0xb905a827	-0.0001274651
17	0xbc044b61	-0.008074612
18	0xb78ee534	-1.703445e-05
19	0x3b096297	0.0020963305
20	0x3c56701e	0.013088254
21	0x3ae159f3	0.0017192945
22	0xbc1c0e22	-0.009524854
23	0xbbc77aae	-0.0060876226
24	0x3c08992a	0.008337298
25	0xbb453d95	-0.003009652
26	0x3c3902d4	0.011292178
27	0x3d1f4a75	0.038889367
28	0xbafd8521	-0.0019342044
29	0x3b8f4826	0.0043726144
30	0xbaf25634	-0.0018488825
31	0xbbc5850d	-0.006027824
32	0xbb2efe5c	-0.0026701903
33	0xbb77992c	-0.0037780507
34	0xba18ac02	-0.0005823971
35	0xb9f9e7eb	-0.00047665773
36	0xba30b1bb	-0.0006740351
37	0x3d040df1	0.032239858
38	0xbb8b9919	-0.004260194
39	0x3b287e64	0.00257101
40	0x3ba590e2	0.005052672
41	0x3c054b6c	0.008135658
42	0xb983ddeb	-0.0002515161
43	0xbbb000af	-0.0053711752
44	0xbb3a1f42	-0.0028399979
45	0x3c81cf0a	0.015845794
46	0x3c049827	0.008092917
47	0x3b24474e	0.0025066915
48	0x38fd9a60	0.00012092735
49	0x3a070c95	0.0005151716
50	0xbbf69c05	-0.007525923
51	0xbcb4aae7	-0.022054149
52	0x3b80c70a	0.0039299773
53	0x3b868674	0.0041053835
54	0x3c89f257	0.01683919
55	0xba8cc112	-0.0010738692
56	0x3bfdee63	0.007749365
57	0x3b7ed566	0.003888452
58	0x3b921086	0.004457536
59	0x3c8bc338	0.017060861
60	0xbbd65d7d	-0.0065419064
61	0xbc101632	-0.008794354
62	0xbb757c57	-0.0037458146
63	0xba0623bb	-0.00051170186

conv.8.weight f4 [128, 64, 3, 3]
0	0xbd97d3bc	-0.07413432
1	0xbdfacecd	-0.12246475
2	0x3b876d39	0.0041328934
3	0x3d4c20dd	0.04983603
4	0x3c0dfc23	0.008666071
5	0x3d3f21e2	0.046663173
6	0xbd0d513b	-0.034501296
7	0xbdc1090f	-0.09425556
8	0xbd099f48	-0.033599168
9	0xbcbd6c5f	-0.023122964
10	0xbc6872aa	-0.014187494
11	0xbda93604	-0.08262256
12	0xbc242eec	-0.010020953
13	0xbdacf8f4	-0.084459215
14	0x3cfa44cc	0.030550383
15	0xbdc6af85	-0.097014464
16	0xbc8f1116	-0.017464202
17	0xbd410f2a	-0.047133602
18	0x3de6335b	0.11240264
19	0x3d4010e4	0.04689111
20	0xbd3d1d9d	-0.04617082
21	0x3d40e8a4	0.047096863
22	0x3d38c706	0.04511168
23	0xbcab9c25	-0.020948479
24	0x3c1ee839	0.009698921
25	0x3d43062f	0.04761332
26	0x3dab4045	0.08361868
27	0xbd52b977	-0.051446404
28	0x3dd2d4aa	0.10294469
29	0x3d9475d7	0.07249039
30	0xbc84d7e7	-0.016216232
31	0x3c802572	0.015642855
32	0xbdd67788	-0.104720175
33	0xbcca06b7	-0.024661405
34	0xbc209a41	-0.009802402
35	0x3b877f2b	0.0041350327
36	0x3cfa7261	0.030572118
37	0x3d054f88	0.03254655
38	0x3dc80b1e	0.097677454
39	0xbc79f8d0	-0.015257075
40	0x3ce03e93	0.027373588
41	0x3b9359f8	0.004496809
42	0xbddaa840	-0.106766224
43	0xbad6b398	-0.0016380427
44	0x3d2f8e71	0.042860452
45	0xbdcb5416	-0.099281475
46	0x3d7968b0	0.060890853
47	0xbc2c6a10	-0.010523334
48	0x3caae917	0.020863099
49	0xbd2a0cc6	-0.041516088
50	0x3cb9b018	0.022666976
51	0xbc27d44a	-0.010243485
52	0xbca202e6	-0.019776773
53	0x3d06f358	0.032946914
54	0xbcf3f502	-0.029779915
55	0xbc78aeb0	-0.0151783675
56	0xbcbe8200	-0.023255348
57	0xbd648cf6	-0.055798493
58	0xbd9de316	-0.07709329
59	0x3d0d6cbf	0.034527536
60	0xbde202b8	-0.11035675
61	0xbd2b65e1	-0.041845206
62	0x3c8b6aa2	0.01701862
63	0x3e2942da	0.16529408
64	0xbe1af8a8	-0.15133917
65	0x3e0a6fe0	0.1351924
66	0x3d07c04d	0.033142377
67	0xbcdcabc4	-0.026937373
68	0x3d3e01ef	0.046388563
69	0x3daf7665	0.08567504
70	0xbd2d0e4c	-0.042249963
71	0xbc3b0bd4	-0.011416394
72	0x3b38ae6a	0.002818013
73	0xbce3b7ae	-0.027797546
74	0xbd278fdf	-0.04090869
75	0x3d19fc58	0.03759417
76	0x3d452fc4	0.048141256
77	0xbcd7a08b	-0.02632167
78	0x3d871491	0.065957196
79	0x3c516ce4	0.012782309
80	0x3d9d3660	0.07676387
81	0x3d77a057	0.060455646
82	0x3b1df3fa	0.002410172
83	0xbd8f8aac	-0.070088714
84	0xbc60adfa	-0.013713354
85	0xbc8e74b4	-0.017389633
86	0x3adbc7d6	0.001676793
87	0x3caf13ef	0.02137181
88	0x3cf35376	0.029702883
89	0x3d132057	0.035919514
90	0x3de7804d	0.11303768
91	0xbdd40d70	-0.103541255
92	0xbc603e86	-0.013686782
93	0x3d314778	0.04328105
94	0xbbfb8a5b	-0.0076764054
95	0xbdb6da42	-0.08928348
96	0x3d8498a5	0.06474427
97	0x3dd97465	0.106179036
98	0xbc4457d8	-0.011983834
99	0x3d82f8f8	0.06395143
100	0x3c9c16fe	0.019053932
101	0xbe06d4d3	-0.13167123
102	0x3c845a2d	0.01615628
103	0x3d5c5a27	0.053796913
104	0xbbdcc4a4	-0.0067373086
105	0xbdb1ae2e	-0.086758
106	0xbd9400d9	-0.07226724
107	0xbdb2d525	-0.0873206
108	0xbd8f02a3	-0.06982925
109	0xbcc81c60	-0.024427593
110	0x3cdbb03e	0.026817437
111	0xbd5f3b2f	-0.0544998
112	0x3d103b30	0.035212696
113	0xbda008b1	-0.07814158
114	0xbdf6490d	-0.12025652
115	0x3dd4dddf	0.10393881
116	0x3dda01df	0.10644888
117	0xbcf6654a	-0.030077595
118	0x3c24a106	0.010048157
119	0x3d040d72	0.032239385
120	0x3d0bcf72	0.034133382
121	0x3d5ca1cf	0.05386525
122	0xbd8bf184	-0.06833175
123	0x3cffd758	0.031230614
124	0xbcfa5eef	-0.030562846
125	0xbd68fa55	-0.05687936
126	0xbd2d1444	-0.042255655
127	0xbc4f414e	-0.012649847
128	0xbc91a363	-0.017778104
129	0xbd57a7e2	-0.05265034
130	0x3ce2e1e3	0.027695602
131	0x3cb67440	0.02227223
132	0x3cc972f9	0.024590956
133	0xbd0e6251	-0.03476173
134	0xbcfab0c2	-0.030601863
135	0x3c6055de	0.013692347
136	0x3ce92e5c	0.028464489
137	0x3ae27573	0.0017277434
138	0xbc9b0be0	-0.01892656
139	0xbd20fadd	-0.039301742
140	0x3ca36cd7	0.01994936
141	0x3c44920c	0.011997711
142	0xbc9b5e37	-0.018965824
143	0xbd629a19	-0.05532274
144	0xbc5dfcba	-0.013549024
145	0xbdccb31a	-0.099950984
146	0xbc9c2147	-0.019058837
147	0x3c6efd19	0.01458671
148	0x3cad944c	0.021188878
149	0x3d067dd3	0.03283484
150	0x3c86e451	0.016466292
151	0xbdd509f0	-0.10402286
152	0x3d0937b3	0.033500385
153	0xbcf305d7	-0.02966587
154	0xbd64051f	-0.055668946
155	0x3de41100	0.11136055
156	0x3ccc5719	0.024943875
157	0x3ccd6c70	0.025076121
158	0xbda127e0	-0.07868934
159	0xbc8d3481	-0.01723695
160	0xbd6e0480	-0.05810976
161	0x3d92b6f3	0.07163801
162	0x3d0956df	0.033530112
163	0x3bef8ae2	0.0073102573
164	0x3d319603	0.043355953
165	0x3e4dd4cf	0.20100711
166	0xbcccc676	-0.024996977
167	0xbcaef07d	-0.021354908
168	0xbd446238	-0.04794523
169	0x3da3c6a0	0.07996869
170	0x3cb695e9	0.02228828
171	0xbd4c2912	-0.049843855
172	0xbda79b03	-0.08183863
173	0xbd703366	-0.058642767
174	0xbbd47368	-0.006483484
175	0xbc43c768	-0.011949398
176	0xbd31e7da	-0.043434
177	0xbcbe61a6	-0.023239922
178	0xbcc4adaa	-0.02400859
179	0x3c9dd049	0.019264357
180	0x3cc96a42	0.0245868
181	0xba5a09b8	-0.0008317488
182	0xbd436107	-0.047699954
183	0x3e25a5eb	0.16176574
184	0xbd061af9	-0.032740567
185	0x3d738f6c	0.05946295
186	0xbda3e4d0	-0.08002627
187	0xbc2fb139	-0.0107234055
188	0x3bfbeff4	0.0076885168
189	0x3d45dd39	0.048306677
190	0xbd95f112	-0.07321371
191	0x3bf7d0db	0.0075627393
192	0xbd08a0c7	-0.033356454
193	0x3d45ec2e	0.04832094
194	0xbd54bd23	-0.051938187
195	0xbc4630df	-0.012096613
196	0xbcaf6945	-0.021412501
197	0x3d49fe88	0.049315006
198	0xbc3f6073	-0.01168071
199	0x3d6faaf9	0.05851266
200	0x3e4c8f99	0.19976653
201	0x3d67192d	0.056420494
202	0xbc72eb67	-0.014826632
203	0xbcc1e9b0	-0.023671001
204	0x3d99e53e	0.075144276
205	0x3d12f6aa	0.03587977
206	0xbd2a83a2	-0.04162944
207	0x3d215063	0.039383303
208	0xbcc7a139	-0.02436887
209	0xbda68ee6	-0.081327245
210	0xbda1e6ff	-0.07905387
211	0x3d5fa949	0.054604802
212	0xbd15d62c	-0.036581203
213	0xbcb0f6f9	-0.02160214
214	0xbd43fb87	-0.047847297
215	0x3db93ef7	0.09045213
216	0x3d4d0c90	0.05006081
217	0xbc9ba2c6	-0.018998515
218	0x3c610692	0.013734477
219	0x3d36e89a	0.04465542
220	0xbd7cce90	-0.06172043
221	0xbdd1c9e9	-0.102435894
222	0xbd008892	-0.031380244
223	0x3dfcc57c	0.12342355
224	0xbb8c1e71	-0.00427609
225	0xbd0d3992	-0.03447873
226	0xbd44f231	-0.048082534
227	0x3bbaf931	0.0057059755
228	0xbd610d9a	-0.054944612
229	0x3ce788b4	0.028263427
230	0x3c53a76b	0.0129183335
231	0x3d44e4fb	0.048069935
232	0x3dbdb5ea	0.09263213
233	0x3d566f43	0.0523522
234	0x3d941b91	0.072318204
235	0x3dea6eb4	0.11446896
236	0x3ba64f78	0.0050753914
237	0xbd8db9ec	-0.069202274
238	0x3dc86029	0.09783966
239	0xbc0d1a2b	-0.008612196
240	0xbd89c1d3	-0.06726422
241	0x3d8911eb	0.06692871
242	0x3d1fef57	0.03904661
243	0x3cebdaa5	0.028790781
244	0x3d9871bb	0.07443567
245	0x38b16c37	8.460174e-05
246	0xbd3cd8d9	-0.04610524
247	0xb9dcd06e	-0.00042116962
248	0x3cfdbfa4	0.03097517
249	0x3dc28392	0.09497751
250	0xbc62a18b	-0.01383246
251	0xbca4d5ec	-0.020121537
252	0xbcc50a8a	-0.024052877
253	0x3d04ca84	0.032419696
254	0x3d4fb044	0.05070521
255	0xbca377fc	-0.019954674

conv.8.bias f4 [128]
0	0x3c32e52c	0.010918897
1	0x3b403bfa	0.0029332624
2	0x3b030a1b	0.0019995037
3	0xbb6a2a5a	-0.003573081
4	0xbb2d6c06	-0.0026462092
5	0x3c429ad2	0.011877732
6	0xbc1b783c	-0.009489115
7	0x3b1aebe2	0.0023639132
8	0x3a8c8441	0.0010720567
9	0x3b739541	0.003716782
10	0xbb8d30f9	-0.0043088165
11	0xbb86fff9	-0.00411987
12	0xb88d692e	-6.742995e-05
13	0xbbb724f6	-0.005589123
14	0x3afb5c95	0.0019177372
15	0xbc215857	-0.009847722
16	0x3bdeac79	0.0067954627
17	0xbbcac929	-0.006188531
18	0xbb0d0b20	-0.0021521524
19	0xbc1459f9	-0.009054654
20	0xbb119c60	-0.002221845
21	0x3adf01a6	0.0017014041
22	0xbb5adc63	-0.003339552
23	0x3c2b307e	0.010448573
24	0xbb313990	-0.0027042367
25	0x3b83ca16	0.0040218933
26	0x39a0fb65	0.00030704882
27	0x3adc38cb	0.0016801594
28	0xbb28a78e	-0.0025734636
29	0x3a2de6e6	0.0006633833
30	0x3c303287	0.010754234
31	0x3b56415b	0.0032692763
32	0xbb91ac1b	-0.0044455654
33	0xbb30e61e	-0.002699263
34	0x3baa1ee2	0.00519167
35	0x3c240336	0.010010531
36	0x3b898ae8	0.004197467
37	0x3bf8400a	0.0075759934
38	0xbbeddf5d	-0.007259293
39	0x3b43e04a	0.0029888325
40	0x3c385f62	0.01125321
41	0xbaa26aa8	-0.0012391405
42	0xbbae4208	-0.00531793
43	0xbb9423e2	-0.004520879
44	0x3b34be7e	0.0027579363
45	0x3be39714	0.0069455
46	0xbb929cb7	-0.0044742483
47	0x3bec3604	0.0072085876
48	0x3b01f48c	0.00198296
49	0x3b6441b7	0.0034829208
50	0xbb6612d2	-0.0035106433
51	0xbb1ffbf5	-0.0024411653
52	0xbc265d4b	-0.010154079
53	0x3baf9273	0.0053580343
54	0xba4bb44e	-0.0007770703
55	0xba729146	-0.0009253215
56	0x3ab010b3	0.0013432711
57	0x3b50eb61	0.0031878578
58	0x3acff1ba	0.0015864887
59	0x3ba4c565	0.005028414
60	0x3b795573	0.0038045316
61	0xbaa91329	-0.0012899387
62	0x3b21e6ff	0.0024704335
63	0xbb7e2694	-0.0038780319
64	0xbb71c80d	-0.0036892921
65	0x3b02885f	0.001991771
66	0xbbc89e7f	-0.00612241
67	0xba8358a7	-0.0010020927
68	0x3a8a96c3	0.0010573495
69	0x3b92783c	0.0044698995
70	0xbbc0608a	-0.0058708834
71	0xb8248ba3	-3.9230694e-05
72	0xba80d5da	-0.0009829358
73	0x3b7fead7	0.0039049888
74	0xb84e602c	-4.9203794e-05
75	0x3a31b1f8	0.00067785336
76	0xba867ee5	-0.0010261206
77	0xbc062b6a	-0.008189062
78	0x3abd1d7f	0.0014428346
79	0x3b4d897d	0.0031362467
80	0xbae96cfc	-0.0017808969
81	0x3abca199	0.0014391422
82	0x3a7b436a	0.00095849356
83	0xbb00a941	-0.0019632133
84	0x3acdf8ac	0.0015714369
85	0x3a80dff4	0.0009832368
86	0x3a2bd2ee	0.00065545633
87	0x3b6b29d3	0.0035883083
88	0x3b5dfcb4	0.0033872547
89	0x3b82a7ea	0.003987302
90	0x3b0a3209	0.0021086952
91	0x3b0c6fda	0.0021428973
92	0xbc03cf04	-0.008044962
93	0x3b765beb	0.0037591408
94	0x3b08a85e	0.0020852308
95	0xbb6bf6e1	-0.0036005306
96	0x3bcd9cae	0.006274781
97	0xbb3ec3c5	-0.0029108387
98	0xbbeab0b6	-0.007162179
99	0xbb5bc5a8	-0.003353456
100	0xba8f5eda	-0.0010938302
101	0x3bd6e7d0	0.006558396
102	0xbbf95315	-0.007608781
103	0xbafa5f44	-0.0019101878
104	0xbb5d08ce	-0.0033727172
105	0x3a67c778	0.0008841674
106	0x3b1c6cdd	0.0023868599
107	0xbb469595	-0.003030156
108	0x3bf0735a	0.0073379697
109	0xb9bb98e2	-0.00035781326
110	0xbbd9f74a	-0.0066517936
111	0x3bb1ffda	0.005432111
112	0x3c386820	0.011255294
113	0xba899a84	-0.001049832
114	0x3c3cd9e5	0.0115265595
115	0x3b4d6d73	0.0031345754
116	0xba1905db	-0.00058373593
117	0xbbbeb8c9	-0.005820368
118	0xbb87ad9e	-0.00414057
119	0xb8152b4d	-3.5564695e-05
120	0x3b57c5ff	0.0032924411
121	0xba5adc70	-0.0008348888
122	0xbb8f30ab	-0.0043698153
123	0x3c1fefd3	0.009761768
124	0x33bc816f	8.777976e-08
125	0xbad59646	-0.0016295395
126	0xba6b787e	-0.00089824933
127	0x3ae38ac2	0.0017360079

fc.0.weight f4 [256, 256]
0	0xbd70a3f2	-0.0587501
1	0xbd95d202	-0.073154464
2	0xbe38dcc9	-0.18052973
3	0xbe3c4b79	-0.18388166
4	0xb96dd5d2	-0.00022681736
5	0xbe735bb4	-0.2376545
6	0xbbc22a67	-0.005925465
7	0xbd267635	-0.040640075
8	0xbd616ecb	-0.0550373
9	0xbbb8d923	-0.005641119
10	0x3cc93524	0.024561472
11	0x3d9ed1de	0.07754873
12	0x3da06fba	0.0783381
13	0x3d499b12	0.049220152
14	0xbd04347f	-0.032276627
15	0xbcef21dc	-0.02919095
16	0xbcdefccc	-0.027220152
17	0x3d70a918	0.05875501
18	0x3dfcb4ba	0.12339158
19	0x3c4e182b	0.012579004
20	0x3d5f0f4f	0.05445796
21	0xbd131335	-0.03590699
22	0x3e884a26	0.2661907
23	0x3d8e70ac	0.06955084
24	0xbc9dd6ef	-0.019267527
25	0xbe01f821	-0.1269231
26	0xbc35f1df	-0.01110503
27	0x3e14465c	0.14479965
28	0xbd5f6e8d	-0.05454879
29	0xbd45ebd3	-0.048320603
30	0x3cffdeea	0.031234223
31	0xbe83a80b	-0.25714144
32	0x3de04a88	0.10951716
33	0xbd80c345	-0.06287245
34	0x3dcb3b5e	0.09923433
35	0xbe37cc32	-0.17948988
36	0x3e1446db	0.14480154
37	0xbd248aaa	-0.040171303
38	0xbda81460	-0.08207011
39	0xbd811f50	-0.063048005
40	0xbd0de083	-0.03463794
41	0x3d29a266	0.04141464
42	0xbdb24838	-0.08705181
43	0x3c9c890d	0.01910832
44	0xbdc33345	-0.09531263
45	0xbcee3d7f	-0.029082058
46	0x3de06b71	0.10957993
47	0xbd966ee8	-0.073453724
48	0x3d148ad9	0.036265228
49	0x3e200416	0.15626559
50	0xbd0b7a01	-0.0340519
51	0x3cd2bd36	0.025724988
52	0xbd91de99	-0.07122535
53	0x3dbf83ee	0.093513355
54	0x3ccb0380	0.024781942
55	0xbde11b8a	-0.10991581
56	0x3a0d4189	0.00053884886
57	0x3e023b60	0.12717962
58	0x3d8b788d	0.068101026
59	0xbe0d832e	-0.13819572
60	0xbc28b9d0	-0.010298207
61	0x3d47b3e0	0.048755527
62	0x3d6d2406	0.057895683
63	0x3e0d6899	0.13809432
64	0x3e6067c0	0.21914577
65	0x3d5a7832	0.053337283
66	0x3ca82525	0.020525524
67	0xbd1aea1b	-0.037820917
68	0xbe2cb853	-0.16867189
69	0xbd9694a7	-0.07352572
70	0xbc84f88d	-0.0162318
71	0xbe24d8db	-0.16098349
72	0x3e4b925c	0.1988005
73	0xbd4b89bf	-0.04969191
74	0xbd29b807	-0.041435268
75	0xbd456f93	-0.04820211
76	0x3c6f4d74	0.014605869
77	0x3da19ca4	0.07891205
78	0xbb1dc89e	-0.0024075876
79	0xbe2593c5	-0.16169651
80	0xbda48961	-0.080340154
81	0xbd2c876a	-0.04212133
82	0x3d93fe10	0.07226193
83	0xbc70e03f	-0.014701902
84	0x3de06bc8	0.10958058
85	0x3e4d6d2e	0.2006118
86	0xbdb8df88	-0.0902701
87	0xbdb699ff	-0.08916091
88	0x3d2972cf	0.041369256
89	0x3d0d44e4	0.034489527
90	0x3af91b57	0.001900534
91	0xbcc9aa50	-0.024617344
92	0x3bed799c	0.007247163
93	0x3db85269	0.090000935
94	0xbc9141ee	-0.017731633
95	0xbe636754	-0.22207385
96	0xbdf364fb	-0.11884495
97	0xbc33565b	-0.010945882
98	0xbdaf6997	-0.085650615
99	0x3dd114ea	0.10209067
100	0xbd4e66e7	-0.050391104
101	0x3c6ffd53	0.0146478
102	0xbde4d45d	-0.111733176
103	0x3c5f662c	0.0136351995
104	0xbd80eb9b	-0.06294938
105	0xbcd0a0d7	-0.02546732
106	0x3c83d096	0.016090672
107	0xbd0eca7f	-0.034861084
108	0xbe429dbf	-0.19005488
109	0xbb53aea4	-0.003230014
110	0xbca19698	-0.019725129
111	0x3d145d2f	0.03622168
112	0x3e3219a9	0.17392601
113	0xbdbc64fc	-0.09198949
114	0xbd6963ee	-0.056980066
115	0x3cccc290	0.024995118
116	0xbd12efb0	-0.035873115
117	0xbddeb75a	-0.10874815
118	0xbcfcff68	-0.030883506
119	0x3dedabdb	0.116050445
120	0x3df61551	0.120157845
121	0xbda8a002	-0.08233644
122	0x3d2c0e7d	0.042006005
123	0xbdbce08f	-0.09222519
124	0xbd57a31b	-0.052645784
125	0x3d06bb47	0.032893445
126	0x3db7a56b	0.08967098
127	0x3bb202f0	0.005432479
128	0xbd33e118	-0.043915838
129	0xbc5e5797	-0.013570688
130	0xbd2f879e	-0.042853944
131	0x3d09710e	0.033555083
132	0x3dc38a53	0.095478676
133	0xbdfe5de7	-0.12420254
134	0xbbb54eaf	-0.0055330615
135	0xbd81d4a2	-0.063393846
136	0xbbc1e38a	-0.0059170173
137	0x3e05b0fb	0.13055794
138	0xbc96f14b	-0.018425604
139	0xbdd8b6e7	-0.10581761
140	0x3e6db312	0.23212841
141	0x3d7f86e9	0.06238452
142	0xbe3a3f9a	-0.18188325
143	0x3d3561d3	0.044282746
144	0xbdc17df4	-0.09447852
145	0x3d94c2ca	0.072637156
146	0xbdfd2812	-0.123611584
147	0x3b437203	0.0029822595
148	0xbe5cf156	-0.21576437
149	0x3dcd9b78	0.10039419
150	0xbe0aef8d	-0.13567944
151	0xbba34e42	-0.0049836943
152	0xbd370be8	-0.04468909
153	0x3caad2dd	0.0208525
154	0xbd3e7136	-0.046494685
155	0x3cb2aac8	0.02180995
156	0xbd797452	-0.060901947
157	0x3df7de6d	0.12102971
158	0xbccc8758	-0.02496688
159	0x3e1d59f9	0.15366353
160	0x3cb40e44	0.021979459
161	0x3cc98a30	0.024602026
162	0x3ded2eb8	0.115811765
163	0xbd6e0398	-0.058108896
164	0xbd4a6df9	-0.049421284
165	0x3d13777c	0.03600262
166	0xbdb31136	-0.08743517
167	0x3ddbc172	0.10730256
168	0xbd43c360	-0.047793746
169	0xbda2bf57	-0.079466514
170	0x3d5668b2	0.05234594
171	0xbda41592	-0.08011927
172	0x3dba812a	0.09106667
173	0xbde599db	-0.11210986
174	0x3e313517	0.17305408
175	0x3da8a4fe	0.08234595
176	0x3d589d60	0.05288446
177	0x3d32e7c3	0.043678056
178	0xbd905c4f	-0.070488565
179	0xbce1f53f	-0.027582763
180	0x3dd1687b	0.10225006
181	0xbcd5e6bc	-0.026111
182	0xbd551547	-0.052022245
183	0xbbf3400b	-0.007423406
184	0x3d4301fe	0.04760932
185	0x3cb95a95	0.0226262
186	0x3d391267	0.045183565
187	0x3c78f9cc	0.015196275
188	0xbd75146d	-0.059833933
189	0x3d3a3973	0.045464944
190	0xbdae07bd	-0.0849757
191	0xbdb0e18b	-0.08636769
192	0xbd8b9c5f	-0.06816935
193	0x3d77be0b	0.060483973
194	0xbc94e629	-0.018176155
195	0xbda17126	-0.078829095
196	0xbcb330b4	-0.02187381
197	0xbdd4743a	-0.10373731
198	0x3d85346b	0.065041386
199	0x3db94ad0	0.090474725
200	0x3cd1cb31	0.025609585
201	0x3b6b3f81	0.0035896006
202	0x3e1776ef	0.14791463
203	0x3c82e867	0.015979959
204	0x3d7d946b	0.06190912
205	0xba8bb51a	-0.0010658831
206	0x3cf7138f	0.030160693
207	0xbdc5bc59	-0.09655065
208	0xbc1e3cdb	-0.009658064
209	0xbdfe8b60	-0.124289274
210	0xbe2faef3	-0.17156582
211	0x3b82beb9	0.003990021
212	0x3d367477	0.044544663
213	0xbcc32292	-0.023820195
214	0x3de11357	0.10990017
215	0x3c14f611	0.00909187
216	0xbda885c0	-0.08228636
217	0x3e0593ca	0.13044658
218	0xbd934094	-0.07190052
219	0xbdccbc42	-0.09996845
220	0x3e278dd1	0.16362692
221	0x3e070935	0.13187106
222	0xbe59f199	-0.21283568
223	0xbd481f2e	-0.04885786
224	0x3c36721c	0.011135604
225	0x3bc30547	0.005951557
226	0x3ccd61ca	0.025071044
227	0x3da55da3	0.080745004
228	0xbd827929	-0.06370766
229	0x3dafe2c4	0.08588174
230	0xbd760db2	-0.060071655
231	0xbd230af2	-0.03980536
232	0x3e01851d	0.12648435
233	0x3c787b91	0.015166179
234	0xbd306d26	-0.043072842
235	0x3b48bf9a	0.0030631782
236	0x3cb6ddd3	0.02232257
237	0xbd838e2b	-0.06423601
238	0x3c580304	0.013184313
239	0xbe341b3b	-0.17588513
240	0x3d33b056	0.04386934
241	0xbd8c6335	-0.0685486
242	0x3de2f93a	0.110826924
243	0xbc2de125	-0.010612761
244	0xbd494e4c	-0.049146935
245	0x3c949685	0.01813818
246	0x3d81daf6	0.063405916
247	0x3e1f3191	0.15546252
248	0x3c2c69e9	0.010523298
249	0xbce7157d	-0.028208489
250	0xbce848b5	-0.028354982
251	0xbdc0a7e3	-0.09407022
252	0xbdb12ad2	-0.086507455
253	0x3e0106b3	0.12600212
254	0xbd514c1f	-0.051097985
255	0x3c6cbfd4	0.014450032
