691/Group project/suspicious_grpo/record_150eps/ppo_atari_translated_actor.pth (torch, 677378 bytes, 14 tensors)

features.0.weight f4 [8, 3, 8, 8]
0	0xbe24c9cf	-0.16092609
1	0xbdf97fcc	-0.121825784
2	0x3d6efbd3	0.058345627
3	0x3dd68d18	0.1047613
4	0xbd8727da	-0.06599398
5	0xbac56a72	-0.001506163
6	0xbcdb4adf	-0.0267691
7	0xbd7797af	-0.06044739
8	0xbda5febb	-0.081052266
9	0xbdf9dd70	-0.12200439
10	0x3e1cc310	0.15308785
11	0x3e018d4b	0.12651555
12	0xbd4ec015	-0.050476152
13	0xbd24f268	-0.04027024
14	0xbdb9376b	-0.09043773
15	0x3cf18ed6	0.029487055
16	0xbd054b9a	-0.032542802
17	0x3cf8b259	0.03035848
18	0x3cb9b381	0.022668602
19	0xbead28b8	-0.33820128
20	0x3c6eb7c4	0.01457018
21	0xbe164521	-0.14674808
22	0x3c477c30	0.012175605
23	0xbdcf0d07	-0.10109907
24	0xbeb84ce4	-0.35996163
25	0x3e1c54f3	0.1526678
26	0xbdc27a14	-0.09495941
27	0x3e18afa9	0.14910759
28	0xbd52b994	-0.051446512
29	0x3dfe7e8e	0.12426482
30	0x3df4c6ae	0.11951958
31	0xbdffcc2b	-0.12490114
32	0xbe137dca	-0.14403453
33	0x3e18de6a	0.14928594
34	0xbd51b684	-0.05119945
35	0x3db2677d	0.08711145
36	0x3de3c356	0.11121242
37	0x3e258e66	0.16167602
38	0x3cff408a	0.031158704
39	0x3d9a17ab	0.075240456
40	0xbe45f877	-0.19333063
41	0xbe0c86a3	-0.13723235
42	0x3dbe400f	0.09289562
43	0x3e0b7993	0.13620596
44	0x3e193aa3	0.14963774
45	0x3d5870dc	0.052842006
46	0xbe89fe2d	-0.26951733
47	0xbe3bd05a	-0.18341199
48	0x3df9efd7	0.12203949
49	0xbd8a2e3b	-0.06747099
50	0xbdbb3df9	-0.0914268
51	0x3d66f18b	0.056382697
52	0xbdd8dde5	-0.10589198
53	0xbd126a23	-0.03574575
54	0xbe587be3	-0.21141009
55	0xbd8bfa0f	-0.06834804
56	0xbdb0b235	-0.0862774
57	0xbdde291b	-0.10847684
58	0x3c7f17e5	0.015569662
59	0x3c973667	0.018458558
60	0x3c3f2560	0.011666626
61	0x3e1fc83b	0.15603726
62	0x3e7f73bd	0.24946494
63	0xbb9aa9f9	-0.0047199694
64	0xbe44f4f0	-0.19234061
65	0x3e84b205	0.25917068
66	0xbd2fe478	-0.042942494
67	0x3da0fc74	0.078606516
68	0x3e24bfac	0.16088742
69	0x3e07a1e5	0.13245352
70	0x3c1eca03	0.009691718
71	0xbd2be616	-0.041967474
72	0x3bbd0c8d	0.0057693184
73	0xbe22ccef	-0.15898488
74	0x3e3c9df3	0.18419628
75	0x3e2fc717	0.1716579
76	0xbda15445	-0.07877401
77	0xbc47605e	-0.012168972
78	0xbc1c86be	-0.009553609
79	0xbe91c0d3	-0.28467426
80	0x3df72276	0.1206712
81	0x3c8ed5ea	0.017435987
82	0xbd4dd1cc	-0.050248906
83	0xbe6bd836	-0.23031697
84	0x3da712c2	0.08157875
85	0xbcbab054	-0.022789158
86	0x3dcf2aeb	0.10115608
87	0xbe0d84e6	-0.13820228
88	0xbe3ce795	-0.18447717
89	0x3d121685	0.035666008
90	0xbe378f09	-0.17925657
91	0x3e997126	0.29969138
92	0xbd52690e	-0.05136972
93	0x3de25c47	0.11052757
94	0x3e2e0e78	0.16997707
95	0x3de9e097	0.1141979
96	0xbe049135	-0.12946017
97	0x3e6e4f6f	0.23272489
98	0x3d8acd0b	0.0677739
99	0x3e2f48d1	0.17117621
100	0xbdf4e92a	-0.11958535
101	0x3d583569	0.05278531
102	0xbd955be2	-0.07292916
103	0x3d56cf91	0.052444045
104	0xbe640a2c	-0.22269505
105	0x3dddf86b	0.108383976
106	0x3e64bfbc	0.22338766
107	0x3e1b655f	0.15175389
108	0x3e397df3	0.18114452
109	0x3e67cb4f	0.2263615
110	0xbdf9184b	-0.12162837
111	0x3d203e3d	0.039121855
112	0x3d9e3692	0.07725252
113	0xbe84889d	-0.25885478
114	0x3e020596	0.12697443
115	0x3dccb0bd	0.09994648
116	0x3c574e04	0.013141159
117	0xbe251169	-0.16119923
118	0x3c9f2c8c	0.019430421
119	0xbdf438a1	-0.119248636
120	0x3d0deef7	0.034651723
121	0xbe51b69c	-0.20479816
122	0xbdaa5052	-0.08316101
123	0xbb62ffeb	-0.0034637402
124	0xbd8ac977	-0.067767076
125	0xbe213b51	-0.15745284
126	0x3ef64abf	0.48103902
127	0xbcb787d7	-0.02240364
128	0xbcd4391f	-0.025906144
129	0x3d3a577a	0.04549358
130	0xbd96f095	-0.07370106
131	0x3e396e24	0.18108422
132	0x3d952b64	0.07283667
133	0x3eb41af4	0.35176814
134	0xba94280f	-0.0011303442
135	0xbc34d438	-0.011036925
136	0xbe0f36c2	-0.13985732
137	0xbdf14742	-0.117811695
138	0x3d9d8a8f	0.076924436
139	0x3e4c345f	0.19941853
140	0xbdb5926c	-0.088658184
141	0x3d3fe889	0.046852622
142	0xbc6e7224	-0.01455358
143	0xbde6287f	-0.11238193
144	0xbe716c43	-0.23576455
145	0x3e27757f	0.16353415
146	0xbdc65e6e	-0.0968598
147	0xbe0b5d7a	-0.13609877
148	0xbd9d6ddb	-0.07686969
149	0x3cf9d752	0.03049818
150	0x3c9e3518	0.019312426
151	0xbcdcec9b	-0.026968291
152	0xbe26c99f	-0.1628785
153	0x3e1fecc3	0.15617661
154	0x3d36c180	0.04461813
155	0xbb5be4bf	-0.0033553091
156	0x3d7b5143	0.061356794
157	0x3d3cc8a2	0.046089776
158	0xbd36ba51	-0.04461128
159	0xbd180d83	-0.03712226
160	0xbe9257f1	-0.2858272
161	0xbc540cb9	-0.012942486
162	0xbd2ab39b	-0.04167519
163	0x3dc14a25	0.0943797
164	0x3e281fd1	0.16418387
165	0xbd9acd68	-0.075587094
166	0xbd02eaf0	-0.031962335
167	0x3e06f1fc	0.13178247
168	0xbdde2608	-0.10847098
169	0x3e4572a7	0.19282018
170	0xbdba9620	-0.09110665
171	0x3d8d2ce0	0.06893325
172	0x3cc68f57	0.024238272
173	0xbd85f3b2	-0.06540622
174	0xbdbf4bdf	-0.09340643
175	0xbdc9771e	-0.09837173
176	0xbd87c8c4	-0.0663009
177	0xbe925315	-0.28579012
178	0xbd9e0dd3	-0.077174805
179	0xbdb4ee3a	-0.088345006
180	0x3d5492ba	0.05189774
181	0x3cac3a17	0.021023793
182	0xbe896fe2	-0.26843172
183	0xbe0bb647	-0.13643752
184	0x3d547efc	0.051878914
185	0x3cdabbcb	0.026700875
186	0x3e225bd6	0.15855345
187	0xbce3b590	-0.027796537
188	0xbd31b64d	-0.043386746
189	0xbcf29d2d	-0.029615963
190	0x3de00f9f	0.109404795
191	0xbd46ea74	-0.048563436
192	0xbd52b180	-0.05143881
193	0x3d7b5359	0.061358783
194	0x3e0d7bc9	0.13816752
195	0xbd3e4874	-0.046455815
196	0xbcf044da	-0.029329706
197	0x3d8902e0	0.066900015
198	0x3ddafac8	0.10692364
199	0x3d035dbb	0.03207181
200	0xbbab6187	-0.005230132
201	0xbe50a74d	-0.2037632
202	0xbda68449	-0.081307
203	0xbe2b1aef	-0.16709493
204	0x3d190063	0.037353884
205	0xbda0972b	-0.07841333
206	0x3e7f45a6	0.24928913
207	0x3e857bb8	0.26070952
208	0x3bdd7357	0.0067581343
209	0xbd9aa0d7	-0.07550209
210	0x3e06f18c	0.1317808
211	0xbe00b623	-0.1256948
212	0xbd857f92	-0.06518473
213	0xbcfe12bc	-0.031014793
214	0x3d904540	0.070444584
215	0x3e6e1322	0.23249486
216	0xbb7e2816	-0.0038781217
217	0x3d59be46	0.053159975
218	0x3d372743	0.044715177
219	0xbc4001e0	-0.011719197
220	0x3da0f2a6	0.078587815
221	0x3e5d69bd	0.21622367
222	0xbda1cae9	-0.0790003
223	0x3e9ea044	0.30981648
224	0x3e2f43ce	0.17115709
225	0x3e33f984	0.17575651
226	0xbde03d3f	-0.10949182
227	0x3da908a4	0.08253601
228	0x3d88cf3c	0.06680152
229	0x3bd3164d	0.0064418674
230	0x3d8b5c3d	0.068047024
231	0x3c671282	0.014103534
232	0x3d8aa239	0.06769223
233	0x3dec127d	0.11526964
234	0x3dda0726	0.10645895
235	0xbe347b69	-0.17625202
236	0xbc32179a	-0.010869885
237	0xbb8448bc	-0.004036991
238	0xbe074013	-0.13208036
239	0x3eb79aef	0.35860392
240	0x3bc266f1	0.0059326817
241	0x3e48abeb	0.19596832
242	0x3bb6faaa	0.0055840807
243	0xbd3bc89a	-0.045845605
244	0xbde8ba6c	-0.11363682
245	0x3d0ef15a	0.03489814
246	0xbd8006c6	-0.06251292
247	0x3db08f03	0.08621027
248	0xbc3bd6ee	-0.011464817
249	0xbdfbce5e	-0.12295221
250	0x3d91084c	0.07081661
251	0x3dec6aa1	0.11543775
252	0x3dfe4041	0.12414599
253	0xbe9b38da	-0.30316812
254	0x3e5c7c92	0.21531895
255	0xbde5daac	-0.11223349

features.0.bias f4 [8]
0	0x3b2025f8	0.0024436694
1	0xbba9b5ae	-0.0051791286
2	0x3ca13ca5	0.019682238
3	0xbac8d9fd	-0.0015323755
4	0x3b22ce07	0.002484204
5	0x3b574cfc	0.0032852283
6	0x3c8ae5e0	0.016955316
7	0x3be18d9a	0.0068833353

features.2.weight f4 [16, 8, 4, 4]
0	0x3e9d335f	0.30703256
1	0x3dc4fcf6	0.09618561
2	0xbc818116	-0.015808623
3	0xbea6c8ba	-0.32575017
4	0x3d199a66	0.03750076
5	0x3e28c647	0.16481887
6	0xba0706e4	-0.0005150868
7	0xbced4b48	-0.028966561
8	0xbe2d8762	-0.16946176
9	0xbc5cb0fc	-0.013469931
10	0x3ef88c3f	0.485445
11	0xbe263a22	-0.16233113
12	0x3e53b62d	0.20674963
13	0x3d159085	0.036514778
14	0x3ad07501	0.001590401
15	0x3db78e7f	0.08962726
16	0x3d5bbc4b	0.053646367
17	0xbdbf74a7	-0.093484215
18	0xbdeb47c2	-0.11488296
19	0xbe10c5c2	-0.14137939
20	0x3e154203	0.14575963
21	0xbe00bb96	-0.12571558
22	0xbea384e0	-0.31937313
23	0xbd44c2b9	-0.048037264
24	0xbc8dea1c	-0.017323546
25	0x3dba48d8	0.09095925
26	0x3e605475	0.21907218
27	0xbe4d253f	-0.2003374
28	0xbec143cd	-0.3774704
29	0x3da16a81	0.07881642
30	0x3deb0db4	0.11477223
31	0xbeb1be55	-0.34715524
32	0x3e11d9c0	0.14243221
33	0x3e48196c	0.19540948
34	0xbe983b06	-0.2973253
35	0xbc47082d	-0.012147945
36	0xbbf2c105	-0.0074082636
37	0xbd8e21fd	-0.069400765
38	0x3e21a286	0.15784654
39	0xbcf12bde	-0.029439863
40	0xbd7e6662	-0.06210936
41	0xbec62497	-0.3869979
42	0x3e750ea9	0.23931374
43	0x3d7c6f62	0.06162966
44	0x3cb83fbf	0.022491334
45	0xbe2fa7f1	-0.17153908
46	0x3c8a52ad	0.016885126
47	0xbccbee1b	-0.024893811
48	0xbdaa13c4	-0.08304551
49	0x3def87cc	0.11695823
50	0x3ecfd771	0.40594056
51	0x3dd70761	0.10499454
52	0xbe473c10	-0.19456506
53	0xbe18a677	-0.14907251
54	0x3e25a38a	0.16175666
55	0xbe1fc5fb	-0.15602867
56	0x3d79b00c	0.060958907
57	0xbae34984	-0.0017340635
58	0xbdf2ebb9	-0.11861367
59	0xbcac555b	-0.021036794
60	0x3b792de9	0.003802175
61	0xbe19e253	-0.15027742
62	0xbdff92f3	-0.124792
63	0x3e2e9063	0.17047267
64	0x3df76ef9	0.12081713
65	0x3a0bbb40	0.00053303316
66	0xbecaa90d	-0.395821
67	0xbdba159c	-0.09086153
68	0x3ae47512	0.0017429909
69	0x3e0398da	0.12851277
70	0xbdf16e64	-0.117886335
71	0xbe1f86fd	-0.15578838
72	0x3dabf905	0.08397106
73	0xbe3e25b3	-0.18569069
74	0x3e25c0cf	0.16186832
75	0xbd93cabe	-0.072164044
76	0xbc60c130	-0.0137179345
77	0xbebb4084	-0.3657266
78	0x3decac97	0.115563564
79	0x3e14037d	0.14454456
80	0x3e347af6	0.17625031
81	0x3db796a4	0.08964279
82	0x3de806a3	0.11329391
83	0x3d0f8a70	0.035044134
84	0x3e25c17b	0.16187088
85	0x3d8d63bd	0.06903789
86	0x3e3a9617	0.18221317
87	0xbe757612	-0.23970821
88	0x3d9d5153	0.07681527
89	0xbd58ee3c	-0.052961573
90	0x3e18bb1a	0.14915124
91	0x3d0c2257	0.034212437
92	0x3d725e35	0.059171874
93	0x3d01bd9f	0.031674977
94	0xbcb020df	-0.02150005
95	0xbe2aa9c5	-0.16666324
96	0x3d8647fb	0.06556698
97	0xbe16780e	-0.14694235
98	0xbd947e5b	-0.07250663
99	0x3e8ffad4	0.28121054
100	0x3d52d37e	0.051471226
101	0x3d5c939d	0.053851712
102	0xbdcb33a7	-0.09921961
103	0x3e19ee78	0.15032375
104	0xbd82b832	-0.06382789
105	0xbd5a5632	-0.05330486
106	0xbdac49e3	-0.0841253
107	0xbe12a816	-0.14321932
108	0xbca618cb	-0.020275494
109	0xbd0efd7d	-0.034909714
110	0x3c69a050	0.014259413
111	0xbe079636	-0.13240895
112	0x3d2bbd19	0.041928384
113	0x3e7b11a6	0.24518451
114	0x3d81ab5b	0.063315116
115	0xbcca3a4c	-0.024686001
116	0x3dc7d6dc	0.09757778
117	0x3c2a6498	0.01039996
118	0xbd364b85	-0.044505615
119	0xbd0a4871	-0.03376049
120	0xbda0aa30	-0.07844961
121	0xbe25667f	-0.1615238
122	0x3d6e9153	0.05824406
123	0x3eb7f45e	0.35928625
124	0x3dacbd97	0.08434599
125	0x3e85ca76	0.26131028
126	0xbd21d26f	-0.039507326
127	0x3e98aa2b	0.29817328
128	0xbe24ec49	-0.1610576
129	0x3e178846	0.14798078
130	0xbcdf5644	-0.027262814
131	0x3e0c392b	0.13693683
132	0xbe606a87	-0.21915637
133	0x3e73c9e3	0.23807482
134	0x3dad8225	0.08472089
135	0xbd208611	-0.039190356
136	0xbe1d4722	-0.15359166
137	0xbd2ff8a0	-0.042961717
138	0xbc45b1fe	-0.012066362
139	0x3e5242ee	0.20533344
140	0xbe253e86	-0.16137132
141	0xbea971f6	-0.33094758
142	0x3d879fcd	0.066222765
143	0xbd61bd8e	-0.055112414
144	0xbd2ef641	-0.042715315
145	0xbcb1b304	-0.021691807
146	0xbde7def9	-0.113218255
147	0x3dd5b7a3	0.104354165
148	0xbd95ad8d	-0.07308493
149	0xbc9ae185	-0.018906364
150	0xbc04931f	-0.008091717
151	0x3ea5cb06	0.32381457
152	0x3e36c745	0.17849453
153	0x3debee75	0.115200914
154	0xbdb35a59	-0.08757467
155	0x3ed6bd4f	0.41941306
156	0x3bd45444	0.006479772
157	0xbd8a5792	-0.06754984
158	0xbe7a1ba5	-0.24424608
159	0xbd9fefaa	-0.07809384
160	0xbd4f4d42	-0.05061079
161	0x3eb01ab2	0.34395367
162	0x3ced903d	0.028999442
163	0xbc83e6b0	-0.016101211
164	0xbd360e0b	-0.044446986
165	0x3de808d1	0.113298066
166	0x3da67dc0	0.08129454
167	0x3dee36cf	0.11631548
168	0xbc6970ce	-0.014248086
169	0x3d52f5d2	0.051503964
170	0xbde28166	-0.11059837
171	0xbe24e721	-0.16103794
172	0xbd80d612	-0.06290831
173	0xbe160749	-0.14651217
174	0xbe50ac5c	-0.2037825
175	0xbd9b3a00	-0.07579422
176	0x3d1b8d58	0.037976593
177	0x3e4b8cbd	0.19877906
178	0x3e02bfa6	0.1276842
179	0x3e1bdfb2	0.15222052
180	0x3d88fb53	0.06688561
181	0xbd1cf383	-0.03831817
182	0x3df66166	0.12030296
183	0xbcb03676	-0.021510344
184	0xbde8033f	-0.11328744
185	0x3e784e2b	0.24248569
186	0xbe1a7ed1	-0.15087439
187	0x3eb0bd0d	0.34519234
188	0xbc195708	-0.009359129
189	0x3d1f642e	0.0389139
190	0x3eac5498	0.3365829
191	0x3d022308	0.03177169
192	0xbe195689	-0.14974417
193	0x3d5eddd8	0.054410785
194	0xbe0cc54d	-0.1374714
195	0xbc33c9d6	-0.010973414
196	0x3e47071c	0.19436306
197	0xbd937f59	-0.07202024
198	0x3e8bca87	0.27302954
199	0x3e92ef8f	0.28698394
200	0x3dbcf488	0.09226328
201	0xbe0a6d61	-0.13518287
202	0x3ce8a9bd	0.02840125
203	0x3cfc99c5	0.030835042
204	0xbd59ba0c	-0.053155944
205	0x3d99fed3	0.07519307
206	0x3eb7cf29	0.35900238
207	0xbdd13c7f	-0.10216617
208	0x3d7e3ff1	0.062072698
209	0x3e85a42a	0.2610181
210	0xbd9a8038	-0.07543987
211	0x3e0db42c	0.13838261
212	0x3e131b60	0.14365911
213	0xbe9a2890	-0.30109072
214	0xbe102c91	-0.140795
215	0x3dad2866	0.08454971
216	0x3e1d09e3	0.15335803
217	0xbe0aeb64	-0.13566357
218	0x3d6a9a5b	0.05727611
219	0x3d2679b6	0.040643416
220	0xbe881a79	-0.26582697
221	0x3e6a81ea	0.22901121
222	0x3df9de2f	0.12200581
223	0xbe2aa171	-0.16663148
224	0x3cc66658	0.024218723
225	0xbcb449be	-0.02200782
226	0x3de42c79	0.11141295
227	0x3cf19b21	0.029492917
228	0x3caa7ccd	0.020811463
229	0x3de37354	0.111059815
230	0xbe393709	-0.180874
231	0xbda70b62	-0.08156468
232	0xbe8aa10e	-0.27076
233	0x3c9cb4e3	0.019129222
234	0xbdf5d707	-0.12003904
235	0xbe19772a	-0.14986864
236	0x3d7026c7	0.05863073
237	0x3cf29b36	0.029615026
238	0xbd83baa3	-0.064320825
239	0x3d9f8b18	0.07790202
240	0xbc486c3f	-0.012232839
241	0x3e028237	0.12744986
242	0xbe2c73de	-0.16841075
243	0xbdbbfebb	-0.09179445
244	0xbe0d6a62	-0.13810113
245	0xbdbb7c65	-0.09154586
246	0xbe039aa6	-0.12851962
247	0x3e074f86	0.1321393
248	0xbe546c4e	-0.2074444
249	0x3d3f579e	0.046714418
250	0xbe4aacc7	-0.19792472
251	0xbd1e34a3	-0.038624417
252	0x3dca77bc	0.09886119
253	0x3d511e04	0.051054016
254	0x3e044eda	0.12920704
255	0x3e881ccd	0.26584473

features.2.bias f4 [16]
0	0xba02a9f2	-0.000498443
1	0xbc78d832	-0.015188264
2	0x3bc4900c	0.005998617
3	0xbbf1ab71	-0.0073751737
4	0x3bad538d	0.005289501
5	0x3c22155f	0.009892791
6	0x3c4dfa1d	0.012571839
7	0xbc9d6eb3	-0.019217825
8	0xbc46159c	-0.012090113
9	0x390f2581	0.00013651514
10	0x3ab72d8d	0.0013975367
11	0xbd17ce19	-0.037061784
12	0x38e29fcd	0.00010806285
13	0x3c0b9040	0.008518279
14	0xbb8ac938	-0.004235413
15	0xbcffe474	-0.031236865

features.4.weight f4 [32, 16, 3, 3]
0	0xbd43cecf	-0.04780465
1	0xbda61111	-0.08108724
2	0x3e2016db	0.15633719
3	0xbd9e81b8	-0.07739586
4	0x3e373112	0.17889813
5	0x3e45b124	0.19305855
6	0x3e42e1cb	0.19031446
7	0x3ca733f3	0.020410514
8	0x3e80d2b3	0.2516075
9	0xbe096221	-0.1341634
10	0xbd942e82	-0.07235433
11	0xbe77c51a	-0.24196282
12	0xbd68bcfd	-0.05682086
13	0xbde43514	-0.11142936
14	0x3eaa8321	0.33303168
15	0x3e5d0d28	0.2158705
16	0xbd894952	-0.06703438
17	0xbe6f470d	-0.23366947
18	0xbe53d265	-0.20685728
19	0x3e2ec1f4	0.17066175
20	0x3d1d1806	0.03835299
21	0x3db7aad5	0.089681305
22	0xbc3b275f	-0.011422961
23	0x3e81ccf6	0.25351685
24	0xbe7b83ec	-0.24562043
25	0xbdab93ca	-0.08377798
26	0x3e527e06	0.20555887
27	0x3e2d41c4	0.16919619
28	0x3dbd15a7	0.092326455
29	0xbe51ecb4	-0.20500451
30	0xbe4dcadb	-0.20096914
31	0xbdb3b7ed	-0.087753154
32	0x3ec1db92	0.3786283
33	0x3e93532e	0.287744
34	0xbe3bffe6	-0.18359336
35	0xbe18a402	-0.14906314
36	0x3d286c25	0.04111876
37	0x3d101b71	0.03518242
38	0x3d56aa12	0.052408285
39	0x3e0cfebf	0.13769053
40	0xbdb85bcc	-0.09001884
41	0x3bf5a0c9	0.0074959737
42	0xbe5e7adf	-0.21726559
43	0xbd37a51e	-0.044835202
44	0x3c76edd3	0.01507135
45	0xbc954a02	-0.018223766
46	0x3e269415	0.16267426
47	0xbd2e9bb3	-0.042628955
48	0xb9ba2192	-0.00035501696
49	0xbdb15db8	-0.086604536
50	0xbe9b44be	-0.30325884
51	0xbe8e5e89	-0.278065
52	0xbe746012	-0.23864773
53	0x3e9d2b58	0.3069713
54	0x3e22d60f	0.1590197
55	0xbe2aeb17	-0.16691242
56	0x3e1d6218	0.15369451
57	0xbdcf4470	-0.10120475
58	0xbda1bf98	-0.07897872
59	0x3e9c1562	0.30485064
60	0x3d9cda04	0.07658771
61	0xbdb54108	-0.08850294
62	0x3da02623	0.07819774
63	0x3e35dd00	0.17760086
64	0x3c60db34	0.013724137
65	0xbdac956d	-0.08426938
66	0xbe49467b	-0.19655792
67	0xbd1fab34	-0.03898163
68	0x3da7248a	0.08161266
69	0xbca7870b	-0.020450136
70	0xbdfdde0e	-0.12395869
71	0xbe079158	-0.13239038
72	0x3bced2c7	0.0063117477
73	0x3d6bfeee	0.057616167
74	0xbe1c02cf	-0.15235446
75	0xbe009586	-0.12557039
76	0xbd142283	-0.036165725
77	0xbdfa9929	-0.12236244
78	0xbde073f2	-0.10959615
79	0x3d7d701e	0.0618745
80	0x3e3c5c98	0.18394697
81	0xbc399963	-0.011328074
82	0xbe0e41cb	-0.13892286
83	0xbd85ed56	-0.06539409
84	0xbe05d9e0	-0.13071394
85	0xbdde196c	-0.108446926
86	0x3ad0022d	0.0015869789
87	0x3da4f257	0.08054035
88	0x3d798b4e	0.060923867
89	0x3e5de0ba	0.21667758
90	0x3dcad91c	0.099046916
91	0xbe41c23b	-0.1892175
92	0x3db1881b	0.08668538
93	0xbdd31619	-0.10306949
94	0xbd1f2e75	-0.038862664
95	0x3e66ec90	0.22551179
96	0xbdd4566b	-0.103680454
97	0xbcee87c1	-0.029117467
98	0x3e0a0597	0.13478695
99	0x3dd7d6a9	0.1053899
100	0xbd506e42	-0.0508864
101	0xbe771dfc	-0.24132532
102	0x3e1c6c0b	0.1527559
103	0x3dada595	0.08478848
104	0xbdf2c630	-0.118542075
105	0xbde877a2	-0.11350943
106	0x3c12cd1b	0.008960034
107	0x3c9c4369	0.019075112
108	0xbdd0a18b	-0.10187062
109	0x3d76687f	0.06015825
110	0x3e133b22	0.14378026
111	0xbe444f91	-0.19170977
112	0xbe2a2b9f	-0.16618203
113	0xbcdf6aca	-0.0272726
114	0x3d5d0d9f	0.05396807
115	0x3df1bc4e	0.118034944
116	0xbe42e7d6	-0.19033751
117	0x3c1bacf7	0.009501687
118	0x3d1f0001	0.038818363
119	0x3dca06b3	0.09864559
120	0x3e5aa64b	0.21352498
121	0x3eab2b3f	0.33431432
122	0x3e803f35	0.25048223
123	0xbdffc340	-0.12488413
124	0x3d78f275	0.0607781
125	0x3e739398	0.23786771
126	0x3cc52ea4	0.024070092
127	0xbd06b543	-0.03288771
128	0x3d1d0992	0.038339205
129	0x3e4e7855	0.2016309
130	0x3d44788b	0.04796652
131	0x3cdb5584	0.026774175
132	0x3d3c13b4	0.045917228
133	0xbc4ecf60	-0.012622684
134	0x3d9561cf	0.07294046
135	0x3e584946	0.21121702
136	0xbdede8b3	-0.116166495
137	0xbdd1c3ac	-0.102423996
138	0x3cfbb2b5	0.030724863
139	0xbd03ccf0	-0.032177866
140	0x3e925277	0.2857854
141	0xbd5217e5	-0.05129232
142	0x3c3d352e	0.011548324
143	0xbc47a6a1	-0.0121857235
144	0xbe204040	-0.1564951
145	0xbd011ce1	-0.03152168
146	0xbe5df2b6	-0.21674618
147	0x3d95d3d5	0.073157944
148	0xbd809ae0	-0.0627954
149	0x3d802e4e	0.06258832
150	0xbe98ae6d	-0.29820576
151	0x3d4c295f	0.049844142
152	0x3dba29a1	0.09089971
153	0x3debbc9a	0.11510582
154	0x3e5bb13c	0.21454328
155	0xbdce1768	-0.10063058
156	0x3d5529d1	0.052041832
157	0x3e315a93	0.17319708
158	0xbda1406a	-0.07873614
159	0x3d1ec3ff	0.038761135
160	0x3e666358	0.22498834
161	0x3d7d13a0	0.061786294
162	0x3d8859f2	0.06657781
163	0x3e94a1b6	0.29029626
164	0xbcb742b7	-0.02237068
165	0xbdd09847	-0.101852946
166	0xbda35add	-0.07976315
167	0xbb910b20	-0.004426375
168	0x3e27acdb	0.16374533
169	0xbdc40010	-0.095703244
170	0x3d50c23b	0.050966483
171	0x3bd8f64a	0.006621157
172	0x3e763c50	0.24046445
173	0xbe29a340	-0.16566181
174	0x3ca42f5d	0.020042116
175	0xbd51326c	-0.051073477
176	0xbdc0d9e1	-0.09416557
177	0x3ec8c59c	0.39213264
178	0xbd16088e	-0.036629252
179	0xbdaa8d84	-0.08327773
180	0x3dff3386	0.12460999
181	0xbdb76cbd	-0.08956287
182	0xbdab8c0d	-0.08376322
183	0xbd7d8cac	-0.061901733
184	0xbe01c1c3	-0.1267157
185	0xbe3be09b	-0.18347399
186	0x3e42de3c	0.19030088
187	0x3db6d7cf	0.08927881
188	0xbd848193	-0.06470027
189	0xbe00c641	-0.12575628
190	0x3e061744	0.13094813
191	0x3d6b78b6	0.057488166
192	0xbcc13956	-0.02358691
193	0x3e2961ea	0.16541258
194	0xbe0f41a8	-0.1398989
195	0x3e8d9d0e	0.27658886
196	0xbdfa55eb	-0.12223419
197	0xbccf95f3	-0.025340056
198	0x3d5a1e1d	0.053251375
199	0xbd1a9533	-0.037739944
200	0x3d9a5c2f	0.07537114
201	0xbe6c347c	-0.23066896
202	0x3d02e591	0.031957213
203	0xbe5d688c	-0.21621913
204	0x3c9a29e8	0.01881881
205	0x3ce8bcb3	0.028410291
206	0x3e58aee1	0.21160461
207	0xbcf2af6a	-0.02962466
208	0xbe642e10	-0.22283196
209	0x3e12289b	0.14273302
210	0xbd48ac83	-0.048992645
211	0xbdfcf8f8	-0.123521745
212	0xbe89a56c	-0.2688402
213	0xbe196770	-0.14980865
214	0x3e6a59d7	0.22885834
215	0x3e4c9774	0.1997965
216	0x3cd8f74f	0.026485113
217	0xbd65024b	-0.05591039
218	0xbe0e4af7	-0.13895784
219	0xbc874647	-0.016513003
220	0x3d8ceffe	0.068817124
221	0xbdaf122a	-0.085483864
222	0x3cff7bf6	0.031187039
223	0xbdc5cc4b	-0.096581064
224	0x3db4577c	0.08805749
225	0x3df003ab	0.117194496
226	0x3b2fd3b3	0.0026829063
227	0x3c5c825e	0.013458816
228	0xbd0a1abc	-0.033716902
229	0x3dfbd37e	0.12296198
230	0x3d9c61c3	0.07635834
231	0x3d81943c	0.063271016
232	0x3e703660	0.23458242
233	0xbe124d5a	-0.1428732
234	0x3e5d77d1	0.21627738
235	0xbc80714f	-0.01567903
236	0xbe74f297	-0.23920666
237	0xbc8409f4	-0.016118027
238	0xbdda441a	-0.106575206
239	0x3d614a6a	0.055002607
240	0xbd3acc09	-0.04560474
241	0xbcbbf0b8	-0.022941932
242	0x3d918632	0.07105674
243	0x3e0420a2	0.12903073
244	0xbe9dae7c	-0.30797184
245	0xbe02c173	-0.12769108
246	0xbd65bf80	-0.05609083
247	0xbc32c770	-0.010911807
248	0x3e3b4483	0.18287854
249	0xbd9a221d	-0.07526038
250	0x3c8bd31b	0.017068436
251	0x3c9727ae	0.018451538
252	0xbe26b527	-0.16280042
253	0x3c855b64	0.01627893
254	0xbb5aca55	-0.003338476
255	0x3e162e24	0.14666039

features.4.bias f4 [32]
0	0xbc329068	-0.010898687
1	0xbc89fa46	-0.016842972
2	0x3cbff1fd	0.023430819
3	0x3ba2ca1f	0.0049679424
4	0xbc345cf5	-0.011008491
5	0xbc9fa217	-0.01948647
6	0xbd24e3b5	-0.04025622
7	0xbca116c8	-0.019664183
8	0x3ce2dd82	0.027693514
9	0xbd40c24b	-0.047060292
10	0xbc9facc1	-0.019491555
11	0x3b9190db	0.004442317
12	0xbc5ef635	-0.013608505
13	0xbcc76f23	-0.024344986
14	0x3c80d025	0.015724251
15	0xbd75ee11	-0.06004149
16	0xbb423b0c	-0.0029637245
17	0xbc4de215	-0.012566109
18	0xbd5190b6	-0.051163398
19	0xbcecd1c1	-0.028908612
20	0x3b1449bb	0.0022626955
21	0xbcfee51d	-0.03111511
22	0xbbc5e755	-0.00603954
23	0x3bc4ead0	0.006009437
24	0x3af6ec02	0.0018838646
25	0xbd459ca3	-0.048245084
26	0x3c6564ba	0.014001066
27	0xbd0f816f	-0.035035547
28	0xbcb7bad2	-0.02242795
29	0xbd0369ca	-0.03208331
30	0xbd05369a	-0.032522775
31	0x3bcb9770	0.006213121

features.6.weight f4 [64, 32, 3, 3]
0	0xbe46fd80	-0.1943264
1	0xbe21e21d	-0.15808912
2	0xbdb3787c	-0.08763215
3	0xbd9cac60	-0.076500654
4	0x3e090f0e	0.13384649
5	0x3d0871d9	0.0333117
6	0xbe7924ee	-0.24330494
7	0x3db59a82	0.08867361
8	0xbcf06fc7	-0.029350175
9	0xbe222bd8	-0.15837038
10	0xbcbadb73	-0.02280972
11	0xbe34f48a	-0.17671409
12	0x3dcea609	0.100902624
13	0x3d8df2f7	0.069311075
14	0xbe0285d5	-0.12746365
15	0xbdf14cf5	-0.117822565
16	0x3e2845ad	0.16432829
17	0xbd399160	-0.045304656
18	0xbdfc4793	-0.12318339
19	0x3e72f0f5	0.2372473
20	0xbd9cf333	-0.07663574
21	0x3d271d02	0.04079915
22	0x3e06a648	0.13149369
23	0x3da52b10	0.08064854
24	0xbd13df34	-0.036101535
25	0x3d8108e4	0.06300524
26	0xbcd4f9dd	-0.02599805
27	0xbd6052fc	-0.05476664
28	0xbdbba630	-0.09162557
29	0x3d5fa00c	0.054595992
30	0x3cd14096	0.025543492
31	0x3e59ac05	0.21257026
32	0xbd980624	-0.07423046
33	0xbda98f71	-0.082793124
34	0x3e502300	0.20325851
35	0xbbb845e1	-0.0056235646
36	0x3db79678	0.089642465
37	0xbe60fdc3	-0.21971802
38	0xbe1be519	-0.15224113
39	0x3bc9ff74	0.0061644856
40	0xbe22db96	-0.15904078
41	0xbc2043f4	-0.009781826
42	0x3c17ff8d	0.009277237
43	0xbdcd8c73	-0.10036554
44	0x3c8fd582	0.017557863
45	0xbcc80f2e	-0.0244213
46	0xbcbf6cf9	-0.023367392
47	0x3d6430f9	0.055710766
48	0x3c1172e6	0.008877492
49	0x3c51361b	0.012769247
50	0xbdbf31c4	-0.09335664
51	0x3d56a1fa	0.052400567
52	0xbd90da3e	-0.070728764
53	0x3e5baf48	0.21453583
54	0x3d426928	0.047463566
55	0xbe70ac8c	-0.23503321
56	0xbd57d0a5	-0.052689213
57	0x3c06759a	0.008206749
58	0xbd49b9b4	-0.049249366
59	0xbdf23109	-0.11825759
60	0xbe5629b0	-0.2091434
61	0x3dd6f513	0.10495963
62	0x3ceeea2b	0.029164394
63	0xbd0922c7	-0.033480432
64	0x3e54a091	0.20764376
65	0xbba9f464	-0.0051866043
66	0x3dca957d	0.09891794
67	0xbb51988f	-0.00319818
68	0xbdaa56e0	-0.08317351
69	0xbd63df19	-0.055632684
70	0x3d928490	0.071541905
71	0x3e3f7bde	0.18699595
72	0xbe207a34	-0.15671617
73	0xbda9fad5	-0.082997955
74	0x3d8cebfc	0.06880948
75	0x3df937ed	0.1216887
76	0x3db57e1d	0.08861945
77	0xbe8c0277	-0.2734563
78	0xbdd066e5	-0.101758756
79	0xbe4c2123	-0.19934516
80	0xbe6a8b35	-0.22904666
81	0x3d6b5806	0.057456993
82	0xbe218783	-0.1577435
83	0xbe044202	-0.12915805
84	0xbcfcda22	-0.030865733
85	0x3d114074	0.035461858
86	0xbd87ee32	-0.06637229
87	0xbce72fab	-0.028220972
88	0xbcc80922	-0.024418417
89	0xbe43412c	-0.1906783
90	0x3e1064a2	0.14100888
91	0xbdf34f5a	-0.118803695
92	0x3d16279d	0.036658872
93	0x3e31228e	0.17298338
94	0xbcc0d2da	-0.023538042
95	0x3c955ce5	0.018232772
96	0xbc975d57	-0.018477125
97	0xbd0149dc	-0.03156458
98	0xbe099837	-0.13436972
99	0xbc7ee949	-0.015558549
100	0x3adffca2	0.001708884
101	0xbdc9e6b1	-0.09858454
102	0xbd859ce4	-0.06524065
103	0xbe02359a	-0.1271576
104	0x3cdc863d	0.026919479
105	0xbe29dea2	-0.16588834
106	0x3cc82413	0.024431264
107	0x3d187ada	0.037226535
108	0x3e205fce	0.15661547
109	0xbb87776a	-0.0041341083
110	0xbdb222a5	-0.08698014
111	0x3de756e1	0.11295868
112	0x3c9cf94c	0.019161843
113	0x3d30f159	0.043198917
114	0x3c87c10b	0.016571542
115	0xbe1d8fda	-0.15386906
116	0x3d666bf9	0.056255314
117	0xbdd586a0	-0.10426068
118	0xbca0a3b1	-0.019609304
119	0xbd8b7d46	-0.068110034
120	0xbcacf720	-0.021113932
121	0x3e22fc50	0.15916562
122	0xbe4ee95b	-0.20206206
123	0xbc8827f2	-0.01662061
124	0xbe652b05	-0.22379692
125	0xbd802a8b	-0.062581144
126	0xbc3be1ef	-0.011467441
127	0x3e51fa78	0.20505702
128	0x3dbc36c1	0.09190131
129	0x3e79e2d4	0.24402934
130	0x3cab4152	0.02090517
131	0xbd5fc9f2	-0.05463595
132	0xbe83eb6f	-0.2576556
133	0xbcea66cd	-0.028613472
134	0xbc9b563b	-0.018962016
135	0xbd88136e	-0.06644331
136	0x3caa170b	0.02076294
137	0xbe25b7f5	-0.16183455
138	0x3e12f5c0	0.14351559
139	0xbd34313e	-0.043992274
140	0x3b816bc9	0.0039496166
141	0xbe47cb8f	-0.19511245
142	0xbd3a8081	-0.045532707
143	0x3e5d0e68	0.21587527
144	0x3d0d863e	0.03455185
145	0x3beccb13	0.007226357
146	0xbd3a8719	-0.045538995
147	0x3dfb490a	0.122697905
148	0xbe2771ce	-0.16352007
149	0x3e16f76b	0.1474282
150	0x3dd1a938	0.10237354
151	0x3dfade3b	0.12249418
152	0x3d5bdd38	0.053677768
153	0xbe562dbb	-0.20915882
154	0xbd5c9a8a	-0.053858317
155	0xbcae3c42	-0.021268968
156	0x3cee99c2	0.029126052
157	0xbc995943	-0.018719321
158	0xbcd5dcc7	-0.026106251
159	0x3daa4383	0.08313658
160	0x3e467a21	0.19382526
161	0xbe3b8519	-0.18312491
162	0xbb98d0ce	-0.0046635633
163	0xbd294ea0	-0.04133475
164	0xbe328b10	-0.1743586
165	0x3db571b0	0.08859575
166	0x3d7ba59f	0.061437245
167	0x3da81c92	0.08208574
168	0xbea7cad5	-0.32771936
169	0x3d6282f7	0.05530068
170	0x3d75e530	0.060033023
171	0x3c8cec34	0.017202474
172	0x3d1be47f	0.038059708
173	0xbe0bcb41	-0.13651754
174	0x3d3e716a	0.04649488
175	0x3bb95587	0.0056559476
176	0xbd5f0b2e	-0.05445402
177	0x3dadc2db	0.08484431
178	0x3d2b7b51	0.04186565
179	0xbe1eec18	-0.1551975
180	0x3ddc545e	0.10758279
181	0x3d38ea3f	0.04514527
182	0x3dad0260	0.084477186
183	0xbd650a12	-0.055917807
184	0x3d31a716	0.043372236
185	0xbd1e1c1c	-0.038601026
186	0x3e3e9612	0.18611935
187	0xbdc84a13	-0.097797535
188	0x3cf18f10	0.029487163
189	0xbce29565	-0.027659127
190	0xbdbdfb1b	-0.0927641
191	0xbe3b603d	-0.1829843
192	0x3b006fd0	0.0019597895
193	0x3d733efc	0.05938624
194	0xbd922c86	-0.071373984
195	0xbd7dff0a	-0.062010802
196	0x3dae4494	0.08509174
197	0xbde91a1f	-0.11381935
198	0xbdd645e1	-0.10462547
199	0xbe24ca4d	-0.16092797
200	0xbe4d4290	-0.20044923
201	0x3d664fa8	0.05622831
202	0x3d67d103	0.056595813
203	0x3d6cf0f4	0.05784698
204	0xbeab40bf	-0.33447835
205	0x3de0a0ff	0.109682076
206	0xbe3b52ab	-0.18293254
207	0xbbe3c28a	-0.006950681
208	0xbcaeacde	-0.021322664
209	0x3e1c9d1c	0.15294307
210	0x3e1cf806	0.15328988
211	0xbd50738a	-0.050891437
212	0x3d57b39c	0.052661523
213	0xbcfd7828	-0.030941084
214	0xbd60ac2c	-0.054851696
215	0xbd3c918a	-0.046037234
216	0xbd61fc54	-0.05517228
217	0xbb403852	-0.0029330445
218	0xbcac9334	-0.021066286
219	0x3d1c266e	0.038122587
220	0xbe0e63d9	-0.13905276
221	0xbe57df57	-0.21081291
222	0xbe99bfe9	-0.30029228
223	0x3db5735c	0.08859894
224	0x3e10c25e	0.14136645
225	0x3dc13b5c	0.0943515
226	0xbdc04539	-0.09388203
227	0x3dc29e1a	0.09502812
228	0xbd34df79	-0.044158433
229	0xbe33fe0f	-0.17577384
230	0x3d270a71	0.040781442
231	0xbb21e88e	-0.0024705264
232	0x3d20e170	0.039277494
233	0x3e3ae4c9	0.18251337
234	0x3dad21c7	0.08453708
235	0x3bb03b96	0.005378197
236	0xbcdae9ca	-0.026722807
237	0xba2d65c9	-0.00066145934
238	0xbd6d99ce	-0.058008008
239	0x3e76dc1c	0.24107403
240	0x3d46b7e4	0.048515216
241	0x3d2a96d0	0.041647732
242	0xbdddf19f	-0.10837101
243	0xbd4d058c	-0.050054118
244	0xbcc17dcb	-0.023619553
245	0x3d66adb8	0.056318015
246	0xbceb44b7	-0.02871929
247	0x3d0fc779	0.03510234
248	0xb9ee6c2e	-0.00045475498
249	0xbc90226a	-0.017594535
250	0x3df2df8b	0.11859044
251	0x3db838de	0.089952216
252	0xbd998a1b	-0.07497045
253	0x3d693ff9	0.056945775
254	0xbd04b014	-0.032394484
255	0xbcbc6b78	-0.023000464

features.6.bias f4 [64]
0	0x3d1d8264	0.03845443
1	0xbd86cba7	-0.06581812
2	0xbc3715d3	-0.011174637
3	0x3bbdaa4a	0.0057881223
4	0xbc221181	-0.009891869
5	0xbd0cf532	-0.034413524
6	0x3bf457bc	0.007456748
7	0x3c5906c0	0.013246238
8	0x3c074ac2	0.00825757
9	0x3cd0be0c	0.025481246
10	0x3bef7946	0.007308158
11	0xba5777c5	-0.0008219446
12	0xbcf2f124	-0.029656
13	0x3c25f4b9	0.010129147
14	0xbb079fd0	-0.002069462
15	0xbcf338bb	-0.029690137
16	0x3c948f60	0.018134773
17	0xb9f50cf0	-0.0004673968
18	0x3d2aad25	0.04166903
19	0xbd123fca	-0.035705365
20	0xbd5fd656	-0.054647766
21	0x3cad7e97	0.021178527
22	0x3c959c5e	0.018263038
23	0xbc9f776c	-0.019466124
24	0x3c005614	0.007833023
25	0xbc97d245	-0.018532882
26	0x3c8610c9	0.016365426
27	0x3bb87d71	0.005630188
28	0xbd04d2b7	-0.032427516
29	0xbd3f25ec	-0.046667024
30	0x3d26c0d3	0.040711235
31	0xbc0102e6	-0.007874226
32	0xbc8dfa3d	-0.017331237
33	0x3cf0d031	0.029396148
34	0xbd2383f7	-0.039920773
35	0x3ce1e16d	0.027573312
36	0xbd2b07ad	-0.041755367
37	0xbcd34d8e	-0.025793817
38	0xbc989b8f	-0.018628864
39	0x3c2a26a1	0.010385186
40	0xbc661a9c	-0.01404443
41	0xbc6e5ca9	-0.014548459
42	0xbc3888e7	-0.011263109
43	0x3cb3ed92	0.021963868
44	0xb838fb8d	-4.4103293e-05
45	0xbd823d53	-0.06359353
46	0xbc460fe1	-0.012088747
47	0xbb977b50	-0.0046228543
48	0xbc226e62	-0.009914013
49	0xbbfd62bb	-0.007732717
50	0x3c19287a	0.009348029
51	0xbd42d263	-0.04756392
52	0xbd507178	-0.050889462
53	0xbd12dabb	-0.03585313
54	0xbba5cfc8	-0.00506017
55	0xbcb47be5	-0.022031734
56	0xbd23e971	-0.04001755
57	0xbb8cb712	-0.0042942846
58	0x3c67f5ea	0.014157752
59	0x3ca23936	0.01980267
60	0xbd35ddc2	-0.044400938
61	0xbb533b04	-0.003223122
62	0xbbb7c857	-0.005608599
63	0x3a528193	0.00080301723

features.8.weight f4 [128, 64, 3, 3]
0	0x3d936cef	0.07198512
1	0xbe0bfef7	-0.1367148
2	0xbe2a04d8	-0.1660341
3	0xbabdcb5d	-0.0014480163
4	0xbcd7960e	-0.026316669
5	0xbe2d14d2	-0.16902474
6	0xbd142b30	-0.036174
7	0xbdfdbf14	-0.12389961
8	0xbbb47827	-0.0055074873
9	0x3dac6b98	0.084189594
10	0xbdad2201	-0.08453751
11	0xbdf655d3	-0.120280884
12	0xbdd7673d	-0.10517738
13	0x3b82dc18	0.0039935224
14	0x3cb69bbe	0.02229106
15	0x3d899d04	0.067194015
16	0x3c10281a	0.008798623
17	0x3de90bc5	0.11379198
18	0x3c8d5c0b	0.017255804
19	0xbda750ef	-0.08169734
20	0xbd1466f2	-0.03623099
21	0xbd985b94	-0.07439342
22	0xbe68f777	-0.2275065
23	0x3d963adf	0.073354475
24	0x3b520234	0.003204477
25	0x3de5d54f	0.11222326
26	0x3d274040	0.040832758
27	0xbdcde4fb	-0.1005344
28	0x3cb97d9d	0.022642905
29	0x3d73cb2e	0.05951994
30	0x3ddd43f3	0.10803976
31	0xbdd68415	-0.104744114
32	0xbd5c6329	-0.053805504
33	0x3d1765ea	0.036962427
34	0xbd10d4fc	-0.035359368
35	0xbc610aea	-0.013735512
36	0x3de3cc82	0.11122991
37	0xbd1a755d	-0.037709583
38	0x3df7fc18	0.1210863
39	0xbdf6594a	-0.12028749
40	0xbd601886	-0.054710887
41	0x3e31b0e1	0.1735263
42	0xbceddfd3	-0.029037392
43	0x3db9479d	0.09046862
44	0xbbc31c1b	-0.005954278
45	0x3c550725	0.013002192
46	0xbc37d151	-0.0112193385
47	0x3d39dfda	0.045379497
48	0x3d8c79d5	0.06859175
49	0xbd363d81	-0.04449225
50	0x3dd09c41	0.10186053
51	0x3d4d8229	0.05017296
52	0x3c56efd5	0.013118704
53	0xbd07453c	-0.03302501
54	0xbd57316c	-0.052537367
55	0x3d1bb81a	0.03801737
56	0x3c658762	0.014009329
57	0x3d661016	0.056167684
58	0xbe0a8810	-0.13528466
59	0xbd10b4a7	-0.035328534
60	0x3d7d21ef	0.06179994
61	0xbce20d97	-0.02759437
62	0xbce9e8d8	-0.028553411
63	0x3dbdab1b	0.092611514
64	0xbe4f6021	-0.20251514
65	0xbc17c670	-0.00926362
66	0xbc85cace	-0.016332056
67	0x3e1c43b0	0.15260196
68	0xbcfac9f5	-0.030613879
69	0xbd0e99e0	-0.034814715
70	0x3d946a97	0.07246893
71	0xbd652274	-0.05594106
72	0x3d880f12	0.066434994
73	0xbd85b8df	-0.06529402
74	0xb9c37d90	-0.0003728685
75	0xbdd47df8	-0.10375589
76	0x3db2d40f	0.08731853
77	0xbd0a3499	-0.033741567
78	0xbe4b05b4	-0.19826394
79	0xbc1d4111	-0.009598033
80	0xbdf73075	-0.12069789
81	0x3cb3816c	0.0219123
82	0x3d70e67a	0.05881355
83	0xbd440e5d	-0.04786526
84	0x3ce0d428	0.027444914
85	0x3dae014e	0.084963426
86	0x3e065456	0.13118109
87	0xbb043edc	-0.0020179069
88	0x3bd5650b	0.0065122894
89	0xbe5f5136	-0.21808323
90	0xbdfa534f	-0.12222921
91	0xbe1d8ad6	-0.15384993
92	0x3e1ac115	0.15112717
93	0x3de8d8e2	0.11369492
94	0x3d549bbd	0.051906336
95	0xbd839eb1	-0.06426752
96	0xbdba1c6d	-0.09087453
97	0xbe177387	-0.14790164
98	0xbdcfd601	-0.1014824
99	0x3d8ea873	0.06965723
100	0xbcbdcdf0	-0.023169488
101	0x3d535a14	0.051599577
102	0x3de37f6d	0.11108289
103	0xbcb492c6	-0.022042643
104	0x3d38f54c	0.04515581
105	0x3c8ba8d7	0.017048283
106	0xbd814e09	-0.06313712
107	0xbdcbce61	-0.09951473
108	0xbc663aa5	-0.014052068
109	0x3cf89d6f	0.030348508
110	0x3e32b9ef	0.1745374
111	0xbdcd68f2	-0.10029782
112	0x3e31a129	0.17346634
113	0xbcd5d3f5	-0.026102046
114	0xbc88ec18	-0.01671414
115	0xbe01ee6e	-0.1268861
116	0x3d16273a	0.036658503
117	0xbdb255b1	-0.087077506
118	0xbdc53cbb	-0.09630724
119	0xbda99c0b	-0.08281716
120	0xbd77c363	-0.06048907
121	0x3cfc24fb	0.030779352
122	0xbdd9b196	-0.10629575
123	0x3e0975aa	0.13423792
124	0xbdabde29	-0.08391983
125	0x3c816085	0.015793094
126	0xbdb0bcd7	-0.08629768
127	0xbd980877	-0.074234895
128	0xbd0bf011	-0.034164492
129	0x3c841cb3	0.016126966
130	0xbe0df7c0	-0.1386404
131	0xbe16b8ac	-0.14718884
132	0x3d5bc290	0.053652346
133	0x3d80776e	0.062727794
134	0x3d90e206	0.070743605
135	0x3d3331a5	0.043748517
136	0xbd2221b7	-0.039582934
137	0xbe056921	-0.13028385
138	0xbce00717	-0.02734713
139	0x3deb4202	0.11487199
140	0x3e113a33	0.14182357
141	0x3d62165b	0.0551971
142	0x3ce1e53f	0.027575133
143	0x3d9eb3ae	0.07749115
144	0xbdde59de	-0.108569846
145	0xbdf11778	-0.117720544
146	0x3e0222b6	0.12708554
147	0xbd5e5f99	-0.054290388
148	0xbe3e9607	-0.18611918
149	0xbd6312c5	-0.055437822
150	0x3db1235a	0.08649321
151	0xbd24ed6c	-0.040265486
152	0x3e0c7a23	0.13718466
153	0xbe18e523	-0.14931159
154	0xbd00d396	-0.031451784
155	0x3d12e842	0.03586603
156	0xbd295a37	-0.0413458
157	0x3d4a997e	0.049462788
158	0xbe0c5149	-0.13702883
159	0xbbf092d0	-0.00734172
160	0xbcf26b84	-0.029592283
161	0xbdd686d6	-0.10474937
162	0xbe13c8e0	-0.14432096
163	0x3d6fc608	0.058538467
164	0x3dd66abd	0.104695775
165	0x3bf0cc23	0.0073485537
166	0x3d67d7d5	0.056602318
167	0xbe490071	-0.19629075
168	0xb9c107f6	-0.0003681776
169	0x3d2665a8	0.04062429
170	0xbdaeb2bc	-0.085301846
171	0xbca652c1	-0.020303132
172	0xbe1fc03f	-0.1560068
173	0x3d8f62f5	0.070012964
174	0x3ddf6aab	0.10909017
175	0xbd99265e	-0.07478021
176	0x3c499c89	0.012305387
177	0x3d645440	0.05574441
178	0x3bcb1027	0.006196994
179	0xbdb22d22	-0.08700015
180	0xbdc5dae0	-0.09660888
181	0xbb24a4e0	-0.0025122687
182	0xbd84c005	-0.06481937
183	0x3d18a1ad	0.03726356
184	0xbde28025	-0.11059598
185	0x3d271340	0.040789843
186	0xbd1d1a39	-0.038355086
187	0x3b921266	0.0044577597
188	0x3dc3ae2c	0.09554705
189	0x3d88dad1	0.06682361
190	0xbc83f4b1	-0.016107889
191	0x3d265b02	0.040614136
192	0xbbb8d2c1	-0.005640358
193	0x3cdf6c53	0.027273333
194	0xbcc5b18b	-0.02413251
195	0xbe587616	-0.21138796
196	0x3e03e6e3	0.12881045
197	0xbcd9f517	-0.026606126
198	0xbdef424b	-0.11682566
199	0x3d8dfb54	0.06932703
200	0x3df9498a	0.121722296
201	0xbbceaef1	-0.0063074757
202	0xbdbe6731	-0.09297026
203	0xbb892c39	-0.00418618
204	0xbd2161c6	-0.039399885
205	0x3da71b3d	0.08159492
206	0x3d4e3a12	0.05034835
207	0xbd911c98	-0.07085532
208	0xbd1965f9	-0.037450764
209	0x3d12042f	0.03564852
210	0x3d61ea00	0.0551548
211	0xbd96165c	-0.073284835
212	0xbcb04b56	-0.021520298
213	0xbc1c6c55	-0.009547313
214	0x3dded861	0.10881115
215	0x3da8ebf5	0.0824813
216	0xbcfe13a7	-0.03101523
217	0xbda071c6	-0.078342006
218	0x3dd6a06e	0.10479818
219	0xbd5f13af	-0.05446213
220	0x3dcb3359	0.09921903
221	0x3def51da	0.11685534
222	0x3d38d77e	0.045127384
223	0x3e74afd7	0.23895203
224	0xbe905694	-0.28191054
225	0x3df11fa3	0.11773612
226	0xbdffc8e1	-0.124894865
227	0xbd104cc1	-0.03522945
228	0xbce747f6	-0.028232556
229	0xbd90096e	-0.070330486
230	0x3e218cbd	0.15776344
231	0x3e03de4d	0.1287777
232	0x3da0cfb2	0.07852115
233	0xbcfa55a9	-0.030558424
234	0x3cd2a548	0.025713578
235	0xbce190b8	-0.027534828
236	0xbd0315b9	-0.03200314
237	0xbe3bfa87	-0.18357287
238	0xbd57aed7	-0.052656975
239	0x3db37fee	0.08764635
240	0x3e04e7cd	0.1297905
241	0xbcb494d8	-0.02204363
242	0x3d95823f	0.07300233
243	0xbe3cd8a4	-0.18442017
244	0xbd31a513	-0.043370318
245	0x3d75e105	0.06002905
246	0x3cf019b1	0.029309126
247	0x3dc6d77f	0.09709071
248	0xbbb40ed6	-0.0054949326
249	0x3da98a7a	0.082783654
250	0xbc5b8299	-0.013397836
251	0xbdaf5a3c	-0.08562133
252	0x3ce2623b	0.02763473
253	0x3e176417	0.14784275
254	0x3e2850df	0.164371
255	0xbd5d1f14	-0.053984717

features.8.bias f4 [128]
0	0x3b2cee55	0.0026387174
1	0xbba778f5	-0.0051108547
2	0xbbf7c5dc	-0.0075614285
3	0xbc3373bb	-0.010952885
4	0xbcb26f04	-0.021781452
5	0x3cd42da6	0.025900673
6	0xbcaaa9ec	-0.020832978
7	0x3b686ce9	0.0035465306
8	0xbc2ab24f	-0.010418489
9	0x3ca17520	0.01970917
10	0x3bd61206	0.0065329103
11	0xbd6824b4	-0.056675628
12	0x3d2d401d	0.04229747
13	0xbd5976d0	-0.053091824
14	0xbc1bda7f	-0.009512543
15	0x3b25ef94	0.0025319802
16	0xbc1abacf	-0.009443953
17	0x3b122845	0.0022301835
18	0x3c067d16	0.008208534
19	0x3d8c42c9	0.06848676
20	0x3a634e17	0.0008670999
21	0xbc97bd24	-0.018522806
22	0x3d341d28	0.043973118
23	0xbc763fc3	-0.01502985
24	0xbcb5fc0c	-0.022214912
25	0xbc976f2d	-0.01848563
26	0x3cc75088	0.024330392
27	0xbd0a3c45	-0.033748884
28	0x3c195a9a	0.00935998
29	0xbd1473db	-0.0362433
30	0x3abbcc91	0.0014327933
31	0xbd1b7ec7	-0.0379627
32	0xbd366275	-0.04452749
33	0x3ca779b6	0.020443778
34	0x3ca08e27	0.019599034
35	0x3c9bd462	0.01902217
36	0x3d5c0114	0.053711966
37	0xbd0d28c2	-0.034462698
38	0xbcf7eb47	-0.030263556
39	0xbd6afcb5	-0.057369906
40	0xbcbb9dc2	-0.022902373
41	0xbcf63bbe	-0.030057784
42	0x3d61f320	0.055163503
43	0xbd49f88c	-0.0493093
44	0xbc858c0f	-0.016302137
45	0xbc148467	-0.00906477
46	0xbcaaed2a	-0.020865042
47	0x3cdfa96f	0.027302472
48	0xbd07827a	-0.033083417
49	0x3a92c564	0.0011197743
50	0xbdaaea60	-0.08345485
51	0xbcd390fb	-0.025825968
52	0xbcd9f798	-0.02660732
53	0xbd55bbea	-0.052181162
54	0xbc86eb48	-0.016469613
55	0xbca47a52	-0.020077858
56	0xbd11a3c3	-0.035556566
57	0xbc152605	-0.009103303
58	0xbb5edff3	-0.0034007996
59	0x3a278dd2	0.00063916773
60	0xbc8e3293	-0.0173581
61	0xbd4e98de	-0.050438754
62	0xbcaecd68	-0.02133818
63	0xbba4d2e6	-0.005030024
64	0xbbb8ac94	-0.0056358073
65	0xb90b01a3	-0.00013256683
66	0x3cb183c5	0.021669278
67	0xbbfab1e2	-0.0076506
68	0x3b736a51	0.0037142227
69	0x3cc5ac5d	0.02413004
70	0xbb1b2ae6	-0.0023676693
71	0x3cc4c50d	0.024019742
72	0xbd6452c3	-0.05574299
73	0x3b47f363	0.003051006
74	0xbd403897	-0.04692897
75	0xbba36118	-0.0049859397
76	0xbbb1e7df	-0.0054292525
77	0xbca0bd05	-0.019621382
78	0xb91e967a	-0.00015124111
79	0xbb0ec0e9	-0.0021782464
80	0x3a647fba	0.00087165425
81	0xbcccd23b	-0.02500259
82	0x3aa574de	0.001262333
83	0xbc6aa8cb	-0.01432247
84	0xbd0ef642	-0.03490282
85	0xbcd9a9e4	-0.026570268
86	0xbd28e840	-0.041237116
87	0xbd279935	-0.040917594
88	0x3cb1ba73	0.021695351
89	0xbb450a95	-0.0030066122
90	0xbd8396c7	-0.06425243
91	0xbcc889c3	-0.024479752
92	0xbd439498	-0.047749132
93	0xbc66e4b5	-0.014092614
94	0xbd12503a	-0.03572104
95	0x3bb812ee	0.005617491
96	0xbd29c602	-0.0414486
97	0xbc31b52f	-0.01084642
98	0x3c5475ab	0.012967507
99	0xbc7b4089	-0.015335211
100	0xbcc47dbc	-0.023985736
101	0x3cdc4323	0.026887482
102	0xbcd4be0a	-0.025969524
103	0x3c82b83b	0.015956989
104	0xbc7c5762	-0.015401693
105	0x3d758d11	0.059948985
106	0x3ce76c0b	0.028249761
107	0xbc87b654	-0.016566433
108	0x3c370abd	0.011171994
109	0xbd3a7944	-0.045525804
110	0x3ca9a284	0.020707376
111	0xbc83dba1	-0.016095938
112	0xbd674b05	-0.05646803
113	0x3c7802d2	0.015137391
114	0xbca5826c	-0.020203792
115	0xbc2595b6	-0.010106495
116	0xbcce144e	-0.025156166
117	0xbcc8b7e0	-0.024501741
118	0xbd1f6e19	-0.038923357
119	0x3b78e489	0.0037978014
120	0x3c4d85f5	0.012544145
121	0xba9a0698	-0.0011751233
122	0x3c7ec2f6	0.015549412
123	0xbc1d3690	-0.009595528
124	0xbd63e27a	-0.055635907
125	0x3d14ec37	0.036358085
126	0xbd273103	-0.040818226
127	0xbd3b77dd	-0.045768607

head.0.weight f4 [256, 256]
0	0x3d43cba4	0.04780163
1	0xbe5b26da	-0.2140154
2	0xbe1c663e	-0.15273377
3	0xbd6f544d	-0.058430005
4	0xbddf8558	-0.10914105
5	0x3d840688	0.06446558
6	0x3d24fd70	0.04028076
7	0xbd6c67ca	-0.05771617
8	0x3da8bfbc	0.082396954
9	0xbce24da8	-0.02762492
10	0xbcb27a2c	-0.021786772
11	0xbc972507	-0.018450273
12	0x3d5dd84a	0.054161347
13	0x3cca4475	0.024690846
14	0x3ba62035	0.0050697573
15	0xbd4b3548	-0.04961136
16	0xbe142636	-0.14467701
17	0x3e5a5cf6	0.21324524
18	0x3ca9ddb9	0.020735608
19	0x3e381f1e	0.1798062
20	0xbcf6eda2	-0.030142609
21	0x3c93ef5e	0.018058475
22	0x3d21e527	0.039525177
23	0x3e1d8c2a	0.153855
24	0xbdb72e3b	-0.08944365
25	0x3bda5d78	0.0066639744
26	0xbdf53fa2	-0.119750276
27	0xbe11d570	-0.14241576
28	0x3dda5ee3	0.106626295
29	0x3dcfd1ee	0.10147463
30	0xbe834806	-0.25640887
31	0x3e083a5f	0.13303517
32	0xbe3e8f59	-0.1860937
33	0x3dea42ab	0.11438497
34	0x3d7044f5	0.058659513
35	0xbdd2076e	-0.10255323
36	0x3c6a4b11	0.014300124
37	0xbd76527f	-0.06013727
38	0x3d28d7d2	0.041221447
39	0x3d943a53	0.07237687
40	0x3e1e5963	0.15463786
41	0xbcaaeff9	-0.020866381
42	0xbd98a18b	-0.07452687
43	0x3dbddb67	0.09270363
44	0xbda0cd4e	-0.07851659
45	0xbe4b312d	-0.19842978
46	0x3d1255ab	0.03572623
47	0x3d2324a2	0.039829858
48	0x3d1a205c	0.037628517
49	0xbcbab3a0	-0.02279073
50	0x3da1604f	0.078796975
51	0x3d47d9fd	0.048791874
52	0xbd33152b	-0.04372136
53	0xbd023d35	-0.031796653
54	0xbc430b72	-0.011904584
55	0x3ce25522	0.027628485
56	0x3e1b8f9d	0.15191503
57	0xbd3672d1	-0.04454309
58	0x3d1a7f28	0.037718922
59	0x3c57d983	0.013174417
60	0x3d195927	0.037438538
61	0x3bf01716	0.007326971
62	0x3c18248e	0.009286059
63	0xbc2e4348	-0.010636158
64	0xbdaf65ea	-0.085643604
65	0xbcac8631	-0.021060081
66	0xbe3b7d96	-0.18309626
67	0x3d8b5c4b	0.06804713
68	0x3da8fbe0	0.08251166
69	0xbdece7d0	-0.11567652
70	0x3d89b011	0.06723035
71	0x3cfab607	0.030604376
72	0xbc9787ff	-0.018497465
73	0xbd84c18e	-0.0648223
74	0x3c05edc2	0.008174362
75	0x3d074a72	0.03302998
76	0x3d844bd6	0.06459777
77	0x3d2a602e	0.04159563
78	0xbd5a2987	-0.05326226
79	0xbe1c4c56	-0.15263495
80	0xbcceccd2	-0.02524415
81	0xbdc8c774	-0.09803668
82	0xbe2c01dd	-0.16797586
83	0x3c981286	0.01856352
84	0xbca1c108	-0.019745365
85	0x3c39233d	0.011299905
86	0x3cad012a	0.02111872
87	0x3df253b1	0.11832369
88	0x3e3111f6	0.17292008
89	0x3db5c1e6	0.08874874
90	0x3da80206	0.08203511
91	0x3c84d164	0.016213126
92	0xbe5f907e	-0.21832463
93	0xbe22a453	-0.15882997
94	0xbd546ed4	-0.051863506
95	0xbe0581e8	-0.13037837
96	0xbe2a80d2	-0.16650704
97	0x3db0c405	0.08631138
98	0xbd986a13	-0.07442107
99	0x3e6bbd05	0.23021324
100	0x3da285ac	0.07935652
101	0x3e067fd8	0.13134706
102	0xbe1af94b	-0.1513416
103	0x3d2bc812	0.04193885
104	0xbe69b2a1	-0.22822048
105	0x3d966479	0.073433824
106	0x3df42fe6	0.119231984
107	0xbe14a28e	-0.14515135
108	0x3c8cd951	0.017193468
109	0xbe3be590	-0.1834929
110	0x3d90d984	0.07072738
111	0x3d254835	0.040352065
112	0x3e27e7d8	0.16397035
113	0xbd633c65	-0.05547752
114	0xbd4be8d9	-0.049782608
115	0xbdbb7f4e	-0.09155141
116	0x3de21af2	0.11040296
117	0x3e2636be	0.1623182
118	0x3dcd3274	0.10019389
119	0x3d146674	0.03623052
120	0x3d6c7712	0.05773074
121	0x3e1207ce	0.1426079
122	0xbc77af9c	-0.015117552
123	0x3dd24d8c	0.10268697
124	0x3d5a813a	0.053345896
125	0x3c91014e	0.017700817
126	0x3dd58846	0.10426383
127	0xbd915c73	-0.070977114
128	0x3b5913bd	0.0033123337
129	0xbbb3633f	-0.0054744775
130	0xbc58ca69	-0.013231852
131	0xbd54de70	-0.051969945
132	0xbcc1e8c7	-0.023670567
133	0x3e12f902	0.14352801
134	0xbe89acfd	-0.26889792
135	0x3d02d069	0.031937037
136	0xbdb2f2a1	-0.08737684
137	0xbd176a15	-0.036966402
138	0xbdee8ced	-0.11647973
139	0x3e391172	0.18073061
140	0x3dc65171	0.096835025
141	0x3e0180b3	0.12646751
142	0xbd8cd3c7	-0.06876331
143	0xbdbc76a4	-0.092023164
144	0x3e13c39e	0.14430091
145	0x3d91437d	0.070929505
146	0x3dd6fa26	0.10496931
147	0x3e25041c	0.16114849
148	0x3e27e079	0.16394223
149	0xbdcbb054	-0.09945741
150	0xba88929a	-0.0010419667
151	0xbbe45bb2	-0.0069689387
152	0xbca5cfd8	-0.02024071
153	0x3d6eb605	0.058279056
154	0xbd39048f	-0.045170363
155	0x3e3dd7ab	0.18539302
156	0xbd9a74e6	-0.07541828
157	0xbc2d1566	-0.010564184
158	0xbd52e87b	-0.051491242
159	0x3ce231e2	0.027611677
160	0xbe0140da	-0.12622395
161	0xbcde2c2b	-0.02712067
162	0x3e1b5a59	0.15171184
163	0xbe5145fb	-0.20436852
164	0xbdb8a60a	-0.090160444
165	0x3c618ab1	0.013765977
166	0xbe87b0ef	-0.26502177
167	0xbdba9dd8	-0.091121376
168	0x3df33c66	0.118767545
169	0xbde48d93	-0.11159816
170	0xbe1cafb4	-0.153014
171	0x3e0859d8	0.13315523
172	0xbd06a601	-0.032873157
173	0xbe58d71f	-0.21175812
174	0xbdf58a35	-0.119892515
175	0xbc4c8147	-0.012481994
176	0xbe2c2a06	-0.16812906
177	0xbd41c071	-0.047302667
178	0x3ca7483c	0.020420186
179	0x3ea3ab0a	0.3196643
180	0x3e8448b0	0.25836706
181	0xbc9f41b8	-0.019440517
182	0xbe93983e	-0.2882709
183	0xbe93a65d	-0.28837863
184	0xbdadc354	-0.084845215
185	0xbe554e02	-0.20830539
186	0xbd8b2568	-0.06794244
187	0x3cf6ce57	0.030127687
188	0x3d980033	0.07421913
189	0xbdbe64d1	-0.09296573
190	0x3dd62003	0.104553245
191	0xbe7e5e8b	-0.24840753
192	0x3added2e	0.0016931647
193	0x3c97c500	0.018526554
194	0xbc9f1777	-0.019420369
195	0xbe04d92e	-0.12973472
196	0xbddcdafb	-0.10783955
197	0xbc67f0a1	-0.0141564915
198	0xbd1d1823	-0.038353097
199	0x3d2e2cc1	0.04252315
200	0x3d428a08	0.047494918
201	0x3d513d7a	0.05108402
202	0x3cdb4b86	0.02676941
203	0xbe015269	-0.12629093
204	0xbd7d8346	-0.06189277
205	0x3d82477e	0.06361292
206	0xbd15368a	-0.036428966
207	0xbe0d3101	-0.13788225
208	0xbe39d274	-0.18146688
209	0x3abeab17	0.0014546838
210	0x3e7b9349	0.24567904
211	0x3e089dca	0.13341442
212	0xbd90b503	-0.07065775
213	0xbc04c99c	-0.008104708
214	0x3dc241e1	0.09485222
215	0xbd4471a4	-0.04795994
216	0x3dfea7e2	0.12434365
217	0x3e4b3770	0.19845366
218	0xbcefc477	-0.029268486
219	0x3c1756cd	0.0092370035
220	0xbe3b471d	-0.18288846
221	0x3d35122a	0.044206776
222	0x3d897570	0.067118526
223	0x3d146b81	0.036235336
224	0x3d6ae21a	0.057344534
225	0x3bff8922	0.00779833
226	0x3e2b4275	0.1672457
227	0xbd6c206b	-0.057648104
228	0x3cf2df79	0.029647576
229	0x3d3b01f2	0.045656152
230	0xbe2a396f	-0.16623472
231	0xbce70dfc	-0.02820491
232	0xbe595a81	-0.21225931
233	0x3d4e0aec	0.050303385
234	0x3de6cc93	0.11269488
235	0x3de6d3fb	0.11270901
236	0x3d149c29	0.03628174
237	0x3d81ed1a	0.06344052
238	0xbc80dac3	-0.015729314
239	0xbd3b6c15	-0.045757372
240	0x3df2faed	0.118642665
241	0xbda4ea51	-0.08052505
242	0x3dc0b7ac	0.09410033
243	0xbdcefa57	-0.10106342
244	0xbc785366	-0.0151566025
245	0x3de0cf38	0.10977024
246	0xbd3eca85	-0.046579856
247	0x3dc46dc8	0.095912516
248	0xbc059e27	-0.008155382
249	0x3d33f09e	0.043930642
250	0xbc8dbe1f	-0.01730257
251	0x3dbb93a6	0.09159021
252	0x3d243bd0	0.040096104
253	0xbe04df22	-0.12975743
254	0xbd85550c	-0.06510362
255	0x3d0d83af	0.03454941
