691/Group project/suspicious_grpo/record_150eps/ppo_atari_translated_critic.pth (torch, 672276 bytes, 13 tensors)

features.0.weight f4 [8, 3, 8, 8]
00000000: bb62 5fbd 7743 a3bc 31d2 41bc 44aa 9abb
00000010: 0557 35bc fcbb 52bc 1545 a8bc b950 973d
00000020: 1f94 423d 0a81 193e 1f92 e93d d4d8 873d
00000030: c9e4 253e 7c75 0f3e c6a7 8a3d 9632 a83d
00000040: 2626 1bbe 0aff 45be edf4 ef3c 0847 653d
00000050: 6c5f 473e 00f5 a63d 87ef 16bd f56d 193e
00000060: f31c 88bd de62 4abe 2613 443d ea5e 91bd
00000070: f989 36be 67d7 fe3d 2edd e8bc 0b64 c3bd
00000080: 7597 c93d 6d9a 603e e2c4 cf3d 2ba4 a43e
00000090: 0694 493e 108e 643e 0ea1 4d3e 1cb7 333e
000000a0: c2a6 d7bd 607b 2abe 2d14 ab3d b800 a5bd
000000b0: 549c d23d c201 da3d 7403 803d 2329 c23d
000000c0: a10c 293e 3536 98bd c132 83bd 6121 08bc
000000d0: c4a0 b0bd 0656 eebb dcd3 cf3c 511d c5bc
000000e0: ca72 903c dffd 79bd b10e 293e 7bd3 23be
000000f0: a4e2 9e3c 3563 ccbd d74f 753c b19e 30bd
00000100: c334 10bd c784 423d dfb0 c1bd ba2e 3b3e
00000110: f863 a6bd e4bf 95bd 5c0f 163e cba1 13be
00000120: 0e69 c53d 0437 c3bd 0799 183e 65b6 fabd
00000130: 3b2e f8bd a863 57bd 0259 dfbe 331b a5bd
00000140: dec0 c8bd 922d 183d 5478 7cbe 9249 3c3d
00000150: b776 dfbd 70bd 38be ee07 b83d a37c 32be
00000160: fcb4 06bc 58ed 8ebd 6339 87bc fe0e 05be
00000170: 842a 7fbe a54b 19be a738 6fbe d511 f9be
00000180: ee5d 4d3e ac7e 2c3e 787f c03c cd2d 4d3e
00000190: 2935 09be 1949 a8bd f2f6 903d b4be bf3d
000001a0: a9af 9fbd a47a c53d 471e 883d 49fc 52bd
000001b0: 9e94 963e c4cb 383e 2642 1fbe 9a0e d93d
000001c0: 0045 3b3e cca7 f2bb 0312 d1bc 2700 d63d
000001d0: 282b efbd 8b6b 2f3d b790 103e a1d8 133e
000001e0: eeb3 18be b3a3 ebbd 224e 3dbe bfab bbbd
000001f0: 011e 99be 599e 15be f26a 1fbe 6656 35be
00000200: dde0 523d 82ed c83c 70d9 34be d852 ddbd
00000210: 4ec2 3cbe e097 4ebd 5207 ea3d 40ea 70be
00000220: 34ff 0c3c 11d6 11be f594 483e 8cc4 b6bc
00000230: 9ae3 393e f48a d43c 7be0 2cbd 8ac8 5a3e
00000240: a717 cabc 18b0 7d3d 179c fcbc 093a 6a3c
00000250: e87c 7d3d 0f7e cfbd c2fe 6cbc fe2f d0bd
00000260: 4c75 89bd a1ca 20bd ee42 62bb 524d 893d
00000270: 043d 42be b23b f0bd c176 f13c a4bd 1dbe
00000280: 7563 05be f6a5 1b3e 9af8 18bd 7cf7 f0bd
00000290: 5187 2dbe 2bf4 33be 27b6 91bd e078 c0bd
000002a0: 0abf 83be f564 90bd 68be a2bd cc11 d23c
000002b0: 22ac f13c c8c1 3dbe c17f 03bd b395 28bd
000002c0: 505b 0038 c34f 1e3e db49 3cbe 29e3 1bbd
000002d0: 1401 55be c6b5 ddbd a88f c43d 4f14 bb3d
000002e0: afe8 de3c 7eb6 9e3d 0f1f 493d 6827 30be
000002f0: e896 93bd 965a 89bd 5fed 1e3d 21fe 5b3e
00000300: 17ca 993c b316 5b3e 14f0 2d3e 4dd7 0e3e
00000310: 2f4b eebd 2d95 1cbe deeb 7bbe ab3e c93e
00000320: d117 d93d d0b2 ddbb f6b0 e1bd 991f e6bc
00000330: 1846 9ebc bcf5 28bd 6f3a f13d 0ea2 d7bd
00000340: 404a 063d 92e3 713d 3347 2e3c 215f e33d
00000350: c7c6 74bd c592 9ebd 5211 74bd 5228 dbbe
00000360: 96fe b6bc 6b95 a5bd 5a03 e4bd 48cb 78be
00000370: cde4 91be 86aa e1be a50f 08be 32f3 90be
00000380: 74f4 e43d 93aa d53d c31c 473e 1a58 4b3e
00000390: 0e17 273e c251 9fbd 90fa 88be a606 de3b
000003a0: fdc5 06be 69d3 3f3d 4835 08bb 1024 9bbe
000003b0: 6481 0a3d 6035 0c3e c344 fc3d ef39 9b3d
000003c0: a593 7f3d 80b8 0c3e 7144 3a3e f7aa 16be
000003d0: a21e 703d b388 b23d d4ca fdbd 9fd8 f7bd
000003e0: 9a8a 063d 6fd5 37be 4bda 1abd ec96 23bd
000003f0: 2a39 073d c6a0 9abd a4ce 4e3d 874f bbbd
-0.054537516 -0.01992963 -0.011829899 -0.0047200043 -0.01106811 -0.012862202 -0.020540753 0.073884435
0.04750454 0.14990631 0.114048235 0.066331536 0.16200556 0.1400966 0.067702815 0.082127735
-0.15151271 -0.19335571 0.029291594 0.055975944 0.19469994 0.08152199 -0.036849525 0.14983352
-0.066461466 -0.19764277 0.047869824 -0.070981815 -0.1782607 0.124434285 -0.02842578 -0.09540566
0.09843341 0.21933909 0.10144974 0.321565 0.19685373 0.22319818 0.20080969 0.1755032
-0.105298534 -0.16648626 0.083534576 -0.08056778 0.102837235 0.106448665 0.06250659 0.094805025
0.16508724 -0.07432214 -0.06406165 -0.008308739 -0.086244136 -0.0072734384 0.025369577 -0.02406183
0.01763286 -0.061033126 0.1650951 -0.15998642 0.01939518 -0.0997986 0.014972649 -0.04312009
-0.035206567 0.047489908 -0.094575636 0.18279544 -0.08124536 -0.07311991 0.14654297 -0.14417188
0.09639178 -0.09531978 0.14902125 -0.1224182 -0.12118193 -0.052585274 -0.43622595 -0.080618285
-0.098024115 0.037152834 -0.24655277 0.0459686 -0.10911315 -0.18041015 0.089858875 -0.17430358
-0.008221861 -0.069788635 -0.016506856 -0.12994 -0.24918562 -0.14970262 -0.23361455 -0.48646417
0.20055363 0.16845196 0.023498282 0.20037003 -0.13399185 -0.08217067 0.07078351 0.093625456
-0.077971764 0.096425325 0.066464 -0.05151013 0.2941026 0.1804648 -0.15552577 0.10598488
0.1828804 -0.007405257 -0.025521284 0.10449248 -0.11678153 0.04282717 0.14117704 0.14438106
-0.14912388 -0.115058325 -0.18486837 -0.09163617 -0.29905704 -0.14611186 -0.1556814 -0.1770874
0.051483978 0.024527315 -0.17661071 -0.10806817 -0.18433496 -0.050437808 0.114271775 -0.2352686
0.008605767 -0.14241816 0.19588073 -0.022310518 0.1815323 0.025945164 -0.04220627 0.21365562
-0.024669481 0.061935514 -0.030836148 0.014296063 0.061886698 -0.10131466 -0.014465036 -0.10165404
-0.06711826 -0.039255742 -0.0034524756 0.06704201 -0.18968588 -0.11730136 0.029475572 -0.15404373
-0.13026221 0.15200028 -0.03734646 -0.11765954 -0.1694615 -0.17573611 -0.07114821 -0.09398055
-0.2573169 -0.07050506 -0.07946473 0.025643252 0.029501025 -0.18530953 -0.032104257 -0.04115839
3.060262e-05 0.15460114 -0.18387549 -0.038058434 -0.20801193 -0.10825686 0.09597713 0.09134733
0.027210562 0.07749651 0.049101885 -0.17202532 -0.072065175 -0.06706731 0.038800593 0.21483661
0.018773122 0.21395378 0.16986114 0.13949318 -0.11635434 -0.15291281 -0.24601695 0.39305624
0.10600246 -0.006765701 -0.11020081 -0.028091239 -0.019320533 -0.041249976 0.117787234 -0.10528956
0.032785654 0.05905492 0.010637092 0.11102129 -0.05975988 -0.07742838 -0.05958683 -0.428042
-0.022338193 -0.0808514 -0.11133452 -0.24296296 -0.28494874 -0.44075412 -0.13287218 -0.28310543
0.11179438 0.10432925 0.19444565 0.19857827 0.16317388 -0.07779266 -0.26753664 0.006775695
-0.13161464 0.046832476 -0.0020783711 -0.3030095 0.033814803 0.13692236 0.12317803 0.07579409
0.062396664 0.13742256 0.18190171 -0.14713655 0.058622964 0.087174796 -0.12392202 -0.12101864
0.032847025 -0.17952512 -0.037805837 -0.039938852 0.0330135 -0.07550196 0.050490037 -0.09146028

features.0.bias f4 [8]
00000000: b20f 42bd 3956 a1bd 2ae2 a3bb 0afd f0bc
00000010: 3dbb f6bb 63a4 cabd 0e29 b6bd 8ca0 12ba
-0.04737825 -0.07877774 -0.005001326 -0.029417533 -0.0075296448 -0.098946355 -0.08894549 -0.00055933814

features.2.weight f4 [16, 8, 4, 4]
00000000: f5e4 83bd 4005 873e 33eb 973e 4668 e83d
00000010: 1bae 58be a41a 823c 716f 013a 8dd0 373e
00000020: 394e a93b 13a6 673d 98d0 773d d0fa 503e
00000030: 28cd cb3d 8836 243e 21c9 db3d 4436 c03d
00000040: 37e1 ecbc 1a2b 513e ef57 053e f0b5 3f3e
00000050: 78f6 d2bd be5c 1b3d ae36 09be 984d 8dbe
00000060: a19b 41bd 765d b03d 709c aebd 239d 1fbe
00000070: 6b48 443e 402e 863d a958 413e de18 d53d
00000080: 2149 7d3e 6a7c 5f3e 0597 e83d 1498 0abe
00000090: 310e 61bc 31e4 63bd e496 6e3d 20bf c63d
000000a0: fbd6 ba3d 0608 13be a5de acbe a7f2 0abd
000000b0: 6a0a d73c 2fd9 993e 4e5b d83d 7b5b ec3d
000000c0: dd91 10be b429 05bd 7f24 9cbd a06f e1bd
000000d0: 60bc 963c 7e4e a1be 3e96 48be 3ca9 07be
000000e0: c635 313e 4806 64bd bb16 1a3e 9547 d93c
000000f0: 775c 60bd bf09 1ebd f6a0 39bd 49ae 68be
00000100: f2c4 23bd 7f31 363e 2437 b63d 0cd7 dc3d
00000110: 210a 41be ac21 183e a042 843c 6887 053d
00000120: ccc5 c8bd cc27 41bd 8438 9cbc 237a 313d
00000130: 593a b83d 6db3 2b3e 2f8e 943e 9a83 b33d
00000140: 027d 8a3e fa86 b43e 2f20 cb3e 824c afbb
00000150: 72f1 b2be 030f c0be ca62 50be 2af6 e3bd
00000160: a9a3 3cbd deef 833d 196f 44be bddd 163d
00000170: 27e1 d43d 2b8b 203e 9668 263e 30c6 213e
00000180: fa8f 88bd 5c2a be3e c638 aa3e 52be 6b3e
00000190: 15ee 1bbe c7f1 d7bc f99c 0f3e aa5a 173d
000001a0: 3b4b 21be 9de8 8cbd 2577 04be f971 833d
000001b0: 46c9 b3bd ceb8 ec3d ed04 093d 0d65 7f3d
000001c0: d52a 753d 1822 66bd 5892 35bb e723 41be
000001d0: 0adc 6ebd f4ac 3b3c 1b57 80be 7d0d fcba
000001e0: f563 06bd 8522 09be 6811 32bd c1c2 86be
000001f0: af28 0f3e 6e58 383e cece 1ebe 0e71 c53d
00000200: 4a4c e03d f3cb 803d 3d25 0bbd 3c82 babd
00000210: e6c3 393d 2c03 86bd a7ff 12bd 0b2c 6f3e
00000220: 1a85 eabd 695e cd3d 11c2 5b3d b535 333d
00000230: efce 51bd dd62 a03d 6a62 0b3e 3c31 843e
00000240: 633f 233e 88d3 d93d 9a66 c6bd 4930 003e
00000250: e500 073e 6080 983d 3758 ab3d cb14 7c3d
00000260: 0778 403d aa72 c73d 029d 253d 664f 643e
00000270: b812 fdbd 0aa3 223e 3238 4a3e fa73 4a3e
00000280: e69b 05bd 7ba8 36bd 312f fd3c cc0a 453d
00000290: 3f3a 7dba 90c0 61bd 6b8a 513c aef7 9f3a
000002a0: 4820 203e 4ee7 8c3d 82fd aebd ef7a 3a3d
000002b0: cc81 10bd 8747 e8bd 9647 77bc d85d 723e
000002c0: a6f4 c03d 45b6 cfbd 0ed6 bc3d 4780 cabd
000002d0: 75e8 a5be 0feb 5dbe 4538 bb3d cc6a 00bd
000002e0: eb29 de3d ce39 eabe 4000 5abd 93c7 5bbb
000002f0: ab70 b6bd af3f f1be e7a1 9cbe 312a b4bc
00000300: 480d 9cbc 88d0 eabc 2d79 d9bd 7cd6 51bd
00000310: 6a2a 093e 937b 203e 1c12 2a3e 5e30 eabd
00000320: ec34 083e 1b37 97bd 9798 8cbd fba0 113d
00000330: b00a 15be 3d9c 233d da10 a53a 7a19 0c3e
00000340: fcb3 e8bc 6c89 823d f5fe 09be bfa0 10bc
00000350: 3af1 d1bc 5669 173e e569 4abe 7a72 44bd
00000360: 2161 2ebe d0bb 23be 719d 853d 1db9 9a3c
00000370: d51d 30be 6daf 82bc fe2d 83bc 0e2d e63d
00000380: 35c0 f4bd 5fd0 7a3c 2b2f b03c f549 28be
00000390: c346 8c3e 57de 02bc ee5d 143d 0461 de3d
000003a0: 3b8e 893c 30a8 a0be 71fe 32be 3054 46bd
000003b0: 5e58 593c e253 fdbd 73bd 6b3e 7019 983e
000003c0: f7fd ca3d 6e5b 84be b646 78bc ebd3 b93d
000003d0: 1014 0cbd 2471 0abd eb6d f33c a781 883d
000003e0: 0e2c 1cbe 730e 17be 7a51 e0bd de9a a0bc
000003f0: 8887 15be ec4e 10be f713 4a3e d307 4d3b
-0.064401545 0.26371193 0.2967163 0.113480136 -0.21160166 0.015881844 0.00049375655 0.1795065
0.0051667956 0.056554865 0.060501665 0.20408177 0.0995124 0.16036427 0.10731722 0.0938535
-0.028915985 0.20426598 0.13021825 0.18721747 -0.103009164 0.037930243 -0.13399765 -0.27598262
-0.04726756 0.08611576 -0.08525932 -0.15587287 0.1916825 0.0655179 0.18881477 0.10405134
0.24734928 0.21824804 0.1135693 -0.13534576 -0.013736294 -0.055637542 0.05824937 0.09704423
0.091230355 -0.1435853 -0.33763614 -0.033922818 0.026250083 0.3004851 0.1056429 0.11540886
-0.14118142 -0.032510474 -0.076241486 -0.11007619 0.018400371 -0.31505197 -0.19588563 -0.13248152
0.17305669 -0.055670053 0.15047733 0.02652339 -0.05477568 -0.038583513 -0.04531952 -0.22722735
-0.039982744 0.17792319 0.08897236 0.107832044 -0.1885152 0.14856595 0.01614505 0.032599837
-0.09803352 -0.047157094 -0.019069918 0.04332937 0.08995504 0.16767664 0.29014727 0.087653354
0.27048498 0.3525923 0.39672992 -0.0053496966 -0.34949833 -0.37511453 -0.20350185 -0.111309364
-0.046054516 0.064422354 -0.19183005 0.03683256 0.10394507 0.15678088 0.16250834 0.15798259
-0.06668086 0.37141693 0.3324644 0.2302182 -0.1522754 -0.026360406 0.14024724 0.0369517
-0.15751354 -0.06880305 -0.12936075 0.06418223 -0.08778624 0.11558686 0.033451963 0.06235223
0.0598553 -0.056184858 -0.0027705636 -0.18861352 -0.058315314 0.011454809 -0.25066456 -0.0019230094
-0.03281017 -0.13392074 -0.04347363 -0.2632046 0.13980363 0.18002483 -0.15508577 0.09640704
0.10952051 0.062889 -0.03397106 -0.091068715 0.04535284 -0.06543574 -0.03588834 0.23356645
-0.11451168 0.10027773 0.053651873 0.04375239 -0.051222738 0.07831357 0.1361176 0.25818813
0.15942149 0.106360495 -0.096875384 0.1251842 0.13183935 0.074463606 0.08366435 0.061543267
0.046989467 0.09738667 0.040432937 0.22295913 -0.12357086 0.15882507 0.19748 0.19770804
-0.03261938 -0.04459427 0.030906292 0.048106 -0.00096598634 -0.055115283 0.012789349 0.0012204552
0.15637314 0.06880055 -0.085444465 0.045527395 -0.035280034 -0.11341768 -0.015092751 0.23668611
0.09421663 -0.10142187 0.09220515 -0.09887748 -0.32403913 -0.21671699 0.09141592 -0.03135185
0.10847839 -0.45747226 -0.053222895 -0.0033535704 -0.089082085 -0.471189 -0.30592272 -0.021992775
-0.019049302 -0.028663889 -0.106188156 -0.05122994 0.13395086 0.1567214 0.1660847 -0.114350066
0.13301438 -0.073835574 -0.06865042 0.035553914 -0.14554858 0.039943922 0.0012593523 0.13681594
-0.028406136 0.063738674 -0.13476165 -0.008827387 -0.025627721 0.14786276 -0.19766958 -0.047960736
-0.17029239 -0.15989614 0.0652417 0.018887097 -0.1719888 -0.01595279 -0.016013142 0.11239062
-0.11950723 0.015308469 0.021506866 -0.16434462 0.27397737 -0.00798758 0.03622239 0.10858348
0.016791454 -0.31378317 -0.17479874 -0.04842013 0.013265697 -0.12369515 0.23021488 0.29706907
0.09911721 -0.25851005 -0.015153578 0.09073623 -0.03419882 -0.033799306 0.029715499 0.06665354
-0.1525118 -0.14751606 -0.109530404 -0.019605096 -0.14602482 -0.14092606 0.19734178 0.0031285181

features.2.bias f4 [16]
00000000: 49c3 58bd f1ff 77bb 4bc7 b1bd 0076 0ebe
00000010: 5ef5 b13d cb22 70bb 5f9a 1e3c 9987 86bd
00000020: f01e 76bb a85b 1bbe c374 c83d 4722 a0bd
00000030: 8e4b 35bc 28a6 cb3a 7de7 45bd c286 dd3d
-0.052920613 -0.0037841762 -0.0868059 -0.13912201 0.08689378 -0.0036641832 0.00968036 -0.06568832
-0.0037555061 -0.15171683 0.097878955 -0.07819038 -0.011065377 0.0015537189 -0.048316468 0.10816719

features.4.weight f4 [32, 16, 3, 3]
00000000: bad8 013e be85 5d3e 926f 913d 1b92 333d
00000010: 26e0 273e c964 42bc 6c4f 2a3d fd62 683e
00000020: 6a47 e63d 8c5f 22bd 850d 433e 9aff e7bc
00000030: 1576 4b3c b0f3 153e 5490 213e 982c 6abd
00000040: b1d4 2b3c 2780 483e 927d bf3d 7935 66bd
00000050: a717 40be 2020 00be edae 46be 5bf8 c4bd
00000060: fa96 093d faba 853d f126 603c 8e54 5abe
00000070: 1593 0dbd ab5c 56be c96c b5bd 1ff2 2fbd
00000080: 2e72 d13c 9d5e be3d 571b 443c 0ebb 56be
00000090: e560 efbd 3fd4 e43d 5d1d fabc 42e6 88bd
000000a0: d9c5 7bbe 6b09 11bd b53e a63d 5789 13bd
000000b0: 7263 6cbd 44c3 a73b 6d50 c1bc a2d7 f93c
000000c0: 1fd1 c43d aad1 a13d dfba 0e3e 5b8d 833d
000000d0: 2a43 9f3d c934 b03c c5ff 1dbd ec67 9abd
000000e0: 06dd 21be ca0b 13be f08e 883d 5954 eb3d
000000f0: b7f4 763c 6172 b5bb 27d9 963d 0458 5a3e
00000100: 4d78 0a3d 7f04 57bb fde6 243c aa68 57be
00000110: b846 93bd 7802 7ebd a67e 8b3e b5f6 a53d
00000120: 041e 88bd de7b 0f3e 9cda 96bd 0d53 cdbd
00000130: 2369 f3bc 4fe3 443d d1b2 1d3e 2db3 15bd
00000140: e8a5 75bc 5934 49be 221c ffbd d6b9 ba3d
00000150: fe9b 9b3d 324d edbd cab0 6abd 2a18 8d3d
00000160: 218d 32be 6d34 2ebd 45dc 36be dd53 6fbe
00000170: e474 4abe 9c7d 5e3e f21c a5bd c187 c93d
00000180: ba5d febd b5ab babd 346b f1bd 05fa 693d
00000190: bc51 b6bc 10db 1f3e 1893 00be 6e17 143e
000001a0: 33f7 f93c 64b9 233e 73ac 91bd f891 b33d
000001b0: 4868 073e 415e b6bd 50a7 90bd a5f8 8ebc
000001c0: 7cb5 ee3d 0268 0c3d c38d 04be 571d 35ba
000001d0: 1607 c9bd e457 3ebe 2fff aa3d ea2f e53d
000001e0: fd25 793d ff31 82bc 2a8c e33d 1512 bc3a
000001f0: a9a4 123e c7ed 9cbd 9cbf b1bd 8dc0 573d
00000200: fd8a 4b3d 56b0 bfbc 248d a6bc 86d6 ef3c
00000210: 50c3 823d abf8 5fbb 2e50 e9bc d346 df3d
00000220: 5216 0b3e 548d 39bd 3110 cbbd 74a0 69be
00000230: b516 5fbe 9331 88be 5c50 87be 27a8 193d
00000240: 3ff7 41bd 02b7 c23d ad17 1dbd e312 1e3e
00000250: dc42 4dbe 4637 9139 7cb8 243e d63f 64bc
00000260: 15c7 82be db5d 263d 9bbf 4dbe f038 ac3d
00000270: d94e 183d 7fbe c0bd 2b21 5cbe 4d68 12bd
00000280: eb51 283e 86e9 203e f74a a7bd ee61 7ebd
00000290: 392e 0ebe ffd1 8b3d 8b59 013e 89c7 0abe
000002a0: ec0c 8bbc 080c 103e 2daa c7bd 38c2 333d
000002b0: a9de f73d d00e 843d 9365 ae3d 4006 a63c
000002c0: a9d9 25be bfe8 afbd 51f2 3dbe 374b 7abc
000002d0: 24b4 ae3e e582 81bd f0d9 403e 3df4 b7bd
000002e0: a0eb 3ebe 507d 4abd e605 f73d 294f 6dbd
000002f0: caf1 253a f7b5 0d3d 1ad0 66be 858b acbd
00000300: 845d 583d 89d0 55be 0d3b 6bbd 2589 e53c
00000310: ed8f 6f3d 7d63 24be ec15 3c3d b9d2 cfbd
00000320: f6aa 1b3e 78fa aa3a 18b5 0ebe 77b7 17be
00000330: 86ea 073e e5a3 7a3e f402 47be 87aa 02be
00000340: 6770 f63c 3ce1 6d3d 9bb3 2a3d 1cce 063e
00000350: 882c bb3d c6a6 15bd 74f1 dcbd 849d 9cbc
00000360: c237 ea3d ae06 9cbd 1b70 ccbd 6bfe db3d
00000370: 8957 323e dc83 fc3d f322 613e e140 843c
00000380: 20f8 0fbe c2bb ebbd 8ab8 ba3d f045 d23e
00000390: c6bc 0fbd 1c53 1ebe 8aef 0a3d 3c46 8cbd
000003a0: b3aa cabd 5e16 5fbb a8b7 d43c 5d90 d5bc
000003b0: 0329 a03b 9afd 453e 58fc 21bd 7800 223d
000003c0: 3ed1 bcbd aab6 693d 0ca7 02bd 07b6 9abe
000003d0: 44a1 263e 8a24 bd3e daa8 efbd 1dc7 0abd
000003e0: c614 8ebe c4c7 0b3e 6975 a13d 3e9a 81be
000003f0: fef7 a43b 0987 21bd 747d f93d 4463 393e
0.12680331 0.2163305 0.071013585 0.04384051 0.163941 -0.011864849 0.04157965 0.22694011
0.1124409 -0.0396419 0.19048126 -0.028320123 0.01241829 0.1464374 0.15777713 -0.057171434
0.010487721 0.19580136 0.093501225 -0.05620334 -0.18759023 -0.12512255 -0.19402666 -0.096176825
0.033591248 0.065298036 0.013681159 -0.21321318 -0.034564096 -0.20933788 -0.0885864 -0.042955514
0.02556714 0.0929539 0.011969409 -0.20969793 -0.11688403 0.11173295 -0.03053158 -0.06684543
-0.24587192 -0.035409372 0.08117429 -0.03601965 -0.057712026 0.005119713 -0.02359792 0.03049833
0.09610199 0.07901318 0.13938473 0.06423446 0.077764824 0.021509545 -0.038574 -0.07539353
-0.1580697 -0.14359966 0.06667888 0.114906974 0.015072993 -0.0055373167 0.07365637 0.21322638
0.033806134 -0.0032809076 0.0100648375 -0.2103602 -0.07191223 -0.062014073 0.27245063 0.08103696
-0.0664635 0.14012095 -0.07365915 -0.10025606 -0.029713219 0.04806834 0.15400244 -0.03654783
-0.014993168 -0.19648875 -0.12456538 0.09117477 0.075981125 -0.115869895 -0.057297505 0.068893746
-0.17436649 -0.042530466 -0.17857464 -0.23371835 -0.19771153 0.21727604 -0.080621615 0.09840346
-0.12420221 -0.09114782 -0.117880255 0.057123203 -0.02225577 0.1561091 -0.12556112 0.14462063
0.030513382 0.1598869 -0.0711297 0.08768076 0.13223374 -0.08904696 -0.07063162 -0.017452547
0.11655709 0.034278877 -0.12944703 -0.0006908974 -0.09815805 -0.18588215 0.08349454 0.111907795
0.060827244 -0.01589298 0.111107185 0.0014348651 0.14320625 -0.0766254 -0.08679125 0.052673865
0.049693096 -0.023399513 -0.020330973 0.029277097 0.06384909 -0.0034175317 -0.028480615 0.109021805
0.13582733 -0.045300797 -0.09915198 -0.22815114 -0.21786006 -0.26600322 -0.26428497 0.03751388
-0.047354933 0.09507562 -0.038352657 0.15436892 -0.20045036 0.00027697737 0.16086 -0.013931235
-0.25542513 0.04061685 -0.20092623 0.084092975 0.03718457 -0.09411334 -0.21497028 -0.035744
0.16437499 0.15714082 -0.08168595 -0.06210511 -0.1388482 0.06827163 0.12631814 -0.13552679
-0.016973935 0.1406709 -0.09749255 0.043886393 0.12103016 0.06448138 0.085154675 0.020266652
-0.16196312 -0.08589315 -0.18549468 -0.015276722 0.3412181 -0.06323794 0.18833137 -0.08982132
-0.18644571 -0.049435914 0.12061672 -0.05793682 0.000633028 0.034597363 -0.22540322 -0.08425049
0.05282356 -0.20880331 -0.057429362 0.028019497 0.058486868 -0.16053577 0.045919344 -0.10147614
0.15201935 0.0013044616 -0.1393627 -0.1481608 0.13273057 0.24476583 -0.1943472 -0.12760364
0.030082894 0.05807613 0.04167519 0.13164562 0.09139353 -0.036536 -0.10788241 -0.019118078
0.11436416 -0.076184615 -0.0998232 0.10741886 0.17416205 0.12329838 0.21985988 0.016144218
-0.14059496 -0.11510421 0.09117229 0.41068983 -0.035092138 -0.15461391 0.03391985 -0.06849334
-0.098958395 -0.0034040431 0.02596648 -0.026069814 0.0048877015 0.19335023 -0.039547294 0.03955123
-0.09219597 0.057058968 -0.03189759 -0.30217 0.16272455 0.3694194 -0.11702128 -0.033881295
-0.27750224 0.13650423 0.07883722 -0.2531299 0.005034446 -0.03943542 0.121821314 0.18104273

features.4.bias f4 [32]
00000000: 460b 05bd 3ffa cebd 2e65 8ebb 3074 1cbc
00000010: 1af1 28be 9ce0 93bc 11d2 0bbe b9d6 edbd
00000020: 149b d3bd bb06 88bd da77 62bd 91ac c83d
00000030: 3afd bb3c 506a e73c 91cc 78bd 052f 28bc
00000040: 321d 09bd 6d08 053d cee6 cbbc 93f9 efbb
00000050: ccad 17bd bf1c f1bd e8db e33d d2e2 d9bc
00000060: b176 01bd f548 bdbd 0d75 a1bd 7702 d7bd
00000070: 33a5 87bd f220 6dbc 223e 3dbd 4fe8 9fbd
-0.032481454 -0.101063244 -0.0043455577 -0.009549186 -0.16498223 -0.018051438 -0.13654353 -0.11613221
-0.10332313 -0.06641909 -0.05529008 0.097985394 0.022947896 0.028248936 -0.060741965 -0.010265117
-0.03347511 0.03247874 -0.02489033 -0.0073234527 -0.03703098 -0.11773061 0.11125928 -0.026597414
-0.031607334 -0.09242431 -0.07883654 -0.10498517 -0.06623306 -0.014473187 -0.046201833 -0.07807981

features.6.weight f4 [64, 32, 3, 3]
00000000: d438 49bd c871 6d3d c454 633d 5d8f 653d
00000010: f3d4 003d b23c a4bb c8dd c1bc 38f3 0ebe
00000020: 3dce 79bd 58ae 85be 7259 12be 1811 1cbe
00000030: 2d02 dcbd a7ab f0bd f8ec 983c 62a1 3b3e
00000040: 0714 2cbe cfd8 f0bd 94cc 9dbd 17d7 10be
00000050: 1e3f 45be d136 b9bc 6c7d a7bd 9353 e4bb
00000060: 73c0 f7bb bf24 30be 0c90 9fbd b834 56be
00000070: 3aff 44be bb1c 583d 2b1b 80bd 56e2 7dbc
00000080: 8ac2 173e 39e9 2f3d 43fc 553e 78af 2d3d
00000090: 7c64 493e c518 6cbe af32 c03d a275 383d
000000a0: 30a5 34bc 0105 a03d b440 283d 5205 28bd
000000b0: 876f cf3c c0d5 b63d 7c11 513e 6aef 113e
000000c0: 6fee dabc 3aba ec3d 492c 663d 3ba5 0cbd
000000d0: 94a9 81bc c589 fbbd 527c 1c3e 9d0e 6aba
000000e0: 93e4 c63d 190b 17bd 80f4 343e f433 193e
000000f0: b2dd e7bd 00b4 073e dffe ccbc 3f46 1e3e
00000100: 3ff8 fd3d b841 99bd 4416 293d da06 38be
00000110: 914c 1b3e dbae 19bd 3f13 be3d abf9 34bd
00000120: 6b79 44bd 30ad 1a3e c1bb 2c3d 28e1 8eba
00000130: c2cd 4e3d 7eab 403d eeeb 86bd 00b7 73bd
00000140: c7f4 e4ba 8908 1dbe cbcd 823d df74 543c
00000150: 855a 36b9 3fb2 d4bd 0349 803e 2b16 39be
00000160: db01 2f3e 1633 b33b 601e febd d110 09be
00000170: 3585 583d b56c c4bd 3c19 1bbe e471 6c3e
00000180: cdb7 18be 9ae3 66bd f007 843d d64a f4bc
00000190: 397e c1bc 4193 ab3c 33de 02be 5976 42be
000001a0: d050 163e 6db9 20bd e064 37be 1d14 1d3e
000001b0: 0762 30be 1485 88bd 6d19 483c fd9e a5bc
000001c0: fa07 93be ca7a a5bd dfe4 963d 56e7 47be
000001d0: a5bc 293d 953a f4bc a2e3 83bd 880b bdbd
000001e0: 7aa4 f93c 824f fa3d 98ab e7bd f40f 32bd
000001f0: ec52 98be e9b8 8cbe d00d 77be 8a3a 8b3d
00000200: 9409 83be 9c35 af3d 8419 aa3c 797f 5cbe
00000210: f4dd 13be 1efc 323c 6b0c 5abd ae94 f53d
00000220: 7d55 a7bd dfa8 0fbd ae67 87bb 8886 993a
00000230: 36fa a2bd 67b9 dbbd bc79 22be 4bda cebc
00000240: b47a d13d 3086 40be 0e2b 9cbd e523 77be
00000250: 5b51 403d dadc 2dbe 5863 8f3c 2e8d 273d
00000260: 9de0 fabc 9675 0cbe 33bf 253b 8509 14be
00000270: f5ca d33b 54d7 35bd d675 a1bd ba8c 883d
00000280: ce18 0bbe 4dbf 90bd c865 653e c01d d33d
00000290: 0eea 263d 0d65 fcbc 2ba1 0f3b 80b8 4bba
000002a0: 8369 f7bd e911 33be 5e9c 863e 1ecc f33d
000002b0: a56a 353d 402a 433e 23d3 35bd 4ff3 f1bd
000002c0: ac9a 61be c505 b8bd 62a7 003e 36cf c8bb
000002d0: 70c0 d3bd 06ca 99bd 48da 453d d74e 57be
000002e0: ea93 8dbe 93ee 60bd 000a 04bd 6e20 32be
000002f0: ada7 173e ea0b 25be 797b b83c b9a2 0c3c
00000300: 0970 c0bd 8b71 403c 4e59 bd3d f603 36bd
00000310: 2145 82bd c39d 2b3e e5e5 453d 5a42 39be
00000320: a990 2bbe 5f27 e9bd bc7a 17be b7e7 2cbc
00000330: aa68 cebd 3002 e0bd d8a7 3e3d 2fd4 aabd
00000340: 4693 673d f163 c13d c5d8 45be d714 69bd
00000350: f59c adbb f58c 70be c00a c7bd c662 043e
00000360: b8fc 1c3e d406 e33d e709 22bd 7120 b2bd
00000370: 9361 9e3c 8c4c 7f3d e2d9 ac3d 370d d2be
00000380: 34b2 dbbb 89e0 89be 8117 853d 9e34 fbbc
00000390: 7c29 adbd 1011 1cbe 56d8 db3c 3abc 36be
000003a0: a548 52bd a877 0e3d 6c1c a5bd feb7 8ebd
000003b0: 04f3 88bd 2be7 34be c6bd d2bc b9c4 83bd
000003c0: 5e2a 92bc 2a25 b43d 6e46 b7bd 29b5 d13c
000003d0: ffcf 3f3b 3619 30bd f924 f6bc e834 ecbc
000003e0: 41a9 373e 3d60 193e 2f17 96bc 3aa4 5bbe
000003f0: a536 053e c52a 84bd 2510 11be f7d2 a6bd
-0.04912646 0.05796984 0.05550076 0.056044925 0.031453084 -0.0050121183 -0.023665324 -0.13959968
-0.0609877 -0.26109576 -0.14291933 -0.15240896 -0.107426025 -0.1175149 0.018667683 0.18323281
-0.16804515 -0.11760103 -0.07705036 -0.1414455 -0.19262359 -0.022609146 -0.08178219 -0.0069679706
-0.0075607835 -0.17201518 -0.07791147 -0.20918548 -0.19237986 0.052761775 -0.06255182 -0.015495857
0.14820305 0.042947028 0.20897011 0.04240367 0.19667238 -0.23056324 0.09384667 0.04503406
-0.011025712 0.078134544 0.04107733 -0.0410207 0.025321735 0.08927488 0.20416826 0.14251485
-0.026725022 0.115589574 0.056194577 -0.034337264 -0.015827931 -0.12282137 0.152818 -0.0008928569
0.09711566 -0.036875818 0.17671394 0.14961225 -0.11321582 0.13252258 -0.025023876 0.15456484
0.12400865 -0.07483238 0.041281 -0.17971364 0.15165927 -0.03752027 0.09281015 -0.044183414
-0.047967356 0.15105128 0.042171244 -0.0010900842 0.050489195 0.047038548 -0.06587969 -0.059500694
-0.0017467969 -0.15335287 0.06386908 0.012967317 -0.00017390594 -0.1038556 0.25055704 -0.18074863
0.17090552 0.0054687364 -0.12408137 -0.13385321 0.05286141 -0.09591047 -0.15146345 0.23090321
-0.14913864 -0.0563694 0.064468265 -0.02982084 -0.023619758 0.02094424 -0.12780075 -0.18990459
0.14679265 -0.039239336 -0.17909575 0.15339704 -0.17224894 -0.06666008 0.012213093 -0.020217413
-0.28717023 -0.08080061 0.073678724 -0.19521841 0.04143967 -0.02981309 -0.06439902 -0.09230715
0.030473936 0.12222196 -0.11312026 -0.043472245 -0.29750764 -0.27484825 -0.24126363 0.06798275
-0.25593245 0.08555147 0.02076412 -0.21533002 -0.14440137 0.010924367 -0.0532345 0.11991249
-0.081706025 -0.035073157 -0.0041322326 0.0011713067 -0.0795788 -0.10728722 -0.1586675 -0.025250575
0.10228482 -0.18801188 -0.076253995 -0.24134786 0.046952587 -0.1697878 0.017503425 0.040906124
-0.030624682 -0.1371673 0.0025290966 -0.14456756 0.0064634033 -0.044394806 -0.078838035 0.066674665
-0.13583681 -0.07067738 0.22402108 0.10308409 0.040750556 -0.030809904 0.0021916132 -0.0007771328
-0.12080672 -0.17487301 0.26291174 0.11904167 0.044291157 0.19059086 -0.04439081 -0.118139856
-0.22031659 -0.089854755 0.12563851 -0.006128217 -0.10339439 -0.07509236 0.048303872 -0.21026169
-0.27651912 -0.054915022 -0.0322361 -0.17395183 0.14810057 -0.16117826 0.022519814 0.008583718
-0.09396369 0.011745821 0.09245549 -0.04443737 -0.063608415 0.167594 0.048314948 -0.18091717
-0.16754402 -0.113844626 -0.14792913 -0.010553292 -0.10078557 -0.10937917 0.046546787 -0.08341252
0.056536935 0.094428904 -0.19320972 -0.05690464 -0.0052982518 -0.23491271 -0.09718847 0.12928304
0.1533078 0.11085287 -0.039560225 -0.08697594 0.019333636 0.06232886 0.08439995 -0.41025707
-0.006704593 -0.2692912 0.06498624 -0.030664738 -0.08455178 -0.15240884 0.026836555 -0.1784524
-0.05133881 0.03478208 -0.08062062 -0.069686875 -0.066869766 -0.17666309 -0.025725257 -0.06434006
-0.017842468 0.08796151 -0.0894898 0.02559908 0.0029268262 -0.042992793 -0.030046927 -0.028833821
0.17935659 0.14978118 -0.018321602 -0.21449366 0.13009126 -0.0645347 -0.14166315 -0.08145707

features.6.bias f4 [64]
00000000: 3959 17bb 4b03 07bd e6dc 93bd b66b 233d
00000010: 2c16 833d 608c 18bc 4ce1 07bd 8232 35bd
00000020: fa44 16bb 28cb d2bd 7fa3 dfbd 8216 823b
00000030: b9f5 5abd 3c39 e9bd 811e fc3c 07b6 3cbd
00000040: 26cc d43c 936c 233c 3143 0dbd 6ebd a53c
00000050: b7d8 81bd 0376 54bd 85d7 903c 1b1a 8d3a
00000060: 692c a2bc c130 b6bb 0d4b 6abd 945f 94bd
00000070: cb26 a5bd 6abe 86bd 878d 2a3c 48ae 85bc
00000080: 806d bbbc 464b 1ebc 2be0 efbc a576 56bb
00000090: 44cb f5bc 94f7 c7bc c2f2 55bd 5515 573b
000000a0: 1671 923c b714 20bd 8678 cabd 2adc 03bd
000000b0: acfc 7b3d 4108 c13c 5b98 0dbc 5d20 193d
000000c0: e8fd 19bd 65b6 bbbc c2ed 813d 431b e4ba
000000d0: adf5 42bd b3d0 853d 7e50 a9bd fe33 1c3d
000000e0: fcf4 d9bd 7f9f 34bd d177 d6bc ecf2 92bb
000000f0: bdae 0dbc c601 81bd 4662 90bd 9e80 ecbb
-0.0023093952 -0.032962125 -0.072198674 0.039897643 0.06400713 -0.009310812 -0.033173844 -0.04423762
-0.0022929297 -0.10292655 -0.10919856 0.0039699683 -0.053456996 -0.1138787 0.030776264 -0.046072032
0.025976252 0.009974617 -0.034487907 0.020231929 -0.06340163 -0.051870357 0.017680893 0.0010765226
-0.019796567 -0.005560011 -0.05720048 -0.072447926 -0.0806404 -0.06579287 0.010409719 -0.016318455
-0.022879362 -0.009661501 -0.029281696 -0.0032724526 -0.030004151 -0.024410047 -0.052233465 0.0032819111
0.01787619 -0.039082255 -0.09886269 -0.032192387 0.061520264 0.023563506 -0.008642281 0.03738438
-0.03759566 -0.02291412 0.06344177 -0.0017403144 -0.047597576 0.06533947 -0.08267306 0.03813552
-0.1064243 -0.04409742 -0.02618018 -0.004484525 -0.008647618 -0.062991664 -0.07049994 -0.007217481

features.8.weight f4 [128, 64, 3, 3]
00000000: 9f77 a8bd d156 eb3d e86b 943d fd9b 5d3c
00000010: dec2 aa3d 2e96 88bd ce17 bb3b 94d6 eebc
00000020: 3571 dc3d ca18 573d fe4c 1fbe 542f 593d
00000030: f531 273e 06ce fd3c d3fd 08be 981e 48be
00000040: af46 89bd e7c6 a9bd c206 21bd 7e37 adbd
00000050: f810 d73c 0229 fc3d 2def 683d b254 bb3d
00000060: 5dd5 79bd 3b39 823d f9dc a53d 3860 d2bd
00000070: c628 d8bd 9e64 3ebe 802a 97be 1d44 ff3c
00000080: 1917 b7bd 018f f5bd 1424 d8bd b01d 59bd
00000090: 32bf b33d 9291 aa3d 749f ddbd f60f 2ebe
000000a0: 109f 21be 7963 c6bd 5846 7c3d b600 6f3d
000000b0: ec53 db3c ed6a a2bd e881 b9bd 3008 083e
000000c0: 0c40 50bd 1736 313c a5ac 7d3e 25e6 04bd
000000d0: 2b53 d2bc f3cf 9cbc 65df 17bc d42d 2f3e
000000e0: 31cc 213d 8b10 9c3b 3b81 05be 1777 ce3c
000000f0: d34a a8bb d14b a5bc bb3d 063c 506c 923d
00000100: e56e 3e3e 48c3 2f3d e445 46bd c8d1 d5bd
00000110: 3d7b 2dbe 84a3 fd3c 9d56 a63b 4bb4 9ebd
00000120: aa76 b1bc 7c73 c9bd 46bd 833b d5c0 81bd
00000130: a051 503d 5cd1 f33d 7b4a 48be 6927 a63d
00000140: 4c30 933d 5518 9cbd e432 a03b 0337 f13a
00000150: de2a eabd 57e4 103d cf28 0f3d b3e9 a1be
00000160: 659f b0bd 159d 193e 6378 b43d 1b53 30bd
00000170: 9f6e 3bbe 05f5 033d f9a7 28bd 3f42 153e
00000180: 3b19 33be 6bd2 583b 00cd 1dbd 52c9 60be
00000190: 5f60 753d 986a 51be 1804 33bd 4387 32be
000001a0: c20d b43d 6c05 29bd e946 dfbc 1d1c 88bd
000001b0: 0d9b 9c3c f50f 05bd 053d 16bd 793c 8dbd
000001c0: 6ad9 07be 1510 6b3a d209 d6bd 4c9d 81bd
000001d0: 5f01 d5bd ec55 bf3d 4539 a33d f8c8 9e3d
000001e0: bc0b 93bd 7159 7cbe 4620 c03d 32e2 f43d
000001f0: 449f 88bc fa0c 5f3d e4b0 9cbd fd3d eabc
00000200: b5e6 173c e4f4 903d dc85 293e 639b 3d3d
00000210: 5e89 f7bb 40e8 a3bc 9a65 ba3d 29ab b2bb
00000220: 2a3a 58bc 0044 a9bd 7e93 02be 2c6f 9d3d
00000230: b46f 103e 9f95 53bc 5124 6c3b 11e7 05bd
00000240: 9e42 87bd 81d6 833e 1163 f0bc 48f6 ef3d
00000250: 7af8 b13c bba3 a13d 8ab1 003e bd46 533c
00000260: e429 903d fb7c 3b3d 246f 903c 0507 0cbe
00000270: 19a2 36bd 7d99 32bc d1b6 083b 2e03 c7bd
00000280: 4fa0 48bd 4138 3f3b 5ab9 bc3d b7e2 983d
00000290: a76f 54bc 62ca 763b b40c 553d a36f f0bc
000002a0: 9abf 70bc bf69 153e 5f75 b63d 60a8 ca3d
000002b0: eb56 9d3b 22bd 3db9 993b 3c3a fd2d d4bd
000002c0: 6d60 04bd 77a1 9bbd 5086 ffbd c070 883d
000002d0: d936 c4bd 7db4 873d b25c 40bd adf0 59bd
000002e0: 3bde bc3d 37e0 353e 4cea 9c3c 7c97 d93d
000002f0: 19c1 fdbc 0a72 a7bc 4de9 183e d871 2c3e
00000300: f6fc 6c3c d42b cd3c ef04 b23c 89b9 cebd
00000310: 18b6 a8bd 46e2 e6bd 248d cabd 5e27 8fbd
00000320: 65e3 903d efc1 48bd cc87 943d b59b 1dbd
00000330: aea3 a1bd 093e 0a3c eb38 cf3c ec88 b6ba
00000340: 9673 72bc 7794 fc3d a354 e3bd 706e 35bd
00000350: 31e7 893d ca10 96bd dcee babc cdc8 98bd
00000360: 237c febc e534 f5bc ca1d 79bd 6e4e 913b
00000370: a1e9 eb3b 6e2f b43d da81 d7bd ab91 e2bd
00000380: 60de e7ba 2a77 073d c9d9 813d 41a1 363c
00000390: 16b7 5f3e b45a 15bd 47b8 82bd c344 debd
000003a0: c6cf 9d3d 73b7 d23d f64a 8a3d 183c 823e
000003b0: 8e8f 6bbc 6718 16bd 1929 a13d 45e1 853e
000003c0: e9f1 c2bd 973d 943d 9d70 583d d067 ff3d
000003d0: 207a a93c 67e2 31be aebd d3bb 958f 143b
000003e0: 9da7 fa3d bcd6 06be 7611 b53c 59e9 ab3d
000003f0: 441f 0d3a d66c df3d d072 c93d 9ded 853c
-0.08225941 0.11491168 0.07247144 0.01352596 0.08337949 -0.066692695 0.005709625 -0.029155053
0.1076378 0.052513875 -0.15556714 0.05302365 0.16327651 0.030982029 -0.13378076 -0.1954292
-0.06702935 -0.08289891 -0.039313085 -0.0845785 0.026253209 0.12312509 0.05686872 0.09147014
-0.060994495 0.06358572 0.08098788 -0.102722585 -0.10554652 -0.1859307 -0.29524612 0.031160409
-0.089399524 -0.119901665 -0.10553756 -0.053006828 0.08776702 0.083285466 -0.10821429 -0.16998276
-0.15783334 -0.09686942 0.061590523 0.058350287 0.026773416 -0.07930551 -0.09057981 0.13284373
-0.05084233 0.010816119 0.2477289 -0.032446045 -0.025674423 -0.019142127 -0.00926957 0.17107326
0.039501373 0.0047627143 -0.13037579 0.02520327 -0.005135873 -0.020177754 0.008193429 0.07149565
0.1859699 0.042910844 -0.048406497 -0.10440403 -0.16941543 0.03096176 0.005076243 -0.07749232
-0.021663029 -0.0983648 0.004020366 -0.06335608 0.050859094 0.119051665 -0.19559662 0.08112986
0.07186946 -0.076218285 0.004888879 0.0018403236 -0.114339575 0.03537401 0.034951027 -0.3162361
-0.08624152 0.15001328 0.088120244 -0.043048006 -0.18303917 0.03221609 -0.041175816 0.14576052
-0.17490093 0.0033084403 -0.03852558 -0.21951798 0.05990636 -0.20450819 -0.043705076 -0.17434411
0.087916866 -0.041264936 -0.027255492 -0.06645987 0.019116903 -0.03248592 -0.036679287 -0.068963
-0.1326653 0.0008966935 -0.10451092 -0.0632883 -0.10400652 0.0934256 0.07969908 0.077531755
-0.071799725 -0.24643494 0.09381156 0.11957206 -0.016677506 0.054455735 -0.07650927 -0.028594011
0.009271313 0.07077959 0.1655497 0.046290766 -0.0075542172 -0.020008206 0.0910141 -0.005452533
-0.013197461 -0.08264923 -0.12751576 0.0768722 0.14105111 -0.01291409 0.0036032388 -0.032691065
-0.06604503 0.2574959 -0.029344114 0.11716896 0.021724928 0.07892557 0.12567726 0.012895283
0.0703924 0.045773488 0.017631121 -0.13674553 -0.044588182 -0.010900852 0.002086092 -0.09717403
-0.048981007 0.0029177817 0.092150405 0.074651174 -0.012966073 0.003765725 0.052014068 -0.029350108
-0.014694119 0.1459112 0.089091055 0.09895396 0.004801621 -0.00018094902 0.00071805116 -0.10360334
-0.03231852 -0.07599156 -0.1247679 0.0666213 -0.09580774 0.06626222 -0.0469634 -0.053208042
0.092220746 0.17761312 0.01915469 0.106245965 -0.030975865 -0.02044012 0.14932747 0.16840303
0.014464607 0.025045313 0.021730868 -0.10093982 -0.082378566 -0.11273627 -0.09890202 -0.069899306
0.07074622 -0.049013074 0.07252464 -0.038478572 -0.078925475 0.008437642 0.025295695 -0.0013926304
-0.014798066 0.12333005 -0.111001275 -0.044294775 0.067335494 -0.07327421 -0.022818975 -0.07460175
-0.031065052 -0.029932449 -0.060819425 0.0044343984 0.0071994816 0.08798109 -0.10522814 -0.1106294
-0.0017690174 0.033072628 0.06340367 0.011146844 0.21847185 -0.036463454 -0.06382804 -0.10852959
0.07705645 0.102888964 0.06752579 0.25436473 -0.014377488 -0.036644366 0.07869167 0.2614843
-0.09518797 0.0723831 0.05284177 0.124709725 0.020688117 -0.17371522 -0.0064618206 0.002266859
0.12239001 -0.13167852 0.022103053 0.08394117 0.0005383382 0.10909431 0.09836352 0.016348654

features.8.bias f4 [128]
00000000: 17b3 bbbc 02c8 153b c616 653d 8461 993c
00000010: 207d ef3b 4e38 03bc 4592 16bd 86b7 c63d
00000020: 2544 f43c a7ef acbc 9a27 9f3d 0326 93bd
00000030: a295 e83d 652a 61bd 7da9 90bd 45e5 24bc
00000040: 9a12 92bc eb40 07bc 48a4 d0bc 051a b5bc
00000050: 80b2 10bd 2654 abbc 2749 21bd aae4 a0bb
00000060: 4dbd d1bc 9eaa 67bc 8c25 a5bd d8cd 443d
00000070: 9b30 813d 4967 283c 96a9 69bd 1eb6 3d3d
00000080: 04ef 7d3d 462f 123d 7439 043d b481 11bd
00000090: af97 aa3d 3865 bc3b 84e7 88bd 6b26 3bbd
000000a0: 3bc6 233d bd53 15bd c7b7 5cbd 1cbf 1f3c
000000b0: 7395 1d3d cf06 55bc 1a55 6bbd cc00 0abd
000000c0: a4d1 153d b7d0 413d a2ed 2dbc 6b8f 8bbd
000000d0: c5a7 71bc d403 423c 7ede 92bd 66a4 2c3d
000000e0: 505e 83bc 4d57 e63a 42d3 84bc d59c a0bd
000000f0: de6b 79bd 1b46 40bc e441 dabb eda3 d4bc
00000100: d5c3 57bd 73dd 74bd 2057 023c f135 d2bc
00000110: 7145 ad3d f940 f23c 6966 613d 1a0b 6a3d
00000120: d950 433c db60 5fbd e30c 82bb 4ae3 3c3c
00000130: b2ad b0bc d534 a2bc de90 e8bb b20b 393d
00000140: 29d5 51bd bb1d fb3c 52dc e03c 2aac a4bc
00000150: 5b89 65bd b38f 393c 6fbe 733d 833c db3c
00000160: 30fa 24bd a51b 7fbd 9c7b 9a3c a2b6 613d
00000170: 1ace b6bd 34ab 52bd 1514 863d a687 2b3d
00000180: 2dbe b9ba da01 c6bb 531a 09bb 8f12 61bc
00000190: d2bb c5bc 9601 18bd bf9f 80bd 7cbc 4fbd
000001a0: ba0b e13c 9893 273d 1920 9dbc bc48 eebc
000001b0: bd58 32bd 84d0 f6bc 6b9f b03d 9d19 99bc
000001c0: 489b 2cbc 1068 14bd cd8a d23c 2e75 57bd
000001d0: 6819 8bbc 77c8 86bd 6e32 7e3b 1369 953d
000001e0: 1502 ca3a 0d79 50bd 6c19 1b3c 7125 b43a
000001f0: fc8b 60bc 9d6d 943d 4aab 56bd 93b0 4dbc
-0.022912545 0.002285481 0.05592992 0.018723257 0.0073086172 -0.00800903 -0.036760587 0.09702973
0.02981765 -0.021110369 0.07771225 -0.071849845 0.11356665 -0.05497207 -0.07063577 -0.010064428
-0.017831136 -0.008255224 -0.02546896 -0.022107134 -0.03532648 -0.020914149 -0.039376404 -0.0049100714
-0.025602961 -0.014139799 -0.08063802 0.04804787 0.06308099 0.010278531 -0.057046495 0.04631626
0.06199552 0.035689615 0.032281354 -0.035524085 0.083297126 0.005749371 -0.06684783 -0.045690935
0.03998397 -0.036456812 -0.0538862 0.009750154 0.038472604 -0.013002112 -0.057454206 -0.033692166
0.036576882 0.047318187 -0.010615738 -0.06814464 -0.014749472 0.011841733 -0.07171343 0.04214897
-0.016036183 0.0017573625 -0.016214017 -0.07842413 -0.060893886 -0.011735464 -0.006660687 -0.025957072
-0.052676994 -0.059781503 0.0079553425 -0.025660487 0.084605105 0.029571997 0.055029307 0.057139494
0.011921131 -0.054535728 -0.0039688214 0.011528799 -0.0215672 -0.019800583 -0.0070973476 0.04517717
-0.051228676 0.030653825 0.027448807 -0.020101625 -0.056039196 0.0113257645 0.059507784 0.026762253
-0.04027766 -0.062282223 0.01885777 0.055105813 -0.089260295 -0.051432803 0.06546799 0.04187741
-0.0014171057 -0.006042701 -0.0020920231 -0.013737335 -0.024137411 -0.037110887 -0.06280469 -0.050716862
0.027471412 0.04091224 -0.019180344 -0.029087417 -0.04354166 -0.030128725 0.086241566 -0.018688971
-0.010535069 -0.036232054 0.025700951 -0.052601986 -0.016979888 -0.065812044 0.0038787383 0.07295432
0.0015411997 -0.050896693 0.00946651 0.0013744069 -0.01370525 0.072474696 -0.052409448 -0.012554306

head.0.weight f4 [256, 256]
00000000: a1c7 00be f060 023e 04ed 9b3c b02e b93c
00000010: 414b d3bd 22ef 38bd d562 073c fa25 9bbd
00000020: b8b2 21bd 2869 573c 7a03 273d 61af af3d
00000030: ef2d c63c daac b63d 6424 c73b 99d7 72bd
00000040: 2cf4 0e3d f901 32be 3ed3 2dbd c9c6 81bc
00000050: 2f56 623b 191c 34be fd84 06bc 389e 073d
00000060: f152 93bd 4932 57bd 8771 98bd 47c2 e63d
00000070: 691d 2bbd 733e c33c 977f 543d 64d6 813b
00000080: ffae dd3b 485b e33d db8f ea3d 48a9 193d
00000090: 3ea2 e73b 37b6 bc3c 0694 2bb9 a921 7c3e
000000a0: f827 d4bd 06e5 653e 5e78 0c3e 6cec 49be
000000b0: 7354 243c d26c 33be 2ddf 353e 8f70 54bc
000000c0: 0a40 dcbd 69ec 66be a130 86bd f6c4 e13d
000000d0: d6b9 5ebc 04e1 a6bd bfc0 123e 3797 e33d
000000e0: 7600 25be 83d0 8d3d 1b3d 193e 9b6d 61be
000000f0: 0459 2f3e 1dd0 00be 2a1a b43d 161f 2e3d
00000100: 8a3b cb3c 9dba 2fbe 3007 14bd aee9 2cbd
00000110: eff0 163e 74a7 eabd f83c 8abe c774 43bd
00000120: f793 2d3d d0bb 43bd 8472 8abd 810c 693d
00000130: 9894 c6bd b24e 2fbd f0c3 5cbd 0fa7 043e
00000140: 40da 1abc 76db 13be 9007 7bbd 4577 233e
00000150: 6dd4 07bb 9269 523e b960 ecbd d990 9d3c
00000160: 0d09 2a3e 2e11 75bd 7d37 dfbb 621d 36be
00000170: 4631 ae3d 0b12 bebd c55d 89be d9fa 37be
00000180: 886c 08be 1a6d 083e 868a c13d 623d 8d3d
00000190: c249 27be 47e2 be3b 7b7f 84be 3460 63bd
000001a0: c625 dd3d 8d7b 983d 76b0 8cbe c523 5abe
000001b0: 2ef8 50be 84f8 d53c 7479 96be 1315 2d3e
000001c0: 7da0 8b3e 02d1 b5bb 174a 22be c400 4cbe
000001d0: 0119 5fbe 8472 ba3d b650 943d d21b 89bd
000001e0: 1a24 c9bd cb9f 423d 5d62 7fbd 79b9 953a
000001f0: adc0 a9bd 4ea3 44be cd90 98bc 247b a8bb
00000200: 2075 67be 3991 873d d12b 1c3c ba70 ef3d
00000210: d8c8 333e 8f25 a6bd 1582 413d 3954 05be
00000220: e6f8 eb3d 9278 babc 8036 d53d 9a8e 8dbb
00000230: 1eac a8bc 77e5 1a3b 6ed7 25be be81 cbbc
00000240: a7df c7bd b87d 203e 5d34 33be 337d ddbd
00000250: 2846 cabd a573 c9bd f5f2 593e dfaa 1c3d
00000260: ef7c 9fbb 4e59 de3c 9b2f 473c 4ffc 913d
00000270: 4709 473b 6666 b2bd 4bea d5bd 297b 96bd
00000280: 2cff c43d d868 463c 8bbf 0abe e970 0e3d
00000290: f550 063e dfd6 bdbd 5111 233e 6fcb 893c
000002a0: 5b4e 90bc 69ff 0e3d 9342 073e c7d0 ab3d
000002b0: 2d1f f73b 510c e73c 2fa6 843d b2e1 993d
000002c0: 9615 c93d 7eca 353d c968 61be 91dd 9cbc
000002d0: d868 bcbd 8843 92bb 765f b1bd e852 35bd
000002e0: 5272 65be 4d7e ee3d fc75 273e 51b0 13be
000002f0: 77a4 713d 3b5a ab3d cd18 75bd 5f5b cf3a
00000300: 7b95 b1bc 52c6 41be 26f6 18bd ed5b a9bd
00000310: 800d 033d c3a4 41bd 68ae cabd 1137 103e
00000320: 9340 28be 5ee1 c03d 3826 07be 66a8 0bbe
00000330: 7066 19bd dde1 033e 0331 133e 0d30 21be
00000340: 7358 613e a6a5 acbd 3399 b7bd 8107 fbbd
00000350: 59fb f73b eb64 e0bd ad63 eabd 9a4c 8fbd
00000360: 43d3 6cbd 2753 b4bc f35f a8bc 9a40 01bd
00000370: 4ca8 bd3d 2aa5 92bc 9f49 d73d ccfd 19be
00000380: f558 553d 180f 00bc e9ac debc bd2a 18bd
00000390: 7422 053e 1550 03be 1594 7f3d debb ea3c
000003a0: a111 4eb9 046c 853e 9be0 0dbe 2712 87bd
000003b0: cd60 e73d e8df b23d bbef f83d 9028 2bbe
000003c0: d09a 033e f4c9 273e 9689 5bbc 625d d93d
000003d0: 6dd2 0b3d 9ec2 d2bd 61d2 87bd 33c3 ce3d
000003e0: 5c38 07be 439f 18be 637b bb3d 18e3 0f3d
000003f0: 29cf 07be bb98 433d f97b 1f3d faec 61be
-0.12576152 0.12732291 0.019033916 0.02260527 -0.10317088 -0.04514993 0.0082633095 -0.07575603
-0.03947708 0.01314763 0.0407748 0.08578373 0.024191825 0.089196876 0.006077336 -0.05928764
0.03490083 -0.17383565 -0.042437784 -0.015841858 0.0034536233 -0.17588843 -0.008210418 0.033109874
-0.07193554 -0.05253819 -0.074435286 0.11267524 -0.041776095 0.023833489 0.05187949 0.003962325
0.006765246 0.11101395 0.114532195 0.037514955 0.0070689013 0.023036106 -0.00016362974 0.24622215
-0.10359186 0.22450647 0.13717791 -0.19719094 0.0100299 -0.1752198 0.17760916 -0.012966289
-0.10754402 -0.22551121 -0.06552244 0.110238954 -0.013594111 -0.08148387 0.1433134 0.11112826
-0.16113457 0.06924536 0.14964716 -0.22014467 0.171238 -0.12579389 0.08794053 0.042510115
0.024808664 -0.17161031 -0.036139667 -0.04221504 0.14740346 -0.114577204 -0.2699964 -0.04771879
0.04237744 -0.047786534 -0.06760123 0.05689669 -0.09696311 -0.04279966 -0.053897798 0.12954353
-0.009451449 -0.14439186 -0.06128651 0.15963466 -0.002072598 0.20548084 -0.11541886 0.019234108
0.16605015 -0.059830837 -0.0068120346 -0.17784646 0.08505492 -0.09280785 -0.26829353 -0.17966785
-0.13322651 0.13322869 0.094502494 0.068964735 -0.1633673 0.005825314 -0.2587851 -0.05551167
0.1079822 0.074454404 -0.2747838 -0.21302707 -0.20407173 0.026119478 -0.29389536 0.1690257
0.2727088 -0.0055485973 -0.15848576 -0.19922167 -0.21786882 0.09103873 0.07241957 -0.066947594
-0.09821339 0.04751567 -0.062349666 0.0011423073 -0.08288703 -0.19202921 -0.018623734 -0.0051416326
-0.22603273 0.06619496 0.009531931 0.11691423 0.17557085 -0.081126325 0.047243197 -0.1302041
0.11522083 -0.02276257 0.10410786 -0.004319978 -0.020589884 0.0023635307 -0.16195461 -0.02484214
-0.09759455 0.15672958 -0.17500444 -0.108148955 -0.098766625 -0.098365106 0.21284087 0.038248893
-0.004867188 0.027142193 0.012157346 0.07128202 0.003037052 -0.08710937 -0.104450785 -0.0734771
0.09618983 0.012109958 -0.1354963 0.03477565 0.1311682 -0.09269499 0.15924574 0.016820638
-0.017615488 0.034911547 0.1320899 0.083894305 0.0075415582 0.028204115 0.064770095 0.07513751
0.0981857 0.044382565 -0.22012629 -0.01914862 -0.09199685 -0.0044636168 -0.08660786 -0.04426852
-0.22406891 0.11645184 0.16353601 -0.14422728 0.058994737 0.083668195 -0.059838105 0.0015820077
-0.021677723 -0.1892331 -0.03734412 -0.082694866 0.031995296 -0.04727627 -0.098965466 0.14083506
-0.16430883 0.094179854 -0.13198173 -0.13638458 -0.037451208 0.12879129 0.14374165 -0.15740986
0.22006397 -0.084300324 -0.08964767 -0.12257291 0.007567805 -0.109567486 -0.11444793 -0.069970325
-0.057818662 -0.022012306 -0.020553565 -0.03155575 0.09260616 -0.017901022 0.10512089 -0.15038222
0.05208679 -0.007816099 -0.02718206 -0.037150133 0.13001424 -0.12823518 0.06239708 0.028654035
-0.00019652258 0.26058972 -0.13855211 -0.06595259 0.1129776 0.08734113 0.121551 -0.16714692
0.12852025 0.16385633 -0.013399502 0.106135145 0.034136225 -0.102910265 -0.066319235 0.10095825
-0.13205093 -0.14904504 0.091543935 0.035128683 -0.13262619 0.047753077 0.03893659 -0.22063056

head.0.bias f4 [256]
00000000: 91e7 c4bd 6de0 5e3d b6d5 04bd 028f 9bbd
00000010: 57e4 dc3d f24f 34bc 7c1d 863d fe41 c83d
00000020: d77d 34bc 2e54 54bd 0ae9 e63b 9da2 7cbd
00000030: 55dc 21bd 864a 85bd 05a9 923d 00f9 233c
00000040: 1fbd 2fbd 95d6 99bc 79b2 783b fddb 3b3c
00000050: c8c5 84bd f136 1ebd 3ac6 1ebd 92a1 003e
00000060: 9857 b1bd 1ff1 c5bd 0a85 893d 5fcd 8fbd
00000070: a933 fdbc c303 7b3d 3aa7 313d 66af 9e3d
00000080: 0aba 5b3b 59cb 053c c802 793d 6ffa bdbc
00000090: 9da7 7e3d aa08 77bd b7c8 d4bd 29fa a7bd
000000a0: 2455 b73c 7b3c babd 0d18 a43d 3ef5 3f3c
000000b0: 09f2 d1bd 2256 1b3d 8668 8abd 822e 99bc
000000c0: 17ae 59bd 9f85 d3bd 37d0 79bd fd85 5c3d
000000d0: 96bf d0bc b514 86bd 2a3f 32bd 1d9b 753d
000000e0: cc9a 1ebd 0f97 67bc 5294 1b3e c960 9c3c
000000f0: 9ed8 f53c bc12 743d 0dc1 703d af02 abbd
00000100: dec9 603d f023 f1bd 0718 093e 9e46 8bbd
00000110: af84 2ebd 3965 a23a 8c7d 29bd 8b11 b63d
00000120: f6db da3d 608f 233e 9c8d fb3d 890c a8bd
00000130: 8e4d 88bd 86ec 8cbd da6f d5bd 45a9 bcbd
00000140: f808 283e b2de 0fbd 5dba 7fbd 7b5a 08be
00000150: 5b8b 5fbd 97a4 373e 5d7f 8a3c 8b1e 1ebd
00000160: 3e94 11be e33d 99bd 4212 ccbd f186 b3bd
00000170: ab70 cebd 232c f83d 960d 05be 6396 cb3d
00000180: 936c 2fbd 4e64 ccbd e97a 0e3d ab52 8d3b
00000190: 37ab 6a3b a65c 3cbd f093 233e 1ed5 103e
000001a0: a895 e3bd 0515 8dbc 3a70 e03d ca0f febc
000001b0: 4d25 023d baa0 b1bd fc96 c4bd 4f39 793d
000001c0: cc8b 4abd 80c4 6cbd ddf6 7e3d 14e2 bb3c
000001d0: b1da babc a4d7 403d 7149 64bd 675d e0bd
000001e0: 9024 b73d ba29 7cbb 6b33 a8bd aedf 9dbd
000001f0: fa1b 11bd 7e5c 513d 13ee 97bd 1691 cabd
00000200: 0a55 453d 323c bb3c 9dc2 263d f90d 133c
00000210: 7dfd 033d da7f 9bbd ef36 af3d 278d 39bd
00000220: 6d8f a83c 9acd cbbc a148 b73d 37e1 7e3d
00000230: 1a97 1cbc 0b1d 5b3b 4525 59bd 01d0 82bd
00000240: f88d 1e3d a59d 00bd f22c c93c bc48 223e
00000250: a3f3 33bc 4dac 193e 1ba0 85bd 4a13 78bd
00000260: 11ae 52bc 36c9 85bd 13a2 dabd 7a16 c2bd
00000270: 7519 07bc 4271 713d ffb8 b9bd 83d4 a2bc
00000280: 7546 d7bd 7bdf 8c3d 19c6 debd 7894 e4bd
00000290: 849e 31bd 4bb5 bebd 6e40 9bbd 02e0 853d
000002a0: 59f6 dabd afce a8bd 7488 debd f420 a13d
000002b0: 5ae6 5abd 3978 2cbd bf33 d73d c40c 0f3d
000002c0: cbfd 80bd c94c cfbd 07f8 8c3d 0724 9b3d
000002d0: 5477 1bbd 82ef 8dbd c8ad 51bd d136 443b
000002e0: d9bf ae3d 5c49 033e 7ad8 0bbc 5d86 ccbc
000002f0: 0677 67bd fd93 ea3d e997 003d 2eb5 a1bd
00000300: 06d6 efbd ce5f b23d 52aa a13d 55ef 0a3d
00000310: ebdf 77bd e8fb c8bd 8eb4 87bd 2e2c 9cbd
00000320: 2132 84bd 9a55 933c 39bc 233e 0c63 3b3e
00000330: 3d3e 313b 0a37 01be 404e 9abd c039 02bd
00000340: 3972 35bd f561 b9bd 423b 353e 2fe1 003d
00000350: a9fe b5bd 3de8 c0bd dce9 74bc efa2 113d
00000360: 8206 56bd ad6f b6bc 0314 4dbd f572 e43d
00000370: b4c1 1d3d cda1 103d 518a f43d a935 c73d
00000380: 56b2 df3d 76fc 80bd 0470 8bbd 8196 f33d
00000390: b091 babd 37df 653d 1f57 4bbd ea42 343c
000003a0: de1c 8bbd 2481 cf3c d202 ab3d 18c4 abbd
000003b0: f033 6fbd bcc2 293e 4e0d d7bb 80b8 acbd
000003c0: 60f4 843d 4dba 173e 9968 20bd be8b 973c
000003d0: 9906 d5bd 6a42 aebd 58aa a03d 8e22 383e
000003e0: 8354 b73c ec6d eebc b81c cb3d 6542 dbbd
000003f0: c238 353c f6d8 b0bd 40ec c8bc 80d9 903d
-0.0961448 0.054413248 -0.032430373 -0.07595636 0.1078574 -0.011005389 0.065485924 0.09778212
-0.011016331 -0.051838093 0.0070468234 -0.061678518 -0.039516766 -0.06508355 0.07161144 0.010008097
-0.04290497 -0.018779078 0.0037948175 0.0114660235 -0.06483036 -0.038626615 -0.038763262 0.12561634
-0.08659285 -0.09665131 0.06714828 -0.07021593 -0.030908423 0.061282884 0.04337237 0.07748298
0.0033527636 0.008166158 0.060793668 -0.023190705 0.062171567 -0.060310997 -0.10389846 -0.08202011
0.022379465 -0.09093567 0.080124 0.011716185 -0.10251243 0.03792394 -0.067582175 -0.018698934
-0.05314454 -0.103282206 -0.060989585 0.05383872 -0.02548198 -0.06546918 -0.04351727 0.05996238
-0.038721845 -0.014135136 0.15193298 0.01908912 0.030010518 0.05958818 0.058777858 -0.08350121
0.054880016 -0.11774433 0.13388072 -0.068005785 -0.042607006 0.0012389786 -0.041379496 0.08890065
0.106864855 0.15972662 0.12282869 -0.08205516 -0.066554174 -0.06881051 -0.104217246 -0.09211973
0.16409671 -0.03512449 -0.06243359 -0.13315766 -0.05457626 0.1793388 0.016906435 -0.038603347
-0.14216706 -0.07482507 -0.0996442 -0.087659724 -0.100800835 0.121177934 -0.12993464 0.09940793
-0.042828154 -0.09980069 0.034785185 0.0043128333 0.0035807618 -0.045986794 0.15974402 0.14143798
-0.11112529 -0.017221937 0.109589055 -0.031013388 0.031773854 -0.08673234 -0.095991105 0.06084567
-0.049449727 -0.057804585 0.062247146 0.02293495 -0.022809358 0.04708065 -0.0557341 -0.10955315
0.089425206 -0.003847702 -0.08212932 -0.07708679 -0.03542707 0.051113598 -0.07418456 -0.09890954
0.048176803 0.022855852 0.04071294 0.008975499 0.032224167 -0.07592745 0.085553996 -0.04530063
0.020576203 -0.024878312 0.089494 0.0622265 -0.00955751 0.003343406 -0.05301406 -0.0638733
0.03870961 -0.03140034 0.024557564 0.15848058 -0.0109833805 0.15007134 -0.06524678 -0.06056527
-0.0128588835 -0.065325186 -0.106754445 -0.09476943 -0.0082458155 0.0589459 -0.09068488 -0.019876724
-0.105114855 0.06878563 -0.10877628 -0.11161131 -0.043364063 -0.09311923 -0.07580648 0.06536867
-0.10691518 -0.08242547 -0.1086587 0.078676134 -0.053442337 -0.04210684 0.10507917 0.034924284
-0.06298407 -0.101220675 0.06883245 0.07575231 -0.037955597 -0.06930448 -0.05119112 0.00299399
0.08532686 0.12820953 -0.008535499 -0.024966413 -0.056509994 0.11454008 0.031394873 -0.078958854
-0.117107436 0.087096795 0.07893814 0.03391965 -0.06051628 -0.09813672 -0.06626235 -0.07625614
-0.06454874 0.017985154 0.1598977 0.18299502 0.0027045154 -0.12618652 -0.07534456 -0.031793356
-0.044298384 -0.09051887 0.17698386 0.03146475 -0.08886463 -0.09419296 -0.014948335 0.035555776
-0.0522523 -0.022270048 -0.050067913 0.11154739 0.038514808 0.035310555 0.11940444 0.09727032
0.10922687 -0.06298153 -0.06808475 0.11893941 -0.09109819 0.056121077 -0.049643632 0.011002282
-0.06792615 0.025330134 0.08350147 -0.08387011 -0.05839914 0.16578192 -0.0065628653 -0.08433628
0.06491923 0.14817162 -0.039162252 0.018499251 -0.10401649 -0.08508761 0.078449905 0.17981932
0.022379166 -0.02910515 0.09917587 -0.10706023 0.011060895 -0.08635132 -0.024526715 0.07072735
